p1_actor_envs_2_lam_0_9922430370674816_gamma_0_9650092319605733_t_1332_a_lr_0_0005524869359673548_c_lr_0_0009210095329147815.pth (torch, 209886 bytes, 10 tensors)

model.0.weight f4 [128, 6]
0	0xbe2db561	-0.16963722
1	0x3fb301fb	1.3984979
2	0xbf646037	-0.8920931
3	0x3fc7daa3	1.5613598
4	0x3e41bb57	0.1891912
5	0xbf8adb0f	-1.0848101
6	0xbf1bfc4a	-0.6093184
7	0xbe461c1b	-0.19346659
8	0x3e40a94c	0.18814582
9	0xbf5ad73d	-0.8548468
10	0x3f0577f8	0.5213618
11	0xbf1519da	-0.5824257
12	0xbe06297a	-0.1310176
13	0x3c4063ae	0.0117425155
14	0x3eda7e4a	0.42674476
15	0x3eb79cfa	0.3586195
16	0x3f0e9e2e	0.55710113
17	0x3f8c393a	1.0954964
18	0xbe89b682	-0.26897055
19	0xbf548bd4	-0.8302586
20	0xbf07bd6c	-0.5302341
21	0x3f129746	0.57262075
22	0xbf301d3a	-0.68794596
23	0x3f493109	0.78590447
24	0xbe511156	-0.2041677
25	0x3dcad98e	0.099047765
26	0xbf441b94	-0.7660458
27	0x3e56d42d	0.20979376
28	0x3e4302cf	0.1904404
29	0xbeb21d5a	-0.34788018
30	0xbf266923	-0.65004176
31	0xbf2432e4	-0.6414015
32	0x3e9063ba	0.28201085
33	0xbf310b52	-0.691579
34	0xbf4db62f	-0.80356115
35	0x3f15bab5	0.5848802
36	0x3e70577c	0.23470873
37	0x3e883329	0.26601532
38	0xbf182673	-0.5943367
39	0x3f769639	0.9632297
40	0x3f696139	0.91163975
41	0xbe6dc78a	-0.2322065
42	0xbf9dccf1	-1.2328168
43	0x3f5cd550	0.8626299
44	0x3b6440ed	0.0034828738
45	0x3ebbadab	0.36655936
46	0x3f8b973e	1.090553
47	0xbf88a0d8	-1.0674086
48	0x3fa478ad	1.2849327
49	0x3f32ca71	0.6984015
50	0xbeaef73f	-0.3417301
51	0xbecce6f9	-0.40019968
52	0x3f2207af	0.63292974
53	0x3db9f1ad	0.09079299
54	0x3ef6b5b1	0.48185495
55	0x3eddffae	0.4335913
56	0x3caea61c	0.021319441
57	0x3df61a12	0.12016691
58	0xbe7e5797	-0.248381
59	0xbeff4295	-0.49855486
60	0xbea51767	-0.32244417
61	0x3f6462a0	0.8921299
62	0x3d5805f3	0.05274005
63	0xbe9a221e	-0.30104154
64	0xbe1083f5	-0.14112838
65	0x3ee1ae7b	0.4407843
66	0x3f223d9a	0.63375247
67	0xbe84a184	-0.25904477
68	0xbde89725	-0.113569535
69	0xbe3eef38	-0.18645942
70	0x3ddb2cf4	0.107019335
71	0xbf13c7bb	-0.5772664
72	0xbddb0b24	-0.10695484
73	0xbdfdad06	-0.12386517
74	0x3eb99d2e	0.3625273
75	0x3ec6cb4b	0.38826975
76	0xbe8f1844	-0.279482
77	0xbeaa4dd9	-0.33262518
78	0x3e9a4719	0.30132368
79	0x3e86880c	0.2627567
80	0xbf139987	-0.5765614
81	0xbf24590e	-0.64198387
82	0xbef7774e	-0.4833321
83	0x3f7c7740	0.9861946
84	0xbe431df9	-0.19054402
85	0x3e45e31b	0.19324915
86	0x3f043aff	0.5165252
87	0xbe10d34b	-0.14143102
88	0xbf30939c	-0.68975234
89	0xbf13edfd	-0.57785016
90	0x3f60935e	0.87724864
91	0xbf013263	-0.5046751
92	0x3f265bb9	0.6498371
93	0xbfc2b2a4	-1.5210767
94	0x3f87f52f	1.0621699
95	0x3e793a81	0.24338724
96	0xbf860997	-1.0471677
97	0xbe973f00	-0.29540253
98	0xbe98c0c0	-0.29834557
99	0xbf1c2776	-0.6099771
100	0xbf4e7220	-0.8064289
101	0x3e7c1731	0.24618222
102	0x3d3100f2	0.043213792
103	0x3d3febef	0.046855863
104	0x3ec054a1	0.37564567
105	0xbec3c09c	-0.38232887
106	0x3eeba02d	0.46020642
107	0xbf11ba46	-0.56924856
108	0xbf393fe0	-0.7236309
109	0xbf9d6bdd	-1.2298542
110	0x3d911a5c	0.07085106
111	0xbc1fcc69	-0.009753325
112	0xbda9caa7	-0.08290606
113	0x3eb6bebb	0.3569239
114	0xbc760cbb	-0.015017684
115	0x3df688fa	0.12037845
116	0xbe7da6fc	-0.2477073
117	0xbe7cff73	-0.24706821
118	0xbf2452f0	-0.6418905
119	0x3d59761e	0.05309116
120	0x3f5e8779	0.86925465
121	0xbe6c303e	-0.23065278
122	0x3ee03814	0.43792784
123	0xbe9a4a75	-0.3013493
124	0xbf24bad4	-0.6434758
125	0xbf04a039	-0.5180698
126	0xbf122da2	-0.5710088
127	0x3e0dc934	0.13846284
128	0x3e444a6c	0.19169015
129	0xbdb5f343	-0.08884289
130	0x3f2ec83b	0.6827428
131	0xbf21a21d	-0.6313799
132	0x3de6723a	0.11252256
133	0xbe7d9278	-0.24762905
134	0x3f735ea3	0.9506628
135	0x3dabc98b	0.08388051
136	0xbf4151ed	-0.75515634
137	0xbf876cdc	-1.0580096
138	0xbf2f9d9a	-0.68599856
139	0xbf939f62	-1.1533015
140	0xbe2a80bc	-0.16650671
141	0xbe4be013	-0.19909696
142	0xbf20e443	-0.628483
143	0xbe54f631	-0.2079704
144	0x3e9ed3f9	0.31021097
145	0x3f231b22	0.63713276
146	0xbea7cde4	-0.3277427
147	0x3f9038d4	1.1267343
148	0x3cb87027	0.022514416
149	0xbebfccc6	-0.37460917
150	0xbea4d70c	-0.32195318
151	0xbd697f9c	-0.057006463
152	0x3f4fc29d	0.8115633
153	0x3f656401	0.8960572
154	0x3e58d73c	0.21175855
155	0x3ebd6909	0.36994198
156	0x3f8ae641	1.0851518
157	0xbe82bd9c	-0.25535285
158	0x3f03038d	0.51177293
159	0x3efc5b48	0.49288392
160	0xbe1448d9	-0.14480914
161	0x3ed0be37	0.40770122
162	0x3db38d34	0.08767167
163	0x3f122975	0.5709451
164	0xbf181e1c	-0.59420943
165	0xbebfb9bc	-0.37446392
166	0xbe480e10	-0.19536614
167	0x3e1e0ad8	0.15433824
168	0xbdf08f62	-0.11746098
169	0x3f0aa138	0.5415225
170	0x3d9ac98e	0.07557975
171	0xbe855ba3	-0.26046476
172	0xbfe7d5b7	-1.8112096
173	0x3fceae4b	1.614694
174	0x3dd47ccb	0.10375365
175	0x3f04541f	0.5169086
176	0x3e1c1bac	0.15244931
177	0xbca51b06	-0.020154487
178	0xbd85e889	-0.06538493
179	0xbeda504f	-0.42639396
180	0x3f2c51bc	0.67312217
181	0xbf066f63	-0.5251371
182	0x3e198bb7	0.14994703
183	0x3f1fc1a8	0.6240487
184	0x3df17767	0.11790352
185	0xbe47eeb1	-0.19524647
186	0xbf5ef020	-0.8708515
187	0x3e48dedb	0.19616263
188	0xbf28e570	-0.65975094
189	0x3f3bd73c	0.73375297
190	0xbe97f1c1	-0.2967663
191	0x3de7e0c9	0.11322171
192	0x3e8a163f	0.26970097
193	0x3db2fcc1	0.08739615
194	0x3f00ff05	0.5038913
195	0xbe86d709	-0.26335934
196	0x3f0a92e4	0.5413039
197	0xbd7f974b	-0.062400144
198	0x3f6471ea	0.8923632
199	0xbf00e1d8	-0.5034461
200	0xbc23ef86	-0.010005837
201	0x3ea94d85	0.33066955
202	0xbeaa001b	-0.33203205
203	0x3f801642	1.0006793
204	0xbed29fce	-0.41137546
205	0xbe16166c	-0.14656991
206	0x3e3522cd	0.17689057
207	0x3e18f2a0	0.14936304
208	0xbc3df473	-0.011593926
209	0x3e7248f0	0.23660636
210	0xbc15838b	-0.009125601
211	0xbf9153a8	-1.1353655
212	0xbda364a5	-0.07978181
213	0xbf017ccd	-0.50581056
214	0xbe84890d	-0.2588581
215	0x3f0cba66	0.5497192
216	0xbfedca94	-1.8577447
217	0xbf0cb2f0	-0.54960537
218	0xbf40f963	-0.75380534
219	0x3e0799b9	0.13242234
220	0x3f4018ae	0.7503766
221	0xbf01c9a9	-0.50698334
222	0x3d8e30e9	0.069429226
223	0x3f431d89	0.7621694
224	0x3d8f57ae	0.069991454
225	0xbd1a0671	-0.0376038
226	0x3eb3881a	0.35064775
227	0x3da9e2d7	0.082952194
228	0xbedcd54c	-0.43131483
229	0xbeb2f8a6	-0.3495533
230	0xbf81d943	-1.0144428
231	0x3f3efdea	0.7460619
232	0xbf1f7b05	-0.6229709
233	0xbd5b8016	-0.05358895
234	0xbc8ec50c	-0.017427944
235	0x3d27a4a7	0.04092851
236	0x3e91ee73	0.28502235
237	0x3ebae1d0	0.36500406
238	0x3db8ba3b	0.09019896
239	0x3e293379	0.16523542
240	0x3d5c864b	0.05383901
241	0x3f16b5b0	0.58870983
242	0x3df3fa25	0.11912946
243	0xbee879e6	-0.454055
244	0xbe963d69	-0.29343727
245	0xbc6f85c4	-0.014619295
246	0xbe4d5d10	-0.20055032
247	0xbe35a4ce	-0.17738649
248	0xbecf1a32	-0.40449673
249	0xbf817f0f	-1.01169
250	0xbf91bd41	-1.1385881
251	0xbf295e92	-0.6615993
252	0x3ebfb40a	0.37442046
253	0xbd8177e1	-0.06321693
254	0xbe643588	-0.22286046
255	0xbe28f173	-0.16498356

model.0.bias f4 [128]
0	0x3da2ddab	0.07952436
1	0x3c23d70a	0.01
2	0x3c27e6c6	0.010247892
3	0x3bf4cf8b	0.00747103
4	0x3d6350ec	0.055497095
5	0x3c23d70a	0.01
6	0x3d8a1175	0.06741611
7	0x3be03361	0.0068420623
8	0x3d82c60f	0.06385433
9	0x3d95b029	0.073089905
10	0x3d6260a6	0.055267952
11	0x3d5096c3	0.050925028
12	0x3a08bb29	0.00052158773
13	0x3da61796	0.081099674
14	0xbc4864de	-0.01223108
15	0xbc269a01	-0.010168553
16	0x3c23d70a	0.01
17	0x3c22cf69	0.009937146
18	0x3c23d70a	0.01
19	0x3c206c77	0.009791485
20	0x3d88a56e	0.06672178
21	0xba0d9da9	-0.00054022163
22	0x3c22b251	0.009930209
23	0x3c23d70a	0.01
24	0x3d963106	0.07333569
25	0xbb4bbdf3	-0.003108856
26	0x3bced448	0.006311927
27	0x3daa6317	0.08319681
28	0x3d797808	0.060905486
29	0x3cff452e	0.031160917
30	0x3d4d5190	0.050126612
31	0x3d246b76	0.040141545
32	0x3d7f9df2	0.062406488
33	0x3d45982d	0.04824083
34	0x3c24baa2	0.010054262
35	0x3c23d70a	0.01
36	0x3c23d70a	0.01
37	0x3d596a7b	0.053080063
38	0x3cd9915d	0.026558572
39	0xbc8211ff	-0.015877722
40	0x3d37f9b0	0.044915855
41	0x3c23d70a	0.01
42	0x3da55168	0.08072168
43	0x3d8d91e3	0.06912591
44	0x3c23d70a	0.01
45	0x3d163bab	0.036677998
46	0x3d6aa117	0.057282533
47	0x3d19fbed	0.03759377
48	0x3d91703d	0.07101486
49	0x3d29b05e	0.041427962
50	0x3cfe0191	0.031006606
51	0x3c23d70a	0.01
52	0x3c23d70a	0.01
53	0x3c23d70a	0.01
54	0x3c23d70a	0.01
55	0x38bb1558	8.9208304e-05
56	0x3aca3094	0.0015425854
57	0x3c23d70a	0.01
58	0x3d6d8866	0.057991408
59	0x3d92cce4	0.07167986
60	0xbcd5c5f0	-0.02609536
61	0x3b8d1b4b	0.004306232
62	0x3c23d70a	0.01
63	0x3c23d70a	0.01
64	0x3d59bbc4	0.053157583
65	0x3c23d70a	0.01
66	0x3d7a4249	0.06109837
67	0x3d81b5e8	0.06333524
68	0x3c23d70a	0.01
69	0x3cbe9844	0.023265965
70	0xbb7ba922	-0.0038400372
71	0x3d855225	0.065098085
72	0x3da2229c	0.079167575
73	0x3d91ec88	0.07125193
74	0x3d257207	0.040391948
75	0x3d73b4ee	0.05949872
76	0x3d789335	0.060687263
77	0xbcc5f688	-0.024165407
78	0x3d9e34ef	0.0772494
79	0x3d1d7af4	0.038447335
80	0xbbc82f5a	-0.0061091604
81	0x3da10353	0.07861962
82	0x3d5fa83b	0.054603796
83	0x3d2223a3	0.039584767
84	0x3c23d70a	0.01
85	0xbb192417	-0.0023367458
86	0x3c23d70a	0.01
87	0x3dace023	0.08441188
88	0x3d80e746	0.06294112
89	0x3c827d05	0.015928755
90	0x3c23d70a	0.01
91	0x3ce0faf7	0.02746342
92	0x3d61804f	0.055054005
93	0x3d46e76f	0.048560556
94	0x3d5b0438	0.05347082
95	0x3c23d70a	0.01
96	0x3d87856a	0.066172436
97	0x3da3d34d	0.07999287
98	0x3d9ee269	0.07758028
99	0x3c2f44db	0.010697569
100	0xbd0149a2	-0.031564362
101	0x3d1e639f	0.038669225
102	0x3d4e1811	0.05031592
103	0x3da449a7	0.080218606
104	0x3d2574b2	0.040394492
105	0x3cd06a11	0.025441201
106	0x3c906df9	0.017630564
107	0x3d3008b1	0.04297704
108	0x3d966a2e	0.07344471
109	0x3c23d70a	0.01
110	0x3d2f607d	0.042816628
111	0x3d1ce49e	0.038303964
112	0x3c487227	0.012234247
113	0x3d7f81d8	0.062379688
114	0x3c23d70a	0.01
115	0x3c23d70a	0.01
116	0x3d16fada	0.036860324
117	0x3d30a93f	0.043130156
118	0xbc98d898	-0.018657967
119	0x3d2d8b42	0.042369135
120	0x3d86f72f	0.06590115
121	0xbc138632	-0.009004163
122	0x3d2820df	0.041046973
123	0x3d9149bb	0.07094141
124	0x3ca962bb	0.020676961
125	0x3d71161e	0.058858983
126	0x3c23d70a	0.01
127	0x3c23d70a	0.01

model.2.weight f4 [128, 128]
0	0xbc93daba	-0.018048633
1	0xbdbdb3f4	-0.09262839
2	0x3e05f22b	0.13080661
3	0x3dbd5e2a	0.09246476
4	0xbe2ceb07	-0.16886531
5	0xbcdb3fe3	-0.026763862
6	0xbdbb48d4	-0.0914475
7	0xbe3e0126	-0.18555126
8	0xbe2a3a07	-0.16623698
9	0xbc3c4ab7	-0.011492423
10	0xbe79d2f0	-0.24396873
11	0x3d692fb5	0.056930263
12	0xbe073717	-0.13204609
13	0xbd9b6d6c	-0.0758923
14	0xbdc14931	-0.09437788
15	0x3d0f7cbb	0.03503106
16	0xbc84d489	-0.016214626
17	0x3e499613	0.19686155
18	0x3e77e2c8	0.24207604
19	0xbbfc534f	-0.007700361
20	0xbe06f41a	-0.13179055
21	0x3e66c84d	0.22537346
22	0xbe064933	-0.13113861
23	0x3d282b87	0.041057136
24	0x3c710012	0.014709489
25	0x3e3a3e99	0.18187942
26	0x3e206ca2	0.1566644
27	0x3e07de4e	0.13268396
28	0xbdc5a122	-0.09649874
29	0xbe30d4b9	-0.17268647
30	0x3e0a538d	0.13508435
31	0xbe14f80a	-0.14547744
32	0xbd9c72e0	-0.07639098
33	0x3c3a4375	0.011368622
34	0xbe5c4ff7	-0.21514879
35	0x3e078c77	0.13237177
36	0x3d94d3a5	0.072669305
37	0xbd0340d6	-0.032044254
38	0x3e86ef0d	0.26354256
39	0x3ea2de09	0.31810024
40	0xbde9ade4	-0.1141012
41	0x3dfbe84e	0.12300168
42	0x3c84f701	0.016231062
43	0x3bfc9eb7	0.00770935
44	0xbe740b11	-0.23832346
45	0xbe91cf2e	-0.28478378
46	0xbe4db5c0	-0.20088863
47	0xbe1054ef	-0.140949
48	0xbd967177	-0.073458605
49	0xbc7a88f9	-0.015291446
50	0xbdb07474	-0.08615962
51	0xbd76e61f	-0.060278054
52	0xbd294cff	-0.041333195
53	0xbe5241bb	-0.20532887
54	0xbded1e24	-0.115780145
55	0xbe86d3fd	-0.2633361
56	0xbca483fa	-0.020082463
57	0xbd909788	-0.07060152
58	0x3b9288a7	0.0044718566
59	0xbc808e28	-0.015692785
60	0xbcd0550a	-0.025431175
61	0xbe2cb77a	-0.16866866
62	0xbde561a9	-0.11200268
63	0xbd8fc2e8	-0.07019597
64	0xbd341c94	-0.043972567
65	0x3e13fca6	0.14451846
66	0xbca74815	-0.020420114
67	0x3e25331a	0.16132775
68	0xbbeb7e5b	-0.0071866936
69	0x3c929c8a	0.01789691
70	0xbc789561	-0.015172333
71	0x3dde3db6	0.10851614
72	0x3e2e2caf	0.17009233
73	0x3d8b96a9	0.068158455
74	0x3dab43f5	0.08362571
75	0xbbd952f1	-0.006632202
76	0xbc235c9a	-0.009970808
77	0x3adf573b	0.0017039547
78	0x3e128c7e	0.14311406
79	0x3db3f29f	0.08786511
80	0x3db784bd	0.08960865
81	0x3c88a46a	0.016679961
82	0x3ad7fdae	0.0016478801
83	0xbe36a81b	-0.17837565
84	0xbbec967e	-0.0072200885
85	0xbd6a8df9	-0.057264302
86	0xbdbea3df	-0.093086
87	0xbe0d3450	-0.13789487
88	0x3dce1d75	0.10064212
89	0x3e8e6d6d	0.2781786
90	0xbd22269d	-0.039587606
91	0xbe4cf60e	-0.20015737
92	0xbe665f6b	-0.22497337
93	0x3e77fde1	0.24217941
94	0xbe0dabf0	-0.1383512
95	0xbde0f253	-0.1098372
96	0x3dbbe9a5	0.091754235
97	0xbdb24169	-0.08703882
98	0xbca0c8f6	-0.019627076
99	0xbe025596	-0.12727961
100	0xbdbc9766	-0.092085645
101	0xbdc42a2e	-0.09578358
102	0xbd348131	-0.04406852
103	0x3dc64266	0.09680633
104	0x3de3a04d	0.11114559
105	0x3e68c33c	0.22730726
106	0xbd20f530	-0.03929633
107	0x3deed2c8	0.11661297
108	0xbd1fbb32	-0.038996883
109	0x3e200de7	0.15630303
110	0x3d094023	0.03350843
111	0x3c194d38	0.009356789
112	0xbe0395f3	-0.1285017
113	0x3d148057	0.036255207
114	0x3e0b47b6	0.13601574
115	0xbe6b3a0b	-0.2297136
116	0xbc9642ca	-0.018342394
117	0xbd4f9436	-0.050678454
118	0xbd8f8b58	-0.070089996
119	0xbcdba101	-0.026810171
120	0xbe122e3c	-0.1427545
121	0xbd6e57f5	-0.05818935
122	0x3e427d84	0.18993193
123	0xbdedcdf4	-0.11611548
124	0x3e3d9472	0.18513659
125	0x3e84e624	0.25956833
126	0xbd6c3e08	-0.057676345
127	0xbdac885f	-0.08424448
128	0x3e6acc60	0.22929525
129	0x3d65eb69	0.056132708
130	0xbeb582ce	-0.3545136
131	0x3dc7c2f0	0.09753978
132	0xbd4b32a0	-0.049608827
133	0x3d844ad4	0.06459585
134	0x3e0c1890	0.13681245
135	0x3daba9b7	0.0838198
136	0x3cc4fc16	0.024045985
137	0x3e894fe4	0.26818764
138	0xbb0106c7	-0.0019687878
139	0xbc21c0ac	-0.009872597
140	0x3ddef0a6	0.10885744
141	0x3e08fd22	0.13377813
142	0x3d7fd05e	0.062454574
143	0x3c29d654	0.010366041
144	0x3c5c9174	0.013462413
145	0xbde68942	-0.112566486
146	0x3e366c64	0.17814785
147	0x3d5c4a5a	0.053781845
148	0x3e5c7c50	0.21531796
149	0x3cb4a97b	0.02205347
150	0xbe380c26	-0.17973384
151	0xbb9ce84e	-0.004788435
152	0x3da3c860	0.07997203
153	0xbe6081d0	-0.2192452
154	0x3e1706e4	0.14748722
155	0xbdd44f0a	-0.10366638
156	0x3e5b7c40	0.21434116
157	0x3b6baa2b	0.0035959582
158	0x3e429687	0.19002734
159	0xbb45d0a0	-0.0030184165
160	0x3e2ed00a	0.17071548
161	0xba8a0656	-0.0010530453
162	0x3df0554f	0.11735021
163	0xbd880919	-0.0664236
164	0xbd897777	-0.06712239
165	0x3d98ed3e	0.07467125
166	0x3e5aa03b	0.21350186
167	0xbd7a9f60	-0.061187148
168	0x3d7c4090	0.06158501
169	0x3cbe0a44	0.023198254
170	0xbe047f55	-0.12939198
171	0x3d42f821	0.047599915
172	0xbe3acf6b	-0.18243186
173	0x3dca4953	0.09877267
174	0x3e5d6cbd	0.21623512
175	0xbd49563c	-0.049154505
176	0x3dd68a93	0.1047565
177	0x3d353992	0.044244356
178	0x3c36a3f9	0.011147493
179	0xbd8338b1	-0.064072974
180	0x3ceef715	0.029170552
181	0x3e216859	0.15762462
182	0xbc99deee	-0.018783059
183	0xbdf5eaac	-0.12007651
184	0xbdcd57b9	-0.100264974
185	0x3dc73679	0.09727187
186	0x3eadf56f	0.33976313
187	0x3c68e67e	0.01421511
188	0xbd7be5d3	-0.061498474
189	0x3dac7ac9	0.08421857
190	0xbdc21707	-0.09477048
191	0x3db3b8d6	0.08775489
192	0x3c8c97b1	0.017162176
193	0xbcae63cf	-0.021287827
194	0x3d851d5f	0.06499743
195	0x3e486e61	0.19573356
196	0xbbacb97a	-0.005271134
197	0x3c995ede	0.018721994
198	0xbe3eb2da	-0.18622914
199	0xbd921c32	-0.07134284
200	0x3e38899c	0.18021244
201	0x393d10b4	0.00018030667
202	0xbde0b618	-0.109722316
203	0x3e27ec62	0.16398767
204	0x3da3ed17	0.08004206
205	0x3b085ae9	0.002080614
206	0x3d82bf03	0.06384089
207	0xbd133acc	-0.035944745
208	0x3dbfb56e	0.09360777
209	0x3e4db538	0.2008866
210	0x3cf901d0	0.030396372
211	0x3d88f5d1	0.06687511
212	0xbd9ebd3a	-0.07750936
213	0xbd7d6862	-0.061867125
214	0xbcc6601b	-0.024215749
215	0x3d9aa4a0	0.07550931
216	0x3d6e51d2	0.0581835
217	0x3e5e6dbe	0.21721551
218	0x3d638900	0.055550575
219	0xbd08bbac	-0.033382103
220	0xbc476812	-0.012170808
221	0x3e2b5299	0.16730727
222	0x3ceb2b4a	0.028707165
223	0xbcee6a33	-0.029103374
224	0xbda211ca	-0.07913549
225	0x3cd2a148	0.02571167
226	0xbbaf50ef	-0.005350224
227	0xbe648215	-0.22315247
228	0xbe771d78	-0.24132335
229	0xbe075b2e	-0.13218376
230	0x3d1666c8	0.036719114
231	0x3e841840	0.2579975
232	0x3d56a1df	0.052400466
233	0x3e362f74	0.1779154
234	0x3dea4f20	0.11440873
235	0x3e3d45d8	0.18483675
236	0x3e945988	0.28974557
237	0x3dc6b50f	0.09702503
238	0x3caedb59	0.021344827
239	0x3cbe8a34	0.02325926
240	0xbd822317	-0.06354349
241	0xbe051af9	-0.1299857
242	0x3db0ca8a	0.08632381
243	0xbe6b2d50	-0.22966504
244	0x3e14ecaf	0.14543413
245	0x3d378798	0.044807047
246	0xbd4ad6df	-0.049521323
247	0xbe7d1259	-0.2471403
248	0xbe5c6bad	-0.2152545
249	0x3e4b5427	0.1985632
250	0x3db6844d	0.08911953
251	0x3dbb75f8	0.0915336
252	0x3e3f1709	0.18661131
253	0xbdb3376d	-0.08750806
254	0xbdc1f4c7	-0.09470516
255	0xbd3738a5	-0.044731755

model.2.bias f4 [128]
0	0x3c23d70a	0.01
1	0x3d75a4b1	0.059971515
2	0x3c23d70a	0.01
3	0x3c23d70a	0.01
4	0x3c23d70a	0.01
5	0x3d716654	0.05893548
6	0x3d5ed25e	0.05439984
7	0x3cb467d9	0.022022175
8	0x3d10f987	0.035394218
9	0x3d039d14	0.032132223
10	0x3c23d70a	0.01
11	0x3d4ddbb4	0.050258353
12	0xbc0fb673	-0.008771527
13	0x3b4fc14c	0.0031700907
14	0x3ca38216	0.01995949
15	0x3d545b1b	0.051844697
16	0xbb77b8db	-0.0037799391
17	0x3bc9428f	0.0061419676
18	0x3d561697	0.052267637
19	0x3bc23a34	0.0059273485
20	0x3c23d70a	0.01
21	0x3b06f88d	0.0020594925
22	0xbc4134dd	-0.011792389
23	0x3c34170d	0.010991824
24	0x3c105f1b	0.008811737
25	0x3cc007fa	0.023441304
26	0x3c23d70a	0.01
27	0x3c9b36cc	0.018947028
28	0x3b4c5fa5	0.0031184938
29	0x3c23d70a	0.01
30	0xbc18c46f	-0.009324177
31	0x3bd48aff	0.006486296
32	0xbb39599a	-0.0028282166
33	0xbbc1cc1f	-0.0059142257
34	0x3d10ad62	0.0353216
35	0x3da01c42	0.0781789
36	0x3b792098	0.0038013812
37	0xbad2e787	-0.0016090729
38	0x3b1ef7f3	0.0024256676
39	0x3d3c1771	0.045920793
40	0x3afa79b0	0.0019109752
41	0x3d6cd4c5	0.0578201
42	0x3d7bfbbf	0.06151938
43	0x3930069e	0.00016787133
44	0x3d602e58	0.054731697
45	0x3c23d70a	0.01
46	0x3c66e849	0.014093467
47	0x3d1f2f42	0.038863428
48	0x3d4dc1fe	0.050233833
49	0xbb2b9449	-0.0026180914
50	0x3d8eb3a6	0.06967859
51	0x3c23d70a	0.01
52	0xbb08303c	-0.0020780703
53	0x3c23d70a	0.01
54	0x3cb20a22	0.021733347
55	0x3d9c65b6	0.07636587
56	0x3d912c0d	0.0708848
57	0x3d75eab7	0.060038295
58	0x3b1240ff	0.0022316573
59	0x3d34096b	0.043954294
60	0x3b0d7c34	0.0021588923
61	0x3cd59983	0.026074177
62	0x3c63e9c9	0.013910719
63	0x3da58a65	0.08083037
64	0x3d542a12	0.051797934
65	0x3c23d70a	0.01
66	0x3d9dcdd8	0.07705277
67	0x3c23d70a	0.01
68	0x3d346d71	0.044049684
69	0x3d7002fb	0.058596592
70	0x3d9cf774	0.076643854
71	0x3c23d70a	0.01
72	0x3c23d70a	0.01
73	0x3c23d70a	0.01
74	0x3c23d70a	0.01
75	0x3b7d9d29	0.003869841
76	0x3c23d70a	0.01
77	0xbc831d40	-0.016005158
78	0x3d491377	0.04909083
79	0x3c23d70a	0.01
80	0x3c23d70a	0.01
81	0x3d871654	0.065960556
82	0x3d77818c	0.06042628
83	0x3cd6e607	0.026232732
84	0x3c88a066	0.016678046
85	0x3caf2c2f	0.021383373
86	0x3d4bf62e	0.049795322
87	0x3c23d70a	0.01
88	0x3d400d48	0.046887666
89	0x3d9b00c2	0.07568504
90	0x3c1142c6	0.008866018
91	0x3d212436	0.039341174
92	0x3c23d70a	0.01
93	0x3c23d70a	0.01
94	0xbb468abc	-0.0030295094
95	0x3c23d70a	0.01
96	0xbaaca086	-0.0013170398
97	0x3b74043a	0.0037233965
98	0x3c23d70a	0.01
99	0x3d79bbc4	0.060970083
100	0x3d1da580	0.03848791
101	0x3c8d0c42	0.017217759
102	0xbc1f7c3f	-0.009734212
103	0x3d0f8e1f	0.035047647
104	0x3d107acd	0.035273362
105	0x3c23d70a	0.01
106	0x3d81ca5f	0.06337427
107	0x3c23d70a	0.01
108	0x3d40188c	0.04689841
109	0x3cf48e49	0.029853003
110	0x3d9d20ab	0.076722465
111	0x3d523e0b	0.0513287
112	0xbb7ceb2c	-0.0038592322
113	0x3d0ad67b	0.03389595
114	0x3d99f37a	0.075171426
115	0x3d998468	0.074959576
116	0x3c23d70a	0.01
117	0x3c23d70a	0.01
118	0x3d8abf1b	0.06774732
119	0x3d697e27	0.057005074
120	0xbbf54b1f	-0.007485762
121	0x3c23d70a	0.01
122	0xbc746587	-0.014916784
123	0x3a5531b8	0.0008132714
124	0x3c98ca0d	0.018651033
125	0x3d48bea6	0.04900994
126	0x3bb4c162	0.005516217
127	0x3cee8dbe	0.029120322

model.4.weight f4 [128, 128]
0	0xbe7ee9c4	-0.24893862
1	0x3e5424dd	0.20717187
2	0xbbc75bf7	-0.006083961
3	0x3e08db8f	0.13365005
4	0xbd1bbb78	-0.03802058
5	0xbd7d91a8	-0.061906487
6	0x3dcf8439	0.10132641
7	0xbafcaf76	-0.0019278366
8	0x3e560311	0.20899607
9	0xbe297bc5	-0.1655112
10	0x3d0c3d94	0.034238413
11	0x3ed79776	0.42107743
12	0xbd786eb2	-0.060652442
13	0xbe3cf019	-0.18450965
14	0x3e49c4e5	0.19704016
15	0xbd61bd87	-0.055112388
16	0x3dcbe2a5	0.099553384
17	0x3d8e393e	0.06944512
18	0x3be0d3f8	0.006861206
19	0xbe12f67b	-0.14351837
20	0x3de37957	0.11107128
21	0xbdecf107	-0.1156941
22	0x3df66e78	0.12032789
23	0x3e7407d3	0.2383111
24	0x3d873458	0.06601781
25	0xbaf5dd63	-0.0018757995
26	0x3cb627c1	0.022235753
27	0x3dbbed41	0.09176112
28	0xbe48de43	-0.19616036
29	0x3db185ab	0.08668073
30	0xbe005ba0	-0.12534952
31	0x3d603395	0.054736692
32	0x3cad4653	0.021151697
33	0xbe1ccc28	-0.15312254
34	0x3e38d1a3	0.1804872
35	0xbdc9949b	-0.09842797
36	0xbe2b5ea0	-0.16735315
37	0x3ea843ae	0.32864136
38	0xbd383d6a	-0.044980444
39	0xbe85be2f	-0.2612166
40	0x3cc4f320	0.024041712
41	0x3dac7049	0.08419854
42	0x3d8675ff	0.06565475
43	0x3c3f886e	0.011690242
44	0xbe2a0a7e	-0.16605565
45	0xbdadc716	-0.08485238
46	0xbe5a727e	-0.21332738
47	0xbe0dbc5d	-0.13841386
48	0x3cdb209d	0.02674895
49	0x3d67a11f	0.05655014
50	0xbd92560b	-0.07145318
51	0x3b216acc	0.0024630306
52	0x3d90981c	0.070602626
53	0x3e365164	0.17804486
54	0x3e1b17f2	0.15145853
55	0x3adb4024	0.001672749
56	0xbc92db37	-0.017926795
57	0x3e6edc71	0.23326279
58	0xbda8b748	-0.08238083
59	0x3da8132e	0.08206783
60	0x3e435d49	0.19078554
61	0x3d1c381e	0.038139455
62	0xbcba6742	-0.022754315
63	0x3dac0652	0.08399643
64	0x3de03cc5	0.10949091
65	0x3e3d4e29	0.18486847
66	0x3e2d4581	0.16921045
67	0xbe56b18f	-0.2096617
68	0x3e2b35a8	0.16719687
69	0x3d5b458a	0.053533114
70	0xbd8dd0aa	-0.06924565
71	0xbe3c8714	-0.18410903
72	0xbd802c3d	-0.06258438
73	0xbb8a40a8	-0.0042191334
74	0x3d71c29c	0.059023485
75	0x3e130dae	0.14360687
76	0x3d93299d	0.071856715
77	0xbd7e4516	-0.062077604
78	0x3cceb69c	0.02523356
79	0xbe0c2e8b	-0.1368963
80	0x3d213a83	0.03936244
81	0x3da61cf8	0.08110994
82	0x3de3e7dd	0.11128209
83	0x3de7d7a3	0.11320426
84	0xbe133e83	-0.14379315
85	0xbb83deb8	-0.004024353
86	0x3dd20551	0.1025492
87	0xbde51887	-0.11186319
88	0x3e5c2a3e	0.21500489
89	0x3e233ee2	0.15941957
90	0x3d1cd0be	0.03828501
91	0x3cda1230	0.02662
92	0xbe485382	-0.19563106
93	0x3db8c0a4	0.09021118
94	0x3d97b946	0.07408385
95	0x3e23b417	0.15986668
96	0x3c9893dc	0.018625192
97	0xbd111f61	-0.035430316
98	0xbe4ea120	-0.20178652
99	0xbe20537f	-0.15656851
100	0x3c3f32f7	0.011669866
101	0xbe54c205	-0.20777138
102	0x3e7ff5ef	0.2499616
103	0x3dc40b76	0.095724985
104	0xbcc2325f	-0.02370566
105	0x3cb917d3	0.022594368
106	0x3e7dcc85	0.2478505
107	0xbe426449	-0.18983568
108	0xbe1fd062	-0.15606835
109	0x3d2b00c1	0.041748766
110	0x3d91c232	0.07117118
111	0x3e4f99f0	0.20273566
112	0xbd4c1adf	-0.049830314
113	0x3e0baac5	0.13639362
114	0xbd2d9a6a	-0.04238359
115	0xbe53f38a	-0.20698372
116	0xbe385c79	-0.18004026
117	0xbdf6500c	-0.120269865
118	0xbddcb510	-0.107767224
119	0x3d8586e4	0.06519869
120	0xbdc380a0	-0.09546018
121	0xbd8dd630	-0.06925619
122	0xbd6449cb	-0.055734437
123	0xbda797cf	-0.08183252
124	0xbdc34656	-0.095349
125	0x3cf7046f	0.030153481
126	0x3d4241c4	0.047426
127	0xbca57bd3	-0.020200646
128	0x3e2a6ca2	0.16643003
129	0x3e827e4a	0.25486976
130	0x3da8952b	0.082315765
131	0xbe91be55	-0.28465524
132	0x3e3440b0	0.17602801
133	0x3e785028	0.24249327
134	0xbd4e086a	-0.050300993
135	0x3e816dd7	0.25279114
136	0xbc1ed399	-0.0096940035
137	0x3dfe19b9	0.1240725
138	0x3d99b9c9	0.07506139
139	0xbd25b286	-0.040453456
140	0xbcb9f6ed	-0.022700751
141	0x3d13b9dc	0.03606592
142	0x3e2af795	0.16696008
143	0x3eaaeccc	0.33383787
144	0xbd89c34b	-0.06726702
145	0xbe6a7a45	-0.22898205
146	0x3d8799f7	0.06621163
147	0x3d4c2fde	0.049850337
148	0x3d181c15	0.037136156
149	0xbd0105fa	-0.03149984
150	0x3dd8c343	0.10584118
151	0xbdb842f5	-0.08997146
152	0xbe3dd59e	-0.1853852
153	0xbcafc1fc	-0.021454804
154	0xbe071ced	-0.13194628
155	0xbcd8675f	-0.026416479
156	0x3e975da4	0.2956363
157	0xbcbe214f	-0.023209242
158	0x3e000d16	0.12504992
159	0x3d3aa192	0.04556424
160	0xbdb393ca	-0.08768423
161	0x38918318	6.938557e-05
162	0xbca0f6fd	-0.019649023
163	0x3b7339ae	0.0037113237
164	0x3e0070f5	0.1254309
165	0x3e16e593	0.14736013
166	0xbcf81c2d	-0.030286873
167	0x3c11d58d	0.008901012
168	0x3e3aba33	0.18235092
169	0x3e3fb053	0.18719606
170	0x3d6ed5aa	0.058309235
171	0xbe3a9cbe	-0.18223855
172	0x3a56ee34	0.0008198947
173	0x3e274758	0.16335809
174	0xbe1e7709	-0.15475096
175	0xbe034396	-0.1281875
176	0xbbd3b670	-0.006460957
177	0xbe5b4d0d	-0.21416111
178	0x3c287419	0.010281586
179	0xbe4e7260	-0.20160818
180	0x3e2a4730	0.16628718
181	0x3e6e059e	0.2324433
182	0xbda9e235	-0.08295099
183	0xbe9639b8	-0.2934091
184	0x3e37eb38	0.17960823
185	0xbe0f2496	-0.139788
186	0x3d963b3a	0.07335515
187	0x3dfb169c	0.12260172
188	0x3daa65b8	0.083201826
189	0xbdb44811	-0.08802808
190	0xbe5b9efc	-0.21447366
191	0xbd3f7570	-0.046742857
192	0x3bd38571	0.0064551164
193	0xbcf56b0c	-0.02995827
194	0xbd21e8e0	-0.039528728
195	0xbdbe99e4	-0.09306696
196	0x3e2ba3a5	0.16761644
197	0x3e8e3255	0.27772775
198	0xbd47ed73	-0.048810434
199	0x3e75d9c8	0.24008858
200	0x3df06072	0.117371455
201	0xbc96e76d	-0.0184209
202	0xbd4760d5	-0.04867633
203	0x3d48081d	0.048835862
204	0xbc87e20b	-0.016587278
205	0xbd84599d	-0.06462405
206	0x3e81909d	0.25305644
207	0x3dad2f7d	0.08456323
208	0x3e155647	0.14583693
209	0x3e802f21	0.25035957
210	0xbc9907da	-0.018680502
211	0xbe4c4654	-0.19948703
212	0x3cfca350	0.030839592
213	0xbd2f0410	-0.042728484
214	0x3dc00641	0.09376193
215	0x3e531314	0.20612746
216	0xbe96997b	-0.2941397
217	0xbe0a7518	-0.1352123
218	0xbc83999c	-0.016064458
219	0x3d8fedb8	0.07027763
220	0xbdb224d7	-0.08698433
221	0xbdf74526	-0.12073736
222	0xbdc6f779	-0.097151704
223	0xbbfc04ff	-0.0076910253
224	0xbe58cac9	-0.21171106
225	0xbdcc2aa4	-0.099690706
226	0x3dcd7ef4	0.1003398
227	0x3d6dd220	0.05806172
228	0x3e04c196	0.12964472
229	0x3eaeae44	0.3411733
230	0xbe03e644	-0.12880808
231	0x3b19606b	0.0023403417
232	0xbdc0ec53	-0.09420075
233	0xbddc7814	-0.107650906
234	0x3e35d8ce	0.17758486
235	0xbd6ce398	-0.057834238
236	0x3d9215a2	0.071330324
237	0x3cea1fea	0.028579671
238	0x3e394736	0.18093571
239	0x3e3f5f2d	0.1868865
240	0x3d8d4e72	0.06899728
241	0x3e5c4f99	0.21514739
242	0x3df28c7e	0.11843203
243	0xbd877551	-0.06614173
244	0xbe8025d6	-0.25028867
245	0xbe1e50b4	-0.15460473
246	0x3ca60b64	0.020269103
247	0xbe4e8f92	-0.20171955
248	0xbdc3f8cc	-0.095689386
249	0xbe118d92	-0.14214161
250	0xbe1a043a	-0.15040675
251	0xbda93d0f	-0.08263599
252	0xbdf87b0f	-0.121328466
253	0x3de7e4a6	0.11322908
254	0x3d6228c5	0.055214662
255	0x3d51416e	0.05108779

model.4.bias f4 [128]
0	0x3d695bf1	0.056972448
1	0x3d853219	0.06503696
2	0x3c0050fc	0.007831808
3	0x3c765d16	0.015036842
4	0x3c23d70a	0.01
5	0x3d132f68	0.035933882
6	0x3c23d70a	0.01
7	0x3bc88927	0.0061198655
8	0x3d302cec	0.04301159
9	0x3d3db3d7	0.046314087
10	0x3d82bc9b	0.0638363
11	0x3d7c46c5	0.06159093
12	0x3d835645	0.06412939
13	0x3d176777	0.036963906
14	0x3c2cc677	0.010545365
15	0xbbd6f01c	-0.006559385
16	0x3c23d70a	0.01
17	0x3c5fb4ff	0.013653993
18	0x3c23d70a	0.01
19	0x3c23d70a	0.01
20	0x3d91d379	0.07120413
21	0x3bc1ca97	0.005914043
22	0xb8224718	-3.869002e-05
23	0x3c23d70a	0.01
24	0x3d8125b9	0.06306023
25	0x3d2501f5	0.04028507
26	0x3c23d70a	0.01
27	0x3c23d70a	0.01
28	0x3c23d70a	0.01
29	0x3c23d70a	0.01
30	0x3c23d70a	0.01
31	0x3c590196	0.013245007
32	0x3a8607e3	0.0010225739
33	0x3b0b9e27	0.0021303983
34	0xbadff81f	-0.0017087496
35	0x3d96a4a1	0.07355619
36	0x3c891403	0.016733175
37	0x3d1037e9	0.03520957
38	0x3bbed6b1	0.005823933
39	0x3d91b985	0.07115463
40	0x3c23d70a	0.01
41	0x3c040151	0.0080569545
42	0x3d638366	0.055545233
43	0x3d6af610	0.05736357
44	0x3be1645c	0.006878419
45	0x39855c50	0.00025436515
46	0x3bd7d92c	0.006587168
47	0x3ce2f354	0.027703919
48	0x3d8750a1	0.066071756
49	0x3d418ecc	0.047255322
50	0x3d53f43b	0.05174659
51	0x3c23d70a	0.01
52	0x3b5fec5f	0.0034167988
53	0x3d5ecdf6	0.05439564
54	0xbb3a15d4	-0.0028394358
55	0x3d84d74a	0.06486376
56	0x3b8643a1	0.0040974175
57	0x3c23d70a	0.01
58	0x3c472e19	0.012156987
59	0x3c23d70a	0.01
60	0x3c23d70a	0.01
61	0x3d8bf41f	0.06833672
62	0x3c951ed6	0.01820318
63	0x3c23d70a	0.01
64	0x3d585fa9	0.052825604
65	0x3cac11ae	0.021004524
66	0x3bbdc2a6	0.005791026
67	0x3c23d70a	0.01
68	0x3c33b1b8	0.010967664
69	0x3d847e0a	0.064693525
70	0x3d60200c	0.054718062
71	0x3c23d70a	0.01
72	0x3b88bc22	0.004172818
73	0x3c23d70a	0.01
74	0x3c23d70a	0.01
75	0x3c867c12	0.016416583
76	0x3c23d70a	0.01
77	0x3c5af23e	0.013363419
78	0x3c23d70a	0.01
79	0x3c241a54	0.010016043
80	0x3d7e744d	0.06212263
81	0x3bad1924	0.005282538
82	0x3c23d70a	0.01
83	0x3d8e9194	0.069613606
84	0x3c23d70a	0.01
85	0x3d90e75e	0.0707538
86	0x3c23d70a	0.01
87	0x3c31305d	0.010814753
88	0x3d5d87be	0.054084532
89	0x3d25c86c	0.04047434
90	0x3d814a4b	0.063129984
91	0x3d74f8f9	0.05980775
92	0x3d91652a	0.07099374
93	0x3c9eb63c	0.019374005
94	0x3d16cea4	0.03681816
95	0x3cf98777	0.030460102
96	0x3c23d70a	0.01
97	0x3c23d70a	0.01
98	0x3c022665	0.007943724
99	0x3c26782e	0.010160489
100	0xbb7cf6da	-0.0038599283
101	0x3d8488d5	0.06471411
102	0xba84a30f	-0.0010119396
103	0x3d58054a	0.05273942
104	0x3c23d70a	0.01
105	0x3d451f90	0.048125803
106	0xba0bb091	-0.00053287396
107	0x3ba06f74	0.0048960987
108	0x3c256b28	0.010096349
109	0x3d0cf94e	0.034417443
110	0x3ce75b49	0.02824177
111	0xbab5a75d	-0.0013859082
112	0x3d4b5f33	0.049651336
113	0x3d829c55	0.06377474
114	0x3d7592e9	0.059954558
115	0x3d741506	0.059590362
116	0x3b3b7b94	0.0028607594
117	0x3ca491b7	0.020089014
118	0x3d7f26db	0.062292915
119	0x3d8aef5a	0.06783934
120	0x3cbe04d0	0.023195654
121	0x3c23d70a	0.01
122	0x3c42e4bf	0.011895358
123	0x3cd519d9	0.026013302
124	0xbba1f532	-0.0049425596
125	0x3c23d70a	0.01
126	0x3d7940dd	0.060852874
127	0x3d8515af	0.064982764

model.6.weight f4 [128, 128]
0	0xbc4e0f4b	-0.012576888
1	0x3e70ec57	0.23527656
2	0xbe0e1803	-0.13876347
3	0xbd082f44	-0.0332482
4	0xbe05201b	-0.13000529
5	0xbe17c450	-0.14820981
6	0x3d3a40c1	0.04547191
7	0x3d825e4a	0.063656405
8	0xbe28422a	-0.1643149
9	0xbd0bbd53	-0.0341161
10	0xbe07487f	-0.13211249
11	0xbde7d23f	-0.11319398
12	0xbcce5cd0	-0.02519074
13	0x3eaf9b0f	0.34297988
14	0xbdfc0843	-0.12306263
15	0x3dfcd713	0.1234571
16	0x3dab750b	0.083719335
17	0x3d98ac5a	0.074547485
18	0xbc257297	-0.010098121
19	0x3eca263a	0.3948229
20	0xbdddf261	-0.10837246
21	0x3eaa73d8	0.33291507
22	0x3e104b5f	0.14091252
23	0xbda22456	-0.07917087
24	0xbc8e0f1f	-0.017341195
25	0x3d6bc65c	0.057562217
26	0xbcfdfeec	-0.031005345
27	0xbdb46981	-0.08809186
28	0x3dc49d49	0.09600312
29	0xbd80a9cf	-0.062823884
30	0xbb5d2a77	-0.0033747235
31	0xbe2aef79	-0.16692914
32	0xbdc57e06	-0.09643178
33	0xbd92bce8	-0.07164937
34	0x3cf81a04	0.030285843
35	0x3ca5845b	0.020204714
36	0x3dcd3f6b	0.10021862
37	0xbdbbae15	-0.09164063
38	0xbcf868f6	-0.030323487
39	0xbd67111e	-0.05641281
40	0xbd33a0db	-0.043854576
41	0x3d9d8ace	0.076924905
42	0x3d970467	0.073738866
43	0x3db60673	0.08887949
44	0xbe194171	-0.1496637
45	0xbde6a600	-0.11262131
46	0xbe10e775	-0.14150794
47	0x3e17e104	0.1483193
48	0xbe269446	-0.162675
49	0x3daa08ea	0.083024815
50	0xbe497b41	-0.19675924
51	0x3bb98163	0.005661176
52	0x3dc63428	0.09677917
53	0xbd3c7fac	-0.046020195
54	0x3ceece8e	0.029151227
55	0x3dfb0fc5	0.12258867
56	0x3e0d8009	0.13818373
57	0xbdf36213	-0.118839405
58	0xbde5cd0a	-0.11220749
59	0xbdc730e4	-0.09726122
60	0xbde0d9bc	-0.109790295
61	0x3de1ef59	0.1103198
62	0xbc4cc39a	-0.012497807
63	0xbc83fdd4	-0.016112246
64	0xbe2b7692	-0.1674445
65	0x3d0e0679	0.03467414
66	0xbcf2d267	-0.029641343
67	0x3de1f1af	0.110324256
68	0x3e74593e	0.23862168
69	0xbd91719c	-0.071017474
70	0x3e1b32e9	0.1515614
71	0x3d1137fd	0.035453785
72	0x3c926eb7	0.017875059
73	0x3e85caa8	0.26131177
74	0xbd7d62ea	-0.06186191
75	0xbcfac4e0	-0.030611455
76	0x3e192570	0.14955688
77	0xbb8cf2a7	-0.0043013874
78	0x3e1a5328	0.15070784
79	0xbe351c9e	-0.17686698
80	0x3e08b90f	0.13351844
81	0x3c072340	0.00824815
82	0xbc450da7	-0.012027181
83	0xbcd47d6b	-0.02593871
84	0x3d9fc094	0.07800403
85	0x3dade502	0.084909454
86	0x3e39360a	0.1808702
87	0xbd96e885	-0.07368568
88	0xbdfabc70	-0.12242973
89	0xbc2be736	-0.010492137
90	0xbea505e8	-0.3223107
91	0xbd882443	-0.066475414
92	0x3e061930	0.13095546
93	0xba805180	-0.0009789914
94	0xbd9efe64	-0.07763365
95	0x3cfb0c76	0.03064559
96	0x3b2a93e7	0.0026028098
97	0xbd0a4dd3	-0.033765625
98	0x3de28dbe	0.110621914
99	0xbd301f28	-0.042998463
100	0xbd9c5354	-0.07633081
101	0x3e3ef53a	0.18648234
102	0x3e3fdcda	0.18736592
103	0xbdf8fe5b	-0.121578895
104	0xbe044be6	-0.12919578
105	0xbb93b3d5	-0.0045075216
106	0xbd75fff2	-0.06005854
107	0x3e1f5cfe	0.15562817
108	0x3e1695ec	0.14705628
109	0x3ce8e2ab	0.028428396
110	0xbe405341	-0.18781759
111	0x3d24aa62	0.040201552
112	0xbd835ef6	-0.06414597
113	0x3e3348f6	0.17508301
114	0x3ae200a0	0.0017242618
115	0xbe006728	-0.12539351
116	0x3e70ea1e	0.23526809
117	0x3c44715b	0.011989917
118	0x3e85e08a	0.26147872
119	0x3d0ed4e8	0.034871012
120	0x3b6d9516	0.0036252192
121	0x3d26cca0	0.04072249
122	0xbd3fa509	-0.04678825
123	0x3e5d09a7	0.21585713
124	0x3e292401	0.1651764
125	0xbde4f9e2	-0.11180474
126	0xbbca95b1	-0.0061823954
127	0x3d7e9027	0.062149193
128	0x3ec64274	0.38722575
129	0xbe17a8cb	-0.14810483
130	0xbdad69d0	-0.08467448
131	0xbd83535b	-0.06412383
132	0x3e2e790f	0.17038368
133	0xbdcf2386	-0.101141974
134	0xbcba7923	-0.02276284
135	0x3e090a57	0.1338285
136	0x3d7225f0	0.05911821
137	0x3d85d890	0.06535447
138	0x3e91c00a	0.28466827
139	0x3df82b72	0.121176615
140	0x3e253c67	0.16136323
141	0xbe0e359d	-0.1388764
142	0xbc8bd7b0	-0.017070621
143	0xbe493180	-0.19647789
144	0x3cc6b4a5	0.02425606
145	0x3d7207e2	0.05908955
146	0x3ccfe47b	0.025377503
147	0x3d17943e	0.03700661
148	0x3e32aa34	0.1744774
149	0xbe333d4e	-0.17503855
150	0x3deb5e2e	0.11492573
151	0xbe3fc75c	-0.18728393
152	0x3e142894	0.14468604
153	0xbda1617c	-0.07879922
154	0xbd9f3ca6	-0.0777524
155	0xbe129bd1	-0.14317252
156	0xbe3f2342	-0.18665794
157	0xbde050dc	-0.10952923
158	0xbdb5dd90	-0.0888015
159	0xbde86f4e	-0.11349355
160	0xbdcb3481	-0.09922124
161	0xbe91be19	-0.28465346
162	0x3cd2cf58	0.025733635
163	0xbdb8d1b4	-0.09024373
164	0xbd0a88d6	-0.033821903
165	0xbe4b880e	-0.1987612
166	0xbe4c46f4	-0.19948941
167	0x3e87404e	0.26416248
168	0xbd5aa2de	-0.05337798
169	0x3df30322	0.11865832
170	0x3e533276	0.20624718
171	0xbd0b7507	-0.034047153
172	0xbe1794bb	-0.1480283
173	0xbd4ac160	-0.049500823
174	0xbe1210ca	-0.14264217
175	0x3e42fe4a	0.19042316
176	0x3d729454	0.059223488
177	0xbd6d9904	-0.058007255
178	0x3d542a49	0.05179814
179	0xbe454782	-0.1926556
180	0x3e1c0c7e	0.1523914
181	0x3ebe1129	0.37122467
182	0xbdaf735a	-0.085669234
183	0x3e79105a	0.24322644
184	0x3d4d809d	0.050171483
185	0xbdf2961e	-0.11845039
186	0xbe2cfe45	-0.16893871
187	0xbe07baa2	-0.13254789
188	0xbda29471	-0.07938469
189	0x3e1bd62f	0.15218423
190	0xbe03edb3	-0.12883644
191	0xbe06322c	-0.13105077
192	0x3d9fea97	0.07808416
193	0xbdfa910f	-0.12234699
194	0x3cd98f9a	0.026557732
195	0xbd5b5d48	-0.053555757
196	0xbdc65719	-0.09684581
197	0x3da77eec	0.08178505
198	0xbd5173ff	-0.051136013
199	0xbdb71894	-0.08940235
200	0xbd655e73	-0.055998277
201	0x3d490e81	0.049086098
202	0xbbfa0f2a	-0.007631202
203	0xbe6c09d5	-0.23050626
204	0x3dec67de	0.115432486
205	0xbc8e57cc	-0.01737585
206	0x3df93e15	0.12170044
207	0xbe5bba0c	-0.2145769
208	0x3e973e79	0.2953985
209	0x3c506401	0.012719155
210	0x3e6bde5f	0.23034047
211	0xbdc7e933	-0.09761276
212	0xbea6ae1a	-0.32554704
213	0x3c9e92d6	0.019357126
214	0xbc1de8e9	-0.00963805
215	0x3db84849	0.08998162
216	0x3ce6b2ba	0.028161395
217	0x3c5c635d	0.013451424
218	0x3e8d8017	0.27636787
219	0x3d424687	0.04743054
220	0x3c8f4bb5	0.017492155
221	0xbda07d84	-0.0783644
222	0x3e2e638e	0.17030165
223	0x3bb55e31	0.00553491
224	0xbd774cb7	-0.060375895
225	0xbd967c94	-0.0734798
226	0x3e731001	0.23736574
227	0xbd84d01c	-0.06485006
228	0x3d0d183c	0.03444694
229	0x3e51aec1	0.2047682
230	0xbd2e74d9	-0.042591903
231	0xbd03994a	-0.03212861
232	0xbccb24c2	-0.0247978
233	0x3e291b28	0.16514266
234	0xbe251cc6	-0.16124257
235	0xbd885ae8	-0.06657964
236	0xbb5b31a6	-0.003344634
237	0x3de512b3	0.11185207
238	0xbe04f6e0	-0.129848
239	0xbda7a852	-0.081864014
240	0x3e85721b	0.26063618
241	0x3e97ea9e	0.29671186
242	0xbdf00b2c	-0.11720881
243	0x3dbc4502	0.0919285
244	0xbe9f9f1f	-0.31176087
245	0x3e138279	0.1440524
246	0x3d8fe60e	0.07026301
247	0x3e2c9cc6	0.1685668
248	0x3ca351c7	0.019936455
249	0x3e086b0c	0.13322085
250	0x3d37d5a8	0.044881493
251	0x3d142f27	0.03617778
252	0xbdd30398	-0.1030342
253	0x3dfd5edc	0.123716086
254	0x3e903c8b	0.2817119
255	0x3d227a9c	0.03966771

model.6.bias f4 [128]
0	0x37f233d0	2.8872775e-05
1	0x3d728c56	0.059215866
2	0x3d75f77b	0.06005047
3	0x3b9f2e9a	0.0048578503
4	0xbc6564e9	-0.01400111
5	0x3c23d70a	0.01
6	0xbc829206	-0.01593877
7	0x3d8019bf	0.06254911
8	0x3d7ef1aa	0.062242188
9	0x3d77f6a3	0.060537945
10	0x3d78620c	0.06064038
11	0x3d85683b	0.06514021
12	0x3c23d70a	0.01
13	0x3d554f76	0.052077733
14	0x3b9f9815	0.0048704245
15	0x3c23d70a	0.01
16	0x3d839e44	0.06426671
17	0x3b87c2be	0.004143088
18	0xbbaac523	-0.005211489
19	0xb87b41bc	-5.9904283e-05
20	0x3d624b5c	0.05524765
21	0x3d83e654	0.06440416
22	0x3c01a3e9	0.007912614
23	0x3a19e7b8	0.00058710156
24	0x3b62685b	0.0034547064
25	0x3c23d70a	0.01
26	0x3c23d70a	0.01
27	0x3bdebbf0	0.0067973062
28	0xbc893521	-0.016748967
29	0xbc15be0e	-0.009139551
30	0x3d8d35b7	0.06895011
31	0x3b5c73c1	0.003363833
32	0x3d696db1	0.056989376
33	0x3d7df2c8	0.061999112
34	0x3c60cab6	0.013720205
35	0xbb7a29f3	-0.0038171976
36	0x3d8881a5	0.06665353
37	0x3bf5ef43	0.007505329
38	0x3d814435	0.063118376
39	0x3c23d70a	0.01
40	0x3c23d70a	0.01
41	0x3d051d06	0.032498382
42	0x3bdafc58	0.0066829138
43	0x3d873542	0.06601955
44	0x3c23d70a	0.01
45	0x3c23d70a	0.01
46	0x3d7ec1c8	0.062196523
47	0x3c6f9eb5	0.014625241
48	0xbb97fcdc	-0.0046382975
49	0x3c86c394	0.01645068
50	0x3c23d70a	0.01
51	0x3cca1b1b	0.024671128
52	0x3d859c2b	0.06523927
53	0x3c23d70a	0.01
54	0xbb7ca246	-0.003854887
55	0x3c23d70a	0.01
56	0x3d8247f5	0.06361381
57	0x3d819dc1	0.06328917
58	0x3bc10d51	0.00589148
59	0x3bcb0b90	0.0061964467
60	0x3af08b26	0.0018352016
61	0x3d86aa84	0.06575492
62	0x3d7ca107	0.061677005
63	0xbc32eac5	-0.010920231
64	0x3d8441d0	0.06457865
65	0x3ca2df2c	0.019881807
66	0x3c23d70a	0.01
67	0x3d7a7224	0.06114401
68	0x3d82fd74	0.063959986
69	0x3d7a5a20	0.061121106
70	0x3d7e5d56	0.06210073
71	0x3d817b28	0.06322318
72	0x3c63f5a6	0.013913548
73	0x3c4ce30a	0.012505302
74	0x3d052f86	0.032516025
75	0x3d92b3c0	0.07163191
76	0xbbe5fe77	-0.00701886
77	0x3cc454d0	0.023966223
78	0x3c23d70a	0.01
79	0x3bb283be	0.005447834
80	0xbbb91aa8	-0.0056489296
81	0x3c135ce2	0.008994313
82	0x3c23d70a	0.01
83	0x3b8bb57f	0.0042635794
84	0x3d82182b	0.06352266
85	0x3c8edf47	0.017440451
86	0x3d778fb8	0.060439795
87	0x3d003ab6	0.03130599
88	0x3d844262	0.06457974
89	0x3d6fc251	0.058534924
90	0xba2e3c0c	-0.0006646521
91	0x3d7c2854	0.061561897
92	0x3cb54545	0.022127757
93	0x3ba72aa7	0.00510152
94	0x3c2d0801	0.01056099
95	0xbb9d0292	-0.004791566
96	0x3ba63b2e	0.0050729727
97	0x3d752e27	0.059858467
98	0x3d8b9758	0.06815976
99	0x3d7abd88	0.061215907
100	0xb8998428	-7.3202245e-05
101	0x3d58d930	0.0529415
102	0x3b680f57	0.0035409534
103	0x3c23d70a	0.01
104	0x3b864b62	0.004098342
105	0x3d8d5bf3	0.069023035
106	0x3d83f4f8	0.064432085
107	0x3d7e0838	0.062019557
108	0x3d73437a	0.059390523
109	0x3c23d70a	0.01
110	0x3c23d70a	0.01
111	0x3c23d70a	0.01
112	0x3c23d70a	0.01
113	0xba8e054e	-0.0010835321
114	0x3bbc45d4	0.005745629
115	0x3be295a2	0.0069148103
116	0x3d83bc04	0.064323455
117	0x3cceacfd	0.025228972
118	0x3d8b3c5d	0.06798623
119	0x3c23d70a	0.01
120	0x3d7cb7ce	0.061698727
121	0x3c3d2b3d	0.011545953
122	0x3ae4d233	0.0017457664
123	0x3ba7eef7	0.0051249224
124	0x3d8bc5d2	0.068248406
125	0x3c801f77	0.015640004
126	0x3d0125e3	0.031530272
127	0x3c79c987	0.015245802

model.8.weight f4 [3, 128]
0	0x3d1c184f	0.03810912
1	0xbe8649f4	-0.26228297
2	0xbe29159b	-0.16512148
3	0xbd00fc55	-0.031490643
4	0x3d6ba7d6	0.057533108
5	0xbd055e6c	-0.03256075
6	0x3e8f1e34	0.2795273
7	0xbe681446	-0.22663984
8	0xbdd795b4	-0.105266005
9	0xbe75b3e2	-0.23994401
10	0xbe51ef88	-0.2050153
11	0xbd997175	-0.07492343
12	0xbe2abb97	-0.16673122
13	0xbcb45ca5	-0.022016833
14	0x3e7ef1c1	0.2489691
15	0xbda83bce	-0.08214532
16	0xbe67acc6	-0.22624502
17	0x3ca8e470	0.02061674
18	0x3e844cac	0.25839746
19	0x3e40187b	0.18759339
20	0xbeef7ea7	-0.46776316
21	0xbe537685	-0.2065068
22	0x3e19954a	0.14998356
23	0x3dfdbfe3	0.12390115
24	0x3e115d41	0.1419573
25	0x3c6c1a24	0.014410529
26	0xbdcff3fb	-0.101539575
27	0x3db6ee03	0.08932116
28	0xbd07a4e2	-0.03311623
29	0x3e01464f	0.12624477
30	0xbd40f7cd	-0.04711132
31	0x3cb009bc	0.021489017
32	0xbd4801b3	-0.048829746
33	0xbe8b4a85	-0.2720529
34	0x3dbcb89c	0.09214899
35	0x3e82771e	0.25481504
36	0xbd23db3d	-0.040004004
37	0xbbc72b30	-0.0060781464
38	0x3c5f5fd4	0.013633687
39	0xbe26f91b	-0.16305964
40	0xbe780b7a	-0.24223128
41	0xbcee988f	-0.02912548
42	0xbdc4b940	-0.09605646
43	0xbd94b70a	-0.072614744
44	0xbb8cad88	-0.0042931475
45	0xbe17c6ee	-0.1482198
46	0xbdc564a5	-0.09638337
47	0x3dcbdfa1	0.09954763
48	0x3e30ce55	0.1726621
49	0x3e7b7987	0.24558078
50	0x3db53753	0.08848443
51	0x3de21600	0.110393524
52	0xbd82ce7a	-0.063870385
53	0x3d976100	0.07391548
54	0xbdcb007d	-0.099122025
55	0x3db32250	0.08746779
56	0xbcad2984	-0.02113796
57	0xbe2b51e0	-0.16730452
58	0xbdb452b7	-0.08804839
59	0x3e3ff28c	0.18744868
60	0x3db620d5	0.08892981
61	0xbd04073e	-0.03223347
62	0xbe8c2a6a	-0.2737611
63	0xbe0241ae	-0.12720367
64	0xbd426fb3	-0.047469806
65	0x3d8a5f45	0.067564525
66	0x3d962ca1	0.07332731
67	0xbe784151	-0.24243666
68	0xbe4a66e8	-0.19765818
69	0xbe900b9a	-0.2813385
70	0xbe1e0b79	-0.15434064
71	0xbd99b9e7	-0.07506161
72	0xbe1ebd82	-0.15501979
73	0x3e69c239	0.22827996
74	0x3e015829	0.12631287
75	0xbe515e13	-0.20446043
76	0x3e0b4ef0	0.13604331
77	0x3e1980d7	0.14990555
78	0xbdbbd14e	-0.09170781
79	0xbde4f4f5	-0.11179534
80	0x3b4010d8	0.0029306915
81	0x3e9296c3	0.28630647
82	0x3d69e081	0.05709887
83	0x3dd4a75b	0.10383483
84	0xbe5bb962	-0.21457437
85	0x3e63d672	0.22249773
86	0xbe26b669	-0.16280521
87	0x3e7f4304	0.24927908
88	0xbe37cee0	-0.1795001
89	0xbe81dc57	-0.25363418
90	0xbd530fd4	-0.051528767
91	0xbdc3a7e2	-0.095535055
92	0x3d943ffb	0.07238766
93	0x3e0275ce	0.12740251
94	0xbdda266d	-0.106518604
95	0x3c4ae31e	0.0123832505
96	0xbd1e53f7	-0.038654294
97	0x3d2eb2ac	0.042650864
98	0x3db30e2a	0.08742936
99	0xbe46dc98	-0.19420087
100	0x3c28cf46	0.010303324
101	0xbe29e73c	-0.16592115
102	0xbda31cac	-0.07964453
103	0x3e49f10d	0.1972086
104	0xbdb1ff7a	-0.086913064
105	0xbe1f91a4	-0.15582901
106	0xbcf679c1	-0.030087354
107	0xbdeb7804	-0.114975005
108	0xbe16f406	-0.14741525
109	0x3e25ef66	0.16204605
110	0xbda0a543	-0.07844021
111	0xbd908cb7	-0.07058089
112	0xbdef5e91	-0.11687959
113	0x3d85a4d7	0.06525581
114	0x3d1ebab6	0.03875228
115	0x3dd6bf91	0.10485757
116	0x3b9e9373	0.0048393547
117	0x3db4e760	0.08833194
118	0xbd8c5379	-0.06851859
119	0x3d38a1bc	0.045076117
120	0xbe529d55	-0.2056783
121	0xbd0320b3	-0.032013606
122	0xbd877845	-0.066147365
123	0x3e553ad5	0.20823224
124	0x3ca5e032	0.020248506
125	0xbd1fda9a	-0.039026834
126	0x3dd1e733	0.10249176
127	0x3d882d90	0.06649315
128	0xbcc7a353	-0.024369871
129	0x3c6693b4	0.014073301
130	0xbd84e123	-0.06488254
131	0xbe64d604	-0.22347265
132	0xbe057c31	-0.13035657
133	0x3d8d24f8	0.06891817
134	0xbe57ba01	-0.21067049
135	0xbd035da8	-0.03207174
136	0x3e263732	0.16231993
137	0x3c244bb5	0.010027816
138	0x3dee8c81	0.11647893
139	0xbe447045	-0.19183452
140	0x3d2d9189	0.04237512
141	0xbe0a375d	-0.13497682
142	0x3e2f3cef	0.17113088
143	0xbdc9d0da	-0.098542884
144	0xbd8c36ba	-0.06846376
145	0xbdc470d7	-0.09591835
146	0xbded03e0	-0.11573005
147	0x3dd9df63	0.10638311
148	0xbceb0182	-0.028687242
149	0xbd74b334	-0.059741214
150	0xbcfc5422	-0.030801836
151	0xbcaf3668	-0.021388248
152	0x3e5fc445	0.21852215
153	0x3d1a93db	0.037738662
154	0x3d37ef58	0.04490599
155	0xbdb54345	-0.08850721
156	0xbe225ed0	-0.1585648
157	0x3e5cc551	0.21559645
158	0xbd266813	-0.040626597
159	0x3e390bf2	0.18070963
160	0x3d42bb13	0.04754169
161	0xbe38aefa	-0.18035498
162	0xbdaf1122	-0.0854819
163	0x3d3eca37	0.046579566
164	0xbe2f9003	-0.1714478
165	0x3e0b2a95	0.13590463
166	0x3e23b4b4	0.15986902
167	0x3d996d36	0.074915335
168	0xbded1448	-0.11576134
169	0xbd9b9030	-0.07595861
170	0xbc3a42e1	-0.011368484
171	0xbd2d39fb	-0.042291623
172	0xbda45ad4	-0.080251366
173	0xbcfef532	-0.031122778
174	0xbe073f2e	-0.13207695
175	0xbdc73bfe	-0.097282395
176	0x3d17e6a0	0.037085176
177	0x3dc1fe1d	0.094722964
178	0xbea750a6	-0.32678717
179	0xbd349e2a	-0.04409615
180	0x3e19ed29	0.15031876
181	0xbdaa75a7	-0.08323222
182	0x3e7bd757	0.24593864
183	0x3df728c9	0.12068326
184	0x3dc74ad8	0.09731072
185	0xbcfcaa21	-0.030842843
186	0xbde0bcca	-0.10973509
187	0xbde16f32	-0.11007537
188	0xbddecd19	-0.10878963
189	0xbe20eb03	-0.1571465
190	0x3da8a51a	0.082346156
191	0xbe6fa841	-0.23404028
192	0xbe00abff	-0.12565611
193	0xbd8319b8	-0.0640139
194	0xbc94c642	-0.018160943
195	0x3e0d5bbe	0.13804528
196	0xbe485d7e	-0.19566914
197	0xbdfd13b9	-0.123572774
198	0x3e022cdb	0.12712424
199	0xbd0990cc	-0.033585355
200	0x3c1511ea	0.009098509
201	0x3e4b2785	0.19839294
202	0xbbc8a706	-0.0061234264
203	0xbe1927c8	-0.14956582
204	0x3d81e97c	0.06343362
205	0x3d52449c	0.051334962
206	0x3e26dbfd	0.16294856
207	0xbe46afad	-0.19402952
208	0x3dc7e80b	0.097610556
209	0xbcb76863	-0.022388643
210	0xbdecefc8	-0.11569172
211	0xbe63af09	-0.2223474
212	0x3e252bab	0.1612994
213	0x3d35a148	0.044343263
214	0x3e357262	0.17719415
215	0x3d0f2523	0.034947526
216	0x3e24abe2	0.16081193
217	0x3df7e522	0.121042505
218	0xbd01a8c5	-0.03165509
219	0x3dd021b9	0.10162682
220	0xbcef0bfa	-0.029180516
221	0x3d7c3871	0.061577264
222	0xbe458a58	-0.19291055
223	0xbc20ffce	-0.009826614
224	0xbddc2b11	-0.10750402
225	0x3e37731a	0.17915002
226	0x3d451d8f	0.048123892
227	0x3caa666a	0.020800788
228	0xbd9b30ba	-0.07577653
229	0xbdfdd98a	-0.12395008
230	0xba8b1f32	-0.0010614155
231	0xbe1c3d17	-0.15257679
232	0x3e12b8a6	0.1432825
233	0xbd1e3616	-0.0386258
234	0x3d13ddfe	0.03610038
235	0x3e05c98c	0.13065165
236	0x3e2441a0	0.16040659
237	0xbc889b2c	-0.016675554
238	0x3e31f4b9	0.1737851
239	0xbc3688c4	-0.011141006
240	0x3ebf96a1	0.37419608
241	0x3e2152b8	0.15754211
242	0xbd82c81a	-0.063858226
243	0x3e55ee7b	0.20891754
244	0x3d24276b	0.040076654
245	0xbc4ada52	-0.012381153
246	0xbe34f428	-0.17671263
247	0xbd1a3484	-0.03764774
248	0xbe2ff8ee	-0.17184803
249	0xbe3f5f18	-0.18688619
250	0x3dd21367	0.10257607
251	0xb8d5648d	-0.000101753605
252	0xbd4e21ea	-0.05032531
253	0x3bb4b0ea	0.005514254
254	0xbe0b3bd6	-0.13597044
255	0x3cb1e765	0.021716783

model.8.bias f4 [3]
0	0xbd1f8457	-0.03894457
1	0x3bf72de2	0.0075433115
2	0x3d732bfa	0.05936811
