p1_actor_envs_2_lam_0_9639088910940194_gamma_0_9613463836803928_t_1400_a_lr_0_000994410050960162_c_lr_0_00025052125112337597.pth (torch, 209886 bytes, 10 tensors)

model.0.weight f4 [128, 6]
000000 1f 0b 44 3f af dc 53 3f 3a 77 9c be 6b 1b 2b 3e
       0.7657947 0.8275861 -0.30559713 0.16709678
000010 89 fa 18 bf a0 72 bb 3b b7 f2 0f 3f cc d7 86 3e
       -0.59757286 0.0057204515 0.5622973 0.26336515
000020 75 7c 70 be cc b6 09 c0 57 c4 61 3f 2e 6d 3a 3f
       -0.23484977 -2.151782 0.88190216 0.72822845
000030 23 22 47 3d a4 d9 8e 3f b3 db a7 3e 19 95 0d 3f
       0.04861654 1.1160169 0.32784805 0.5530563
000040 dd 82 85 bf 6e df 8f 3e 9b 9f 88 3c 54 13 06 bf
       -1.0430561 0.2810015 0.016677668 -0.5237324
000050 26 7a 02 bd 19 cf de be 06 fd 46 bf ba 2e 7d 3d
       -0.03185477 -0.43517378 -0.77729833 0.06181214
000060 1d 13 db 3e a9 23 49 bf 7b c6 72 bf 74 f6 a5 be
       0.4278802 -0.7857004 -0.9483411 -0.3241459
000070 5a e4 5a 3e de 14 eb 3d 1d f2 32 3f 1f 87 9b 3e
       0.21376172 0.114785895 0.69900686 0.30376527
000080 a2 90 54 bf a0 3e d4 3c 81 84 1a bf 88 ee 70 be
       -0.8303319 0.025908768 -0.60358435 -0.23528492
000090 44 f5 c2 be 07 48 be bf 5d 5c 0b 3e f6 64 bf 3e
       -0.38077748 -1.4865731 0.13609453 0.37381715
0000a0 cc 57 8f 3d 83 a6 3e bf 02 fe 8c be 99 ae 3f 3f
       0.06999168 -0.74472827 -0.27537543 0.7487579
0000b0 9a db 81 be e7 6f 2c bf a0 58 90 be 88 09 41 3f
       -0.25362855 -0.6735825 -0.28192616 0.7540517
0000c0 28 df 26 3d 9d da c1 be fa b9 30 3e d2 14 cd bd
       0.040740162 -0.378621 0.17258444 -0.10013737
0000d0 a5 04 fc bd 9b bc e9 bd c0 d8 3b 3f a3 cb d6 be
       -0.123055734 -0.11412927 0.7337761 -0.41952237
0000e0 cc 71 3c be 06 35 a2 3f ec 05 20 bf 36 4a 41 3d
       -0.18402785 1.2672431 -0.62509036 0.047189914
0000f0 32 05 ad bd d3 0b 7d be ef a7 f5 3d f6 63 02 3f
       -0.084482566 -0.24711542 0.119949214 0.5093378
000100 b3 e0 02 3f 78 a2 00 3f b9 76 17 3e e2 38 f8 3e
       0.51124114 0.5024791 0.14791383 0.48480898
000110 5e 28 e5 be c1 6b 0f bf e1 e9 79 be 0c d9 ac be
       -0.4475736 -0.56023794 -0.24405624 -0.33759344
000120 a4 7c a2 ba 11 e2 df 3e 89 1b 95 be 84 90 00 3f
       -0.0012396765 0.43727162 -0.2912257 0.50220513
000130 6b 32 8f bf 30 00 5a bf a6 3e 90 be 83 ef ca 3e
       -1.1187261 -0.85156536 -0.28172797 0.39635858
000140 f6 7c 02 bf 01 ae 7c 3c 66 75 9f bd 04 3d eb 3e
       -0.50971925 0.015422345 -0.07786064 0.4594499
000150 90 06 5b 3f 12 36 62 3e 6c 6e b7 be 29 d7 8f 3f
       0.8555689 0.22090939 -0.35826433 1.1237537
000160 a0 cc 56 bf 09 56 99 be 30 45 55 3e 93 cd af be
       -0.8390598 -0.29948452 0.20827174 -0.34336528
000170 c7 7b 6a bf a2 95 1e be fb 6f f1 be 5f 97 80 bf
       -0.9159512 -0.15486768 -0.47155747 -1.0046195
000180 59 ae 10 3e a7 88 e8 be af 0f 7c bf 24 47 36 3f
       0.14129008 -0.45416757 -0.9846143 0.712023
000190 1a 7d 39 bf 93 0c 5e bf 0e c4 fd 3e 28 63 11 3f
       -0.72456515 -0.86737937 0.4956364 0.56791925
0001a0 8e b1 81 3f 39 6c c7 3e b6 4d ab bf 26 90 d3 3e
       1.013231 0.38949755 -1.338309 0.41320914
0001b0 9d 5f 1c bd 67 4f 14 3d e0 48 16 bf c0 5b 57 bf
       -0.03817712 0.036208536 -0.5870495 -0.84124374
0001c0 4b bd 0f 3f 37 60 ad be df d2 e2 bd 99 de 7d 3d
       0.56148213 -0.3386247 -0.11075377 0.061979864
0001d0 75 49 5d 3f de 57 83 bf ff b4 e5 bd 0c fa 9c 3d
       0.8644021 -1.026119 -0.11216163 0.0766488
0001e0 3d 23 cb 3c b9 33 85 3f 39 a3 0a 3f 64 a8 93 be
       0.024797076 1.040641 0.5415531 -0.2883941
0001f0 f2 0c d6 3e 8a db 38 3f 72 4e 2f be c1 7d 0a 3d
       0.4180675 0.7220999 -0.17119768 0.033811335
000200 87 29 f4 3e 05 c9 27 be d4 1d f0 3e c7 cb 2e bf
       0.47687933 -0.16385277 0.46897757 -0.6827969
000210 b5 c1 16 bf fd b4 10 3f b4 6c 10 3f 72 6a 7c be
       -0.58889323 0.56526166 0.5641587 -0.2464998
000220 b0 0c 7f be 28 fb 7a 3f 06 fb f3 bc 57 3d cd be
       -0.24907184 0.98039484 -0.029782783 -0.4008586
000230 12 34 d6 be 4c fb 10 3f 2f 71 14 3f 71 32 60 be
       -0.41836601 0.5663345 0.57985204 -0.21894242
000240 9c 8e b4 3e f3 53 a0 bf 7f 3b fb 3e 6c 63 86 3e
       0.35265052 -1.2525619 0.4906883 0.26247728
000250 8f 62 f0 3e 96 9f 72 3f 66 bb b8 3e 33 2d d5 3e
       0.46950194 0.9477476 0.36080474 0.41636047
000260 9c 27 66 3e 3e 96 be 3e 63 b9 14 bf 76 81 1d 3f
       0.22476047 0.37224 -0.5809538 0.61525667
000270 24 81 09 bf 5d 56 84 bf 51 31 a7 bf 2e 5c b4 3e
       -0.5371268 -1.0338856 -1.3061925 0.35226578
000280 f7 a8 b7 3e be d8 97 3f 19 37 59 bf 1d 27 41 bf
       0.35871097 1.186302 -0.848497 -0.7545031
000290 b3 18 a2 be c9 7f 29 bf f0 ec e8 bd 1d 6c ba be
       -0.3165947 -0.6621061 -0.11373317 -0.3641061
0002a0 2c 9e f2 3c ab fc 80 be 77 f0 03 3f 02 f7 28 bb
       0.029616438 -0.2519277 0.51538795 -0.0025781994
0002b0 28 89 0e 3e b6 40 99 3c 0b 01 75 3f e6 d3 41 bf
       0.13919508 0.018707614 0.95704716 -0.75713956
0002c0 fc 27 09 3f 0f a9 2a bf 92 23 cf be 6b df b9 3e
       0.53576636 -0.6666421 -0.40456825 0.36303267
0002d0 80 9d 76 3e 6c 91 d9 bd bc 87 25 3f dc d3 1d 3f
       0.24083519 -0.1062344 0.6466024 0.61651397
0002e0 b4 65 98 3f e8 d8 89 3f cb e7 f2 3d 81 ad ec 3e
       1.1906037 1.076932 0.11860617 0.46226123
0002f0 8d de bd bf ae b1 4e 3e 21 15 94 3f f0 e0 e4 bd
       -1.4833542 0.20184967 1.1568948 -0.11175716
000300 2a ab 9d 3f 22 d9 14 3f 60 d5 6e be c1 70 ba 3e
       1.231786 0.5814382 -0.23323584 0.3641415
000310 12 57 ed 3d 63 97 15 3f 56 4b 65 3f 20 60 a6 bd
       0.11588873 0.5843412 0.8956808 -0.08123803
000320 8f 26 11 bf 8f b6 82 be 5e a3 06 be f7 3e b9 be
       -0.5669946 -0.25529906 -0.13148257 -0.3618085
000330 a6 49 76 be bd 6e 2b bf 34 e8 4d 3f 42 87 d1 3b
       -0.24051532 -0.6696585 0.8043244 0.006394298
000340 50 23 3b 3e ac 37 9b bd 8a 7a d1 be 89 af a4 3e
       0.1827519 -0.07578978 -0.40913802 0.32165173
000350 76 d4 ad 3f 91 03 3a be 46 2f 7e 3f 11 98 62 3c
       1.3580463 -0.18165423 0.99290884 0.013830201
000360 7c 67 3e 3e 53 39 79 3e 4e 72 fb 3e 3a f3 96 3e
       0.18594164 0.24338274 0.49110645 0.29482442
000370 42 8c 5e 3f cd c9 3b 3e 89 c3 08 bf 05 61 16 be
       0.86932766 0.183387 -0.5342336 -0.14685448
000380 2b 4b bf be 1b fd c0 be 8c 0c de 3d 27 71 3c 3e
       -0.37362036 -0.37693104 0.10842237 0.18402539
000390 bb 17 42 3f ce 36 48 3f f6 84 05 bf 4e 0b 32 be
       0.7581746 0.78208625 -0.5215601 -0.17387125
0003a0 19 46 16 bf 91 2a cd 3d 8c e8 56 bf 24 4b b0 3e
       -0.5870071 0.100178845 -0.8394859 0.34432328
0003b0 ba 31 34 bf bf 75 ee be 16 60 41 3e 98 e3 41 3e
       -0.70388377 -0.46574208 0.1888431 0.18934476
0003c0 46 78 b8 be ac 3e 4b 3f 17 19 5f be fc c5 13 be
       -0.3602926 0.79392505 -0.21786915 -0.14430994
0003d0 4b c1 18 be 58 c0 94 bd ea 90 cc be 13 a9 6b 3f
       -0.14917485 -0.07263249 -0.3995431 0.9205486
0003e0 29 de 09 bf 53 64 df 3d 0e d9 ae be 9c 48 11 be
       -0.53854614 0.10907807 -0.34149975 -0.14187855
0003f0 47 33 37 bf 97 84 34 3f b6 da 6c be 0d 2f cc 3e
       -0.7156262 0.70514816 -0.23130307 0.39879647

model.0.bias f4 [128]
000000 d2 af d6 3d 91 24 fa 3d 98 76 d9 3d 0a d7 23 3c
       0.10482754 0.12214006 0.10618323 0.01
000010 0a d7 23 3c 94 a3 0d 3e 0a d7 23 3c 59 1c 03 3e
       0.01 0.13831931 0.01 0.12803783
000020 ff bb 47 3c f7 e0 e6 3c 06 ca 26 3d 04 e7 11 3e
       0.012190818 0.028183443 0.04072001 0.14248282
000030 24 bc 88 3d 85 71 b1 3d eb b3 01 3e 4b d9 36 3b
       0.0667651 0.0866423 0.1266629 0.0027900513
000040 7a 5b e2 3c cd 4c fe 3d 0a d7 23 3c b1 ae a2 3d
       0.02763151 0.12416992 0.01 0.07943476
000050 d4 bd 92 3d 36 c2 8d 3d 01 65 17 3c 3c 8b 74 3c
       0.07165113 0.069218084 0.00924039 0.014925774
000060 c7 f7 90 3d ae e7 00 3e 0a d7 23 3c 0a d7 23 3c
       0.0707851 0.12588379 0.01 0.01
000070 c1 e7 2b 3d 21 8c 1f bc 68 40 65 3d 06 35 db 3d
       0.041969065 -0.009737999 0.055969626 0.10703473
000080 ec 27 06 3e f4 ff ab 3d 1d cf e4 3d d4 17 a8 3d
       0.13101166 0.083984286 0.11172316 0.0820767
000090 26 0e bb 3c 0a d7 23 3c 39 08 c8 3d 0a d7 23 3c
       0.022833895 0.01 0.09767193 0.01
0000a0 e8 d4 d9 3d 27 e1 ea 3d 53 13 e2 3d 39 28 8a bd
       0.10636312 0.11468726 0.11038842 -0.06745953
0000b0 3b 78 9d 3c 17 d6 29 3d 00 f2 fc ba 6a 5f 63 3d
       0.01922237 0.041463938 -0.0019298196 0.055510916
0000c0 0a d7 23 3c 8a f7 82 3c 0a d7 23 3c fa ec ed 3d
       0.01 0.015987176 0.01 0.11617465
0000d0 26 08 e5 3c 7b 7b 6e 3c 74 cf be bc 0a d7 23 3c
       0.027957987 0.014555807 -0.02329228 0.01
0000e0 c4 5e 00 bd e6 37 00 3e 8f 63 f4 3d 0a d7 23 3c
       -0.031340376 0.12521324 0.11933052 0.01
0000f0 87 2d 57 3c 0a d7 23 3c 5d bc 12 3e 45 14 10 3e
       0.013133413 0.01 0.14329667 0.14070232
000100 2c 62 0e 3e f2 e9 03 bb 25 c9 1a 3e 0a d7 23 3c
       0.13904637 -0.0020128456 0.15115793 0.01
000110 d9 84 2b 3d 6c b8 a8 3d 17 32 b1 3d 0a d7 23 3c
       0.04187474 0.08238301 0.08652132 0.01
000120 ce 93 dc 3d 12 de 11 3e 52 3a 71 3d a4 d5 0a 3e
       0.10770379 0.1424487 0.05889351 0.1355806
000130 82 09 e4 3d a7 f3 0f 3e 0a d7 23 3c d9 1e 63 3d
       0.11134626 0.1405779 0.01 0.05544934
000140 a2 e5 4e 3b fb 9b 47 3d 0a d7 23 3c 91 b2 0a 3e
       0.0031569977 0.04873274 0.01 0.1354468
000150 d5 7d c6 3d c9 d0 06 3e 0a 0b 91 3d 0a d7 23 3c
       0.09691969 0.13165583 0.07082184 0.01
000160 0a d7 23 3c b6 f1 7f ba 78 ba df 3d 0a d7 23 3c
       0.01 -0.0009763496 0.10924238 0.01
000170 95 71 b1 3d e0 d5 c5 3d 53 26 cc 3d 4b 84 ac 3d
       0.08664242 0.09659934 0.09968247 0.084236704
000180 9b 25 bc 3d f8 6b d8 3d 41 76 4e 3d 02 36 01 3e
       0.0918686 0.105674684 0.050405744 0.12618259
000190 24 88 07 3e 53 26 72 3d 0a d7 23 3c 0b ef bd 3d
       0.13235527 0.05911858 0.01 0.092741095
0001a0 e5 c6 a1 3d 94 ee a3 3c 03 62 b5 3d e8 fd df 3d
       0.07899264 0.020011224 0.08856585 0.10937101
0001b0 a6 11 9f 3a 65 54 42 3d bd 89 c8 3d 0a d7 23 3c
       0.0012135997 0.047443766 0.097918965 0.01
0001c0 07 93 94 3d cb bb 02 3e 51 20 e8 3d 3b 60 0c 3e
       0.07254606 0.1276695 0.11334289 0.13708584
0001d0 26 c8 21 3d e2 c9 ab 3d 46 5d 49 bd 65 33 23 3d
       0.039497517 0.083881155 -0.049161218 0.039843936
0001e0 0a d7 23 3c 97 b9 9d 3d de 95 34 ba e6 8e b4 3d
       0.01 0.07701414 -0.0006888787 0.08816318
0001f0 0a d7 23 3c 36 63 00 3e 9a 34 09 3e b3 3b a1 3d
       0.01 0.12537846 0.13398972 0.07872715

model.2.weight f4 [128, 128]
000000 f1 58 a0 3e f1 ec 3c 3e e2 5f ac 3e e1 66 30 3e
       0.31317857 0.18449761 0.33666903 0.17226745
000010 45 f3 b2 bd ec c0 4c bc c8 ca 72 bd a8 76 15 3d
       -0.08737806 -0.012497168 -0.05927542 0.036490113
000020 5e 59 21 bd 92 18 d8 3c ae aa 80 be f9 f4 eb 3d
       -0.039391868 0.026378904 -0.25130218 0.11521334
000030 8f a9 4f 3d 6a 4d b9 3c 52 61 e8 3d 21 16 29 be
       0.050698813 0.022619922 0.113466874 -0.16512348
000040 69 91 2f 3e d2 74 bb 3d ce 61 82 3d 02 8c c0 be
       0.17145313 0.09153141 0.06366311 -0.37606817
000050 be 96 37 3e 1b a5 bf 3d b8 31 1b 3e 7c 58 87 3d
       0.17928597 0.09357663 0.15155685 0.06608674
000060 06 d7 06 bc 3d f1 15 3e bd 5d 69 be ef b9 f5 3d
       -0.0082299765 0.14642806 -0.22789665 0.11998355
000070 fe 2e 1a be 80 8a 26 3e ce b1 27 3b b9 fb 55 3e
       -0.15056989 0.16263771 0.0025588158 0.20896806
000080 dc ed 56 3e 8e 58 91 3e a2 d1 8e bd 8f df 89 bd
       0.20989174 0.28387874 -0.06973578 -0.067320935
000090 c9 3d d7 bd be c1 7d 3e 4d d5 11 3e 04 58 13 3e
       -0.105098315 0.24780938 0.14241524 0.14389044
0000a0 7e 35 42 3e 5e 10 88 bc 39 c5 38 3e 78 1d 41 3d
       0.18965718 -0.016609367 0.18043984 0.047147244
0000b0 d3 e9 cd 3c 98 8c 55 3b 3a 40 19 bd 57 c5 13 bd
       0.02513591 0.003258502 -0.037414767 -0.03607687
0000c0 cb 6b 53 3d 13 0b f9 3d 77 6e 1d 3e 51 ca 31 3e
       0.05161647 0.12160315 0.1537417 0.17362334
0000d0 a5 5d 40 3c ec 1b 11 be 8a 16 dd bd 07 4e 2b 3e
       0.011741077 -0.14170808 -0.107953146 0.16728984
0000e0 75 9d c2 bd ba bc 1b bd 61 34 6a bd 9c 77 f8 bc
       -0.09502689 -0.03802178 -0.05717886 -0.030330472
0000f0 25 f6 20 be c5 20 90 3c 72 f5 1d 3d 2c 30 fd 3d
       -0.15718897 0.01759375 0.038564153 0.12362704
000100 56 87 b8 3d 48 d5 8c be 02 62 a6 3e 8f ee 01 3e
       0.09010188 -0.2750647 0.3249665 0.12688659
000110 eb 4a 83 be 80 92 94 3d f6 b7 a0 3e 45 33 b6 3c
       -0.25643095 0.07254505 0.3139035 0.022241244
000120 b1 fa 80 3c f7 9a 65 3d b4 c2 81 be ea b5 32 3e
       0.015744539 0.05605599 -0.2534386 0.17452207
000130 7b 6e 8f 3e e6 80 aa 3e 4d 28 10 be ab 6f af bd
       0.28013977 0.33301467 -0.14077874 -0.08566221
000140 d1 21 72 be 89 15 15 be d2 f9 22 3c 0a 4f d1 3d
       -0.23645712 -0.14558996 0.009947257 0.10220154
000150 2b 44 11 3e 32 c0 35 3e 27 5b 5a 3e e9 24 98 3d
       0.1418616 0.17749098 0.21323834 0.07428915
000160 2e e5 c9 3e d5 f3 5a be 24 d0 bb bc 6d 25 fc 3c
       0.39432663 -0.21382077 -0.022926398 0.030779565
000170 84 a8 1e bd 3b 40 05 3e 3b f1 a6 bc 6d a1 55 bd
       -0.038734928 0.13012783 -0.0203787 -0.0521559
000180 0c 9c 0f 3e 9d bf 9e 3e b0 17 18 be 2a 3e 1f 3e
       0.14024371 0.31005564 -0.14852786 0.15551057
000190 d9 23 a8 3e ec 6e 21 3d aa fc b3 bc 00 65 92 3c
       0.3283985 0.039412424 -0.021971066 0.017870426
0001a0 4b 70 84 3d 19 b0 22 be d4 1c d7 3c 08 5c d9 3d
       0.06466731 -0.15887488 0.026258864 0.10613257
0001b0 ae b5 83 3c 32 f0 24 be 58 24 38 3d c4 7e 1e be
       0.016077843 -0.16107252 0.044956535 -0.15478045
0001c0 73 fc b3 bd 10 fe 8e 3d 59 a5 2f 3e 4d 36 78 3d
       -0.08788385 0.06982052 0.17152919 0.06059866
0001d0 77 91 01 3e 05 30 20 3e 9c 89 75 be 72 91 e6 bc
       0.12653147 0.15643318 -0.23978275 -0.028145526
0001e0 e9 09 1a 3e 25 fe 29 bd 79 57 b1 be 12 5d 9f 3b
       0.15042843 -0.041502137 -0.3463705 0.00486339
0001f0 90 9d 1c 3e 7e 4a 4c bd 29 58 e4 bd 65 3f 8c 3e
       0.1529448 -0.04987573 -0.11149628 0.27392116
000200 97 77 1d 3e 49 b0 ae bd f5 7b 75 3d cc 4d dd 3d
       0.15377651 -0.085297175 0.059932668 0.10805854
000210 c0 ca 23 be 00 63 2e 3c d3 e3 f3 3c 76 6a 3e bd
       -0.15995312 0.010643721 0.029771721 -0.046488248
000220 93 58 3b 3c c1 83 e0 3d 88 d9 b4 3d 32 ca 6f 3e
       0.011434692 0.1096263 0.08830553 0.23416975
000230 da 6c 83 3e 07 50 b4 bd bb d2 37 3e ac ee 08 bd
       0.25668985 -0.088043265 0.17951481 -0.03343074
000240 43 f7 c4 bd c8 a5 86 3d 4c d6 05 be e5 fc 26 be
       -0.09617474 0.06574589 -0.13070029 -0.16307409
000250 d7 9c fc 3d 1e eb 6e bd 88 2d 41 3e 45 21 bd bd
       0.12334602 -0.058329694 0.18865025 -0.09234861
000260 61 b4 b0 3d 22 22 80 3d 11 71 24 bd 90 c0 9e bd
       0.086281545 0.0625651 -0.04014689 -0.07751572
000270 2a f9 96 bb a6 6f 6b bd 0d 66 99 bd b0 67 23 3e
       -0.0046073394 -0.057479523 -0.07490168 0.15957522
000280 b9 09 ed 3d fa 69 a8 bd ad 93 e1 bd 21 74 e4 bd
       0.1157412 -0.082233384 -0.11014495 -0.11154962
000290 2c 09 40 3d ce fd cd bd ad 8e bc bc 3d 08 a5 bd
       0.046883747 -0.10058175 -0.023017252 -0.08058212
0002a0 7c 0d d2 3d 1e 7a 69 3e 36 29 00 bd ed ba 2a 3e
       0.10256478 0.2280049 -0.0312893 0.16672869
0002b0 c7 96 bf 3b 8c 14 24 3e af 4e 07 3c 09 49 48 be
       0.0058468315 0.16023463 0.008258506 -0.1955911
0002c0 14 e5 43 3d b0 1d 1b be 85 9c 9c 3e 0e ba b9 3e
       0.047825888 -0.15148044 0.30588165 0.3627476
0002d0 c0 62 31 be 25 5c 57 bd bf 55 0e 3c 8b b7 48 bc
       -0.17322826 -0.05257811 0.008687436 -0.012250791
0002e0 1c d6 96 3d 09 66 89 3d b6 1f 22 3e 2f b7 01 be
       0.07365057 0.06708915 0.1583241 -0.12667535
0002f0 f2 53 08 3e 0d ac 6a 3d 05 bd d0 3d 8b 36 37 3d
       0.13313273 0.057292987 0.101923026 0.04472975
000300 aa 0b ab 3b 5c a9 ed 3c a5 c3 d1 3d ea 47 8c bd
       0.0052198963 0.02901142 0.10242394 -0.06849654
000310 ef 29 63 3d 51 00 79 3e 86 d4 86 3e 57 c6 3d 3d
       0.055459913 0.24316527 0.26334018 0.04633173
000320 57 4e 02 3e 6a 31 7f 3d 96 c3 95 be 26 e1 9b 3e
       0.12725197 0.062302984 -0.29250783 0.30445212
000330 87 86 87 3d e5 09 47 3e ed 81 a0 be 41 0e 71 be
       0.06617456 0.19437368 -0.31349126 -0.23540594
000340 0b 9a 1f bd a9 48 89 bd d7 47 65 3d a2 18 d7 3d
       -0.038965266 -0.06703312 0.055976715 0.10502745
000350 bb 88 2f 3d 4c af b6 3c 2d ab 09 3d cf 61 13 3e
       0.042855006 0.022300385 0.03361051 0.1439278
000360 4a 2a 23 be 31 79 57 3e 2b 1f fe 3d 42 ba 68 3d
       -0.15934101 0.21042325 0.124082886 0.056818254
000370 d7 f3 cf 3b 32 fd c1 3c 17 de 01 be b6 7c b4 3d
       0.0063462066 0.023680303 -0.12682377 0.08812849
000380 5b 90 04 3c bb 7b 0c 3e c5 83 da bd 97 38 6a 3e
       0.008091058 0.13719074 -0.10669664 0.2287315
000390 3c 17 87 bd f1 bd 81 bd 54 00 51 bd 0b 2e 1b be
       -0.065962285 -0.063350566 -0.051025704 -0.15154283
0003a0 53 90 b0 3d c2 6a 7b bc 97 4c a1 bd 3c 8a 0a 3d
       0.08621278 -0.015345277 -0.078759365 0.033823237
0003b0 e9 00 b1 3d fa 84 ac 3d 18 1c 1f bd 07 41 48 be
       0.08642752 0.08423801 -0.03884515 -0.19556056
0003c0 c9 ac 1e be 10 49 0e bd 71 55 e3 3c 3b b0 49 bd
       -0.154956 -0.034737647 0.027750703 -0.049240332
0003d0 8d 9f ec bd d4 54 36 bd 34 ab 05 bd e5 b0 65 be
       -0.115538694 -0.044514492 -0.032633975 -0.22430761
0003e0 d3 3e cb 3d 88 48 16 bd 98 fb 0e 3a 79 06 1e 3d
       0.09924092 -0.036690265 0.00054543605 0.03858039
0003f0 83 be 0c bc 79 66 a0 3d 4f 0b 75 3d 13 81 8c 3e
       -0.008590343 0.07832045 0.059825238 0.27442226

model.2.bias f4 [128]
000000 f6 f7 df 3d 43 e4 b9 3d 2a c9 35 3c 0d 0c bb 3d
       0.10935967 0.090767406 0.0110953245 0.09133158
000010 fd 66 17 ba af 72 ec 3d 85 c6 0e 3d 0a d7 23 3c
       -0.00057755393 0.11545312 0.03485729 0.01
000020 39 0b ef 3d 0a d7 23 3c a5 0c b1 3d 35 74 e2 3d
       0.116720624 0.01 0.0864499 0.11057321
000030 0a d7 23 3c 0a d7 23 3c 4e b8 ca 3c 52 4f 81 bc
       0.01 0.01 0.024746086 -0.015784893
000040 15 e6 1d 3d dd f0 7e 3c 94 2e 07 3e 0a d7 23 3c
       0.0385495 0.015560356 0.13201362 0.01
000050 0a d7 23 3c bf 95 e7 3c 2d a7 8c ba 66 83 07 3e
       0.01 0.028269647 -0.0010730975 0.13233718
000060 0a d7 23 3c ed bd f3 3a d8 8e 85 3c 08 df cc 3c
       0.01 0.0018596031 0.016303465 0.025008693
000070 0a d7 23 3c a9 8c 93 3d 27 08 c1 3c 0a d7 23 3c
       0.01 0.07204563 0.023563458 0.01
000080 4a 5c e9 bb 0a d7 23 3c a3 e5 2f 3b fd 44 69 3b
       -0.0071215974 0.01 0.0026839755 0.0035594099
000090 d1 1d ca 3d 0a d7 23 3c 0a d7 23 3c 4f 90 c5 3d
       0.09868968 0.01 0.01 0.09646665
0000a0 5f 81 fd 3d 96 73 25 3c 1f b9 ac 3d 06 9a a2 3d
       0.12378191 0.010098359 0.084337465 0.07939534
0000b0 0a d7 23 3c 06 7e d7 3d 0a d7 23 3c 0a d7 23 3c
       0.01 0.10522084 0.01 0.01
0000c0 ba f7 55 3c 57 4e fe 3c 0a d7 23 3c 45 77 d7 3d
       0.013059551 0.031043215 0.01 0.10520796
0000d0 7e 3d d6 3c 0a d7 23 3c 53 80 f6 3d 67 38 3e 3c
       0.026152369 0.01 0.12036195 0.011610127
0000e0 0a d7 23 3c 90 73 f0 3d 0b c0 de 3d 70 ae d5 3d
       0.01 0.11740792 0.10876473 0.10433662
0000f0 f1 df 92 bb 66 0f 9d 3a e2 c0 1e 3c 21 00 95 3d
       -0.0044822623 0.0011982739 0.0096895415 0.07275415
000100 a3 14 2f 3c 0a d7 23 3c 0a d7 23 3c 38 79 bb 3d
       0.0106860725 0.01 0.01 0.0915398
000110 c3 fd bb 3c 5f 60 6e 3d 4d 7a a3 3b 08 4c 26 bb
       0.022948151 0.058197375 0.0049889446 -0.0025374908
000120 0a d7 23 3c 3d 90 c2 ba 7e 64 b4 3d d0 b7 1d 3b
       0.01 -0.0014844012 0.0880823 0.002406586
000130 8b 97 88 3c 0a d7 23 3c 0a d7 23 3c 98 43 8d 3d
       0.016673824 0.01 0.01 0.06897658
000140 0a d7 23 3c 76 b7 b6 3d 81 90 bd 3c 74 94 4e 3d
       0.01 0.08921711 0.023140194 0.050434545
000150 4d 48 f1 3d e4 32 03 3d 98 00 94 3d c1 8e 2d 3b
       0.117813684 0.032030955 0.07226676 0.0026482793
000160 0a d7 23 3c 86 e5 d4 3d 8c 5b c1 3d 5c c9 a0 3c
       0.01 0.103953406 0.09441289 0.019627266
000170 19 6e d9 b9 0a d7 23 3c d0 c4 17 3d 8c 55 5c 3b
       -0.00041471494 0.01 0.03705293 0.0033620326
000180 72 7c d9 3d 0a d7 23 3c 0a d7 23 3c e9 f3 c4 3d
       0.10619439 0.01 0.01 0.09616835
000190 1a 43 d7 3d 0a d7 23 3c 0a d7 23 3c ed 62 dd 3d
       0.105108455 0.01 0.01 0.10809884
0001a0 81 c4 0a 3e 0a d7 23 3c 82 01 db 3c 1b ed cb 3d
       0.13551523 0.01 0.026734117 0.09957334
0001b0 b6 85 e3 3d 01 78 60 3b d5 da cf 3d 71 c7 85 3d
       0.11109488 0.0034251215 0.10149161 0.06532181
0001c0 0b 6e cf 3d 8f 16 e8 3d 51 d8 fd 3d 0f 13 c2 3c
       0.10128411 0.11332428 0.12394775 0.023690728
0001d0 0a d7 23 3c 2c 4d f3 3d 77 68 92 3d 50 7a b5 3c
       0.01 0.11879954 0.07148831 0.02215305
0001e0 7d 94 b8 3b a2 9b cf 3c b3 52 e2 3d 56 a3 35 bb
       0.0056329356 0.025342766 0.1105093 -0.0027715764
0001f0 26 2e 06 3c 0a d7 23 3c df 19 cb 3d 0a d7 23 3c
       0.008189714 0.01 0.09917044 0.01

model.4.weight f4 [128, 128]
000000 58 74 57 3e ea 9a 8f 3e a0 cc 7a bb 7b 35 c5 3d
       0.21040475 0.28047878 -0.0038268939 0.09629341
000010 0b 4a 57 be 5c b5 09 be 95 7d ef bd d7 60 a3 bd
       -0.21024339 -0.1344809 -0.11693875 -0.07977455
000020 b3 8f da 3e 84 51 e2 3d 84 a4 cc bd 49 ac 3b be
       0.4268776 0.11050704 -0.09992316 -0.1832744
000030 8c d9 fe bd 98 ad 2b 3e 79 8e 17 be b6 6c 26 3d
       -0.124438375 0.1676544 -0.14800443 0.04063102
000040 15 16 2f 3d e5 04 09 be 6c 69 2e 3e 07 5c 93 bd
       0.04274567 -0.13380773 0.17032403 -0.07195287
000050 03 23 3d 3d 6f 17 a5 bc b5 96 90 3d 06 17 60 3e
       0.046175968 -0.020152776 0.07059995 0.21883783
000060 48 f5 0c bd a6 52 52 bd 31 22 06 be c9 e4 a4 3d
       -0.034413606 -0.05134835 -0.1309898 0.0805145
000070 08 78 63 bd 94 23 46 3d 29 e2 c3 bd 0d 02 ad 3d
       -0.055534393 0.048373774 -0.09564621 0.08447657
000080 ca 67 73 bc cf 3e a4 bc 46 dc 0e 3e 62 f1 95 3e
       -0.014856288 -0.02004948 0.13951215 0.29285723
000090 ae d2 7d 3d c0 fc e3 bc 38 a9 ba 3c a0 61 85 3d
       0.061968498 -0.027830482 0.022785768 0.06512761
0000a0 cf 38 6c bc b2 99 2e 3d 88 27 d9 ba 40 7c b9 bd
       -0.014417841 0.042627044 -0.0016567567 -0.09056902
0000b0 77 15 87 bc 5e 93 34 3d 03 e3 27 bd f1 55 08 3e
       -0.016489727 0.044085853 -0.04098798 0.13314034
0000c0 4b 62 a3 3e d0 bf 6c 3c 89 74 5d bd d3 c5 9a bc
       0.3191093 0.014450029 -0.054066215 -0.018893158
0000d0 08 7f e9 bd d1 39 21 3e 1c 9a 98 3e ce a0 50 3d
       -0.114011824 0.15744711 0.29805076 0.050934605
0000e0 11 70 1d bd 30 29 82 3d bb f6 aa 3e ee a8 98 3e
       -0.038436953 0.06355512 0.33391365 0.29816383
0000f0 84 c2 9a bd 21 b6 22 3d 8a 6e 87 bd c5 12 d7 3c
       -0.07556632 0.039724473 -0.066128805 0.026254067
000100 c9 7f ba bd 7b ed 21 be 01 e9 da bc 57 97 36 3e
       -0.09106404 -0.15813248 -0.026722433 0.17831169
000110 03 6a cb bd a4 85 35 3e 00 77 8b bd db 5e b5 bd
       -0.099323295 0.17726761 -0.06809807 -0.08855983
000120 29 4e 05 bb f1 d2 f1 bd 92 84 72 3c f0 ae 3c 3e
       -0.0020340777 -0.11807812 0.014802115 0.18426108
000130 52 b8 f2 3d 75 26 f5 3d f6 51 10 3d e6 c5 07 3e
       0.118515626 0.11970226 0.035234414 0.13259086
000140 a9 fd 59 bd d7 41 1d 3e c4 81 5b 3a 1a bd 8f 3e
       -0.053220425 0.15357147 0.00083735236 0.2807396
000150 53 2f a4 3d 89 ca 98 bd 7b 9a 3d 3d 67 f2 e3 3b
       0.08016839 -0.074605055 0.046289902 0.006956387
000160 a1 99 91 bb e0 7b 24 3e 47 c5 30 3e c3 c1 51 3e
       -0.004443363 0.1606288 0.17262755 0.2048407
000170 70 ff e2 3d f6 3f c1 3d f4 f9 8d 3d 80 3c cc 3c
       0.11083877 0.09436028 0.069324404 0.024931192
000180 8b 3d 02 3e 01 61 d4 bd 4f a0 fe bd 86 74 88 3c
       0.1271879 -0.103700645 -0.1243292 0.016657125
000190 64 1f 75 3e e3 99 0a be ae e5 7a 3d 99 5a fd 3d
       0.23937756 -0.13535266 0.061254196 0.12370796
0001a0 e0 16 94 3e de 79 aa 3d cd b3 84 be 16 28 82 3c
       0.28923702 0.083240256 -0.25918427 0.015888255
0001b0 e7 c0 48 3d a7 9a 7b 3e 79 fb 3d 3e 8f 2b 1e 3e
       0.04901209 0.24570714 0.1855296 0.15446304
0001c0 18 1c dc 3d 61 d7 20 3d 70 07 8a bd 0e 23 f1 3a
       0.10747546 0.0392679 -0.067397 0.0018397288
0001d0 6d 22 9f bd 97 b5 ae 3d e5 e9 50 3e 1c 1d 63 3c
       -0.07770238 0.08530729 0.20401724 0.013861921
0001e0 54 38 18 3e 0f 60 b3 bd 85 3b 5e 3d 11 98 4d 3d
       0.14865237 -0.08758556 0.05425598 0.05019385
0001f0 11 fc 18 be 6a 2f 5d 3e 72 53 8e 3e ce 18 42 3d
       -0.14939906 0.21600118 0.2779804 0.047386937
000200 46 64 00 be ee b1 d8 bd 5f d7 7c bc ca 79 97 3a
       -0.12538251 -0.105808124 -0.015432208 0.0011556682
000210 98 64 90 bc 56 6c e6 3c 10 1c 1d 3e f1 74 66 be
       -0.017626092 0.02812783 0.15342736 -0.22505547
000220 55 84 bd bd c0 de 16 3d 63 8a 4f be 05 90 8f 3c
       -0.09253756 0.036833525 -0.20267634 0.017524729
000230 2c b2 8a bc 06 74 0e be 52 af 41 bd 29 e3 51 be
       -0.016930662 -0.13911447 -0.04728634 -0.20496811
000240 b0 51 dd 3d d9 6a 92 3d 8c 24 f0 3c c7 a5 8c 3c
       0.10806596 0.07149286 0.029314302 0.017168893
000250 8f 52 e4 3a 2a c7 9f 3e 7a bd a3 3b 32 d1 87 bd
       0.0017419624 0.31206638 0.0049969526 -0.06631698
000260 3e a7 cc bc 9e 88 82 bd 8a 2d 43 be f2 31 62 3e
       -0.024982091 -0.06373714 -0.1906034 0.22089365
000270 cc b4 67 3b 78 3c 0e be 83 d3 3f 3d 2f 5e 01 3e
       0.0035355566 -0.13890254 0.046832573 0.12633584
000280 dc 00 0c bd eb af aa 3d 49 0c 3a 39 7e 21 5d bc
       -0.034180507 0.08334335 0.00017742919 -0.013496755
000290 5d 49 c2 3d 3a a1 3a 3c 3a 26 13 3d af e0 46 bd
       0.09486649 0.0113909785 0.035925128 -0.04855412
0002a0 3c 11 57 3e 5b 1c 4b be 09 13 1e bd d9 34 86 be
       0.21002668 -0.19835036 -0.038592372 -0.26212195
0002b0 be 55 65 be 88 8c 0a bd 36 2c c7 bd be b9 13 3e
       -0.2239599 -0.033825427 -0.097252294 0.14426324
0002c0 8d 25 f9 3d fc 9d c0 3d 1c ff 98 3d 26 99 94 3d
       0.12165365 0.09405133 0.07470533 0.07255773
0002d0 96 dd 4c 3d 96 16 3b 3d d4 9f 08 3d d4 2d 35 3e
       0.05001601 0.045675837 0.03335555 0.17693263
0002e0 e4 c7 eb 3c 2f 88 0b be 46 2f ca bd b6 9d c0 3d
       0.028781839 -0.13626169 -0.09872298 0.09405081
0002f0 af d1 9b bd 6d e8 7d 3d f6 0b 3d be 5c f7 3f be
       -0.07608353 0.061989237 -0.18461594 -0.18746704
000300 55 2c b1 3d 52 8b aa bd 9e 98 06 bb 7e b9 51 3e
       0.08651034 -0.083273545 -0.0020537744 0.20480916
000310 33 4c bc 3e 19 6b fd 3d b4 51 85 ba 9c 65 09 3e
       0.36776885 0.12373943 -0.0010171444 0.13417667
000320 19 20 93 bb bd 7e 14 bc 31 b5 f9 bc d4 98 f4 bd
       -0.0044899103 -0.00906342 -0.030481907 -0.11943212
000330 9f 2a 9a 3d 15 af 5a 3e 12 63 bf bd e4 9b a6 3d
       0.075276606 0.21355851 -0.09345068 0.081352025
000340 5e 3a b1 bd ec 99 7f bc bc cf 97 3e f6 35 6b 3e
       -0.08653711 -0.015600663 0.29650676 0.22969803
000350 f7 8b 56 3e ba 0e 97 bd 11 74 51 be 1e 02 2b 3e
       0.2095183 -0.07375856 -0.20454432 0.16700026
000360 39 96 75 3d 55 3b 1f be 3f 53 70 bd 32 9d 55 3e
       0.059957717 -0.15549977 -0.05867314 0.20860747
000370 f3 eb f7 bd b7 78 62 bc 93 2d 38 3e cc b3 e8 bd
       -0.121055506 -0.013822726 0.17986135 -0.113624185
000380 c1 1f 4a be df 65 1d 3e 12 6c ff 3d 72 55 e2 bd
       -0.19738676 0.15370892 0.12471785 -0.11051454
000390 05 7d 2f 3e a3 e4 99 3d d0 fb d3 3d bf aa 91 bc
       0.17137535 0.07514312 0.10350764 -0.017781613
0003a0 9d 9f b6 bd ce 02 4d be 65 76 1e 3e 22 a6 54 3e
       -0.089171626 -0.20020601 0.15474851 0.207665
0003b0 55 05 e3 3c 87 a8 10 be 2c ec 4f 3e 8f c7 97 bc
       0.027712503 -0.14126788 0.20304936 -0.018527774
0003c0 25 45 f0 3d e3 0f 1c 3e 20 b8 da bc 86 80 af 3e
       0.11731938 0.15240435 -0.026699126 0.34277743
0003d0 1c e2 27 3c 77 5b 6b bb 95 da 32 be da ba 56 3e
       0.01024678 -0.0035912672 -0.17466195 0.20969716
0003e0 40 b0 14 be cc b9 05 3e 36 fc 13 3d 50 78 f7 3c
       -0.14520359 0.13059157 0.0361292 0.030208737
0003f0 08 c2 af bd 3e 14 39 bc ba 54 9d 3c 03 4d 36 be
       -0.085819304 -0.01129633 0.01920544 -0.17802815

model.4.bias f4 [128]
000000 49 fd de 3d 80 91 e0 3c 9d c4 1b 3d 45 87 a2 3d
       0.10888154 0.02741313 0.038029302 0.07935957
000010 20 10 3b 3d 0a d7 23 3c b4 7b bb 3d d2 c9 b9 3d
       0.045669675 0.01 0.09154454 0.09071697
000020 0a d7 23 3c 33 36 b8 bb 0a d7 23 3c 97 e8 94 3c
       0.01 -0.0056216954 0.01 0.018177314
000030 6a 58 cb 3d fa aa b7 3d 87 df 1f 3d c3 8c ff 3c
       0.09928973 0.08968158 0.03903153 0.03119505
000040 25 6f ed 3d bc b6 ed 3b 5f 0c b4 3d 0a d7 23 3c
       0.11593465 0.0072544497 0.08791422 0.01
000050 0a d7 23 3c 57 b8 fa 3d 79 5e 2f 3d bf a9 41 3d
       0.01 0.12242191 0.042814706 0.047281023
000060 35 a1 89 bc 6c e1 bb 3d ae 83 41 3d c6 af e2 3d
       -0.016800502 0.09173855 0.04724472 0.110686824
000070 67 79 0e 3d 0a d7 23 3c 0a d7 23 3c f6 bb 95 bb
       0.034783747 0.01 0.01 -0.004569526
000080 0a d7 23 3c 02 ac 0b bb 44 f5 9a 3d 94 80 c7 3d
       0.01 -0.0021312241 0.07566312 0.09741321
000090 66 35 04 3d 8a fb de 3d ac f9 8b 3c 86 75 00 3e
       0.032277487 0.10887821 0.017086826 0.12544832
0000a0 6c e8 a6 3d 0a d7 23 3c 33 3d ca 3d 1d cc c5 3d
       0.081498 0.01 0.09874954 0.09658072
0000b0 df 85 69 bc b1 83 ea 3d 76 72 88 ba 78 1c f0 3c
       -0.014253109 0.114508994 -0.0010410089 0.02931045
0000c0 ba f8 db 3d 66 f6 98 3d 5a 8b 4d 3d 52 9c 34 bb
       0.107408 0.07468872 0.050181724 -0.0027558994
0000d0 f3 0a d1 3d a4 0e c1 3d 95 bc fe 3d 4f 53 53 3d
       0.102071665 0.094266206 0.12438313 0.05159312
0000e0 0a d7 23 3c 0c a2 90 3b b0 bf 8e 3d e0 07 53 3d
       0.01 0.0044138487 0.06970155 0.051521182
0000f0 3d bc a6 3c ab 96 ee 3d c3 bb c2 3d 1e eb 0e 3d
       0.02035343 0.116498314 0.09508469 0.034892194
000100 0a d7 23 3c 5e c3 e9 3c 09 f3 94 bb 81 b8 10 bc
       0.01 0.028535541 -0.0045455736 -0.008833052
000110 a2 16 e9 3d f5 35 b6 3c cf de f9 3d 7a e3 4f bb
       0.1138127 0.022242526 0.122007005 -0.003172128
000120 98 67 d4 3d d4 80 ae 3d 68 87 cb 3d 0a d7 23 3c
       0.103713214 0.08520666 0.09937936 0.01
000130 36 c5 9e 3d 5b 1f ad 3d 82 ac d5 3b 0a d7 23 3c
       0.07752459 0.08453246 0.0065208087 0.01
000140 77 13 cf 3d 8f 2b fd 3b 0a d7 23 3c 70 bd ad 3c
       0.101111345 0.00772614 0.01 0.021208495
000150 dd 32 60 3b b8 a3 d0 3d 0a d7 23 3c 33 9b 09 3c
       0.0034210004 0.10187477 0.01 0.008398819
000160 4a bd 72 3d 63 25 65 3c c6 c2 90 3c bf b1 f8 3d
       0.05926255 0.0139859645 0.017671 0.121432774
000170 09 0c bc bb 7a 63 4e ba 46 97 3a 3b eb cd d8 3d
       -0.0057387394 -0.00078730995 0.0028471514 0.10586151
000180 db 53 ba 3d 3d 43 d7 3d d8 e4 c9 3d de 22 b7 3d
       0.090980254 0.105108716 0.098581016 0.08942197
000190 c4 26 c8 3d 87 a9 7e 3b 66 50 b5 3d 9c bc bc bb
       0.09773019 0.003885837 0.088532254 -0.0057597887
0001a0 79 6d 02 3e 30 05 4c 3d 0a d7 23 3c b8 6b cb 3d
       0.12737073 0.049809635 0.01 0.09932655
0001b0 0a d7 23 3c 0a d7 23 3c ed d7 4e 3c be bc 93 3c
       0.01 0.01 0.012624723 0.018034335
0001c0 0a d7 23 3c 8d 2c 78 3c 15 0a d1 3d 0a d7 23 3c
       0.01 0.0151473405 0.10207001 0.01
0001d0 dc 7f 46 3d 86 60 ee 3d 49 14 81 3c 0a d7 23 3c
       0.04846178 0.11639504 0.015756743 0.01
0001e0 1e 77 9e 3d 4e fe ce 3d 42 fa dd 3c 0a d7 23 3c
       0.077375636 0.101070985 0.027096871 0.01
0001f0 bb 5e ff 3d e6 39 6a 3d 0c 9d b7 3d 30 36 d6 3c
       0.1246924 0.057184123 0.08965501 0.026148885

model.6.weight f4 [128, 128]
000000 26 85 fa bd 61 c7 69 3d a9 e3 1c 3d b2 f9 0c 3e
       -0.12232427 0.05707491 0.03830305 0.13767126
000010 cc f1 22 bd 80 92 b4 3d f6 ad 10 be a4 bc ac bd
       -0.039781377 0.08817005 -0.14128861 -0.08434418
000020 12 eb d9 3c 9c 76 09 be 29 ca 1a be d9 a1 e4 bb
       0.026601348 -0.13424152 -0.1511618 -0.0069773016
000030 21 0e 70 be 7c be 81 bd 2f b5 b3 bd b1 26 b2 3d
       -0.2344289 -0.0633516 -0.087747924 0.08698786
000040 a3 85 3d 3d 54 72 49 3e 87 d5 d3 3c 05 1c 51 3d
       0.046270024 0.19672519 0.025858654 0.051052112
000050 10 1f 6e bd b9 89 8d be 0a f1 ef bc 0e 73 fa bd
       -0.058135092 -0.27644137 -0.029289741 -0.12228976
000060 a1 a5 3c 3d db fb 38 bd df 4b 9f bd 75 ca bc 3d
       0.046056394 -0.045162063 -0.07778143 0.09218303
000070 fa ce 82 ba f7 7e 00 3e 71 71 84 be 56 87 22 3d
       -0.0009979897 0.12548433 -0.258678 0.039679848
000080 3b 64 c0 bd c5 ba 9e bc 5e d3 bb bb 50 5b 2f 3b
       -0.093941174 -0.019376168 -0.005731984 0.0026757307
000090 a2 c0 61 3d a9 93 ae 3c 84 e4 13 3d cc 67 32 bd
       0.05511535 0.021310644 0.0361066 -0.04355602
0000a0 a7 e7 ba 3d 88 5c 37 bd 75 99 30 bd e7 e0 26 3d
       0.091262154 -0.04476598 -0.043115098 0.040741827
0000b0 bc bf b4 bc 29 ba c5 bd b3 a4 96 bd eb 96 d3 bd
       -0.022064082 -0.09654648 -0.07355633 -0.1033152
0000c0 8b 90 84 3e 83 59 61 3e a9 d6 31 be 69 c6 83 3b
       0.25891528 0.22006802 -0.17367043 0.004021455
0000d0 44 34 12 bd 23 2a 53 3c 34 ae 6f bd c9 75 40 be
       -0.035694376 0.012888464 -0.058515742 -0.18794931
0000e0 21 ed 1b be ed 52 f9 3c aa 1d 1c be 30 d7 c1 3d
       -0.15227176 0.03043505 -0.15245691 0.09464872
0000f0 5c 8f a8 3c c2 6b 46 bd 09 c6 18 be 4b fc 5d be
       0.020576172 -0.04844261 -0.14919294 -0.21678273
000100 e7 92 12 be 16 cd f7 3c 6b 6b a7 3d 51 d8 06 bc
       -0.14313851 0.03024916 0.08174785 -0.008230285
000110 d7 ee 75 3d 91 f0 8f bd 6f c0 00 be 19 89 95 bb
       0.06004223 -0.07028306 -0.12573408 -0.0045634625
000120 47 f1 62 3c aa 78 19 3e a3 c4 43 be 52 a8 84 3c
       0.01385147 0.14987436 -0.1911798 0.016193543
000130 d4 6c 97 3d 2a 44 37 3e 7f 77 e9 bd b5 83 4a be
       0.07393804 0.17897096 -0.11399745 -0.19776805
000140 9f 4c ec 3d cb bd 5e 3e 80 49 b6 bd 42 d8 8a 3d
       0.11538052 0.21752088 -0.08900738 0.06779529
000150 b3 85 3f 3e 1f 6d 73 bd 5a c9 20 bd d5 29 22 bd
       0.18703346 -0.059430238 -0.039254524 -0.039590675
000160 ee 82 18 3e ea ea 07 3e fa 0c 4e 3d 09 4a c8 3b
       0.14893696 0.13273206 0.050305344 0.0061123413
000170 b3 6f 47 3d 88 ab 36 3e 89 b5 7d bb aa 60 d6 3d
       0.04869051 0.17838871 -0.003871294 0.10467656
000180 c4 9e 36 bd 1b 0c c4 bd 0a 70 bc 3d 69 b0 89 3d
       -0.044585004 -0.095726214 0.09201057 0.06723101
000190 8c 41 40 be 3c 08 fc 3d 49 2e 24 3d 2d f8 78 3c
       -0.18775004 0.12306258 0.040083203 0.0151958885
0001a0 db 1d 5b 3d e2 ea 48 3c 74 c1 4a 3d c8 ec a9 bd
       0.05349527 0.012263032 0.049500898 -0.082971156
0001b0 85 44 54 3c 88 7b fa 3c 5e f9 c8 3d 3d 1f 97 bc
       0.012955789 0.030576482 0.09813188 -0.018447513
0001c0 be aa ed 3d 5a c3 ae 3d a7 4a 0c 3c 1b 3c 38 be
       0.11604832 0.08533354 0.00856272 -0.17991678
0001d0 84 5a a2 3d 3c f5 31 be c2 46 03 bb 66 4d 65 be
       0.07927421 -0.17378706 -0.0020031189 -0.22392806
0001e0 93 b3 29 bd 12 d7 41 be 72 7f 96 3d 83 60 e8 3d
       -0.04143102 -0.18929699 0.07348527 0.11346533
0001f0 e7 e0 77 3c f2 9e 14 be 19 52 8d bc 29 4c 33 3e
       0.0151293045 -0.14513758 -0.017251061 0.17509522
000200 64 c3 00 be 08 09 61 3d ec 91 e2 3d 7b 33 41 be
       -0.12574536 0.054940253 0.11062989 -0.18867294
000210 a3 9b de 3d cb 17 b6 3c 8e b2 0d bc 79 b2 f6 3c
       0.10869529 0.022228142 -0.008648528 0.0301144
000220 ca 32 86 3d e3 0a f4 3d d9 8a cb be e4 fb 58 3e
       0.06552656 0.11916139 -0.3975437 0.21189839
000230 ef 42 a5 3c dc dc ab bc c5 5d 49 3d 4b 02 2a 3d
       0.020173518 -0.020979337 0.04916169 0.041506093
000240 6c fd 21 3d 3c d3 27 3d 06 50 da 3c de 3f d9 3d
       0.039548323 0.040972933 0.026649486 0.10607885
000250 0c fc 6d bd af 96 73 3c ff ec c0 3d 4b 5f 04 3e
       -0.0581017 0.014867469 0.094202034 0.12926976
000260 e5 06 b1 3d b2 2e 25 be 85 72 14 3d 74 37 14 be
       0.08643893 -0.16131094 0.036242027 -0.14474279
000270 d5 88 68 3e ae f8 4e 3d 96 bd e7 bd 71 b9 a8 bd
       0.22708447 0.05053013 -0.113154575 -0.08238495
000280 b2 34 f9 bc 09 b3 91 3e 95 1e 8e be d7 11 0d be
       -0.030420635 0.28456905 -0.27757707 -0.13776337
000290 94 ac 0c 3c 76 fc 7d be cf 9e 25 bd 72 d4 0a 3e
       0.008586068 -0.24803337 -0.040434655 0.13557604
0002a0 00 49 48 be 62 e3 8d bd 62 a0 27 3d 5a ac 3c be
       -0.19559097 -0.069281355 0.040924437 -0.18425122
0002b0 8a 56 28 3d 21 ed 8b 3e 48 e2 3a 3d 9b f2 da 3d
       0.041098155 0.27329352 0.045625955 0.106908046
0002c0 04 57 e7 3c 06 14 3d 3d c3 a7 a1 3d ca 13 37 be
       0.028239734 0.046161674 0.07893326 -0.17878643
0002d0 44 53 62 3d 20 ac 66 3e ea f2 6f 3d 27 6a ac bd
       0.05525519 0.22526598 0.05858127 -0.084186845
0002e0 4e a2 53 bd e8 da 6d 3e 09 d9 ad bd 73 cf 78 3d
       -0.051668458 0.23228037 -0.08488662 0.060744714
0002f0 42 08 ea 3e c1 5c 12 be 1e 41 dd bd 91 8d 56 3e
       0.45709425 -0.14293195 -0.10803436 0.20952441
000300 49 c4 02 3e fc e6 3c 3e f2 9c 90 3d 02 f4 2c 3e
       0.1277019 0.18447489 0.07061185 0.16889957
000310 91 56 0a 3e b9 66 e3 3d a0 06 81 3d a1 ba 13 3d
       0.13509585 0.11103577 0.06300092 0.036066655
000320 69 31 16 3e a1 4f 45 3e eb 85 40 be 3a da 9a be
       0.14667286 0.19268657 -0.18801086 -0.3024462
000330 7e 53 82 be b7 1e cf 3d fd f3 03 bd aa cc 95 bd
       -0.25454324 0.1011328 -0.032215107 -0.07314427
000340 cb 71 26 be 6a 4d 34 3d d4 a9 ec 3a 62 13 63 3e
       -0.16254346 0.04401914 0.0018055984 0.22175363
000350 6a d1 1e 3d 50 90 85 be ab 51 bc bd 50 85 2e bd
       0.03877393 -0.26086664 -0.091952644 -0.042607605
000360 03 a9 ae bd 64 33 b0 3d c6 75 37 3c 82 56 51 3e
       -0.0852833 0.08603552 0.011197513 0.20443156
000370 c6 f0 6e bd a4 60 99 3d e2 98 2a 3e 57 7a fb bc
       -0.05833509 0.07489136 0.16659883 -0.030697985
000380 23 7a f1 bc 09 66 aa 3b 09 54 31 3c 76 64 87 3c
       -0.029477185 0.005200152 0.010823258 0.016527396
000390 e1 b2 11 be f9 7d 4a 3e 70 8a d9 b8 75 f6 45 3d
       -0.14228393 0.19774617 -0.00010373152 0.048330743
0003a0 fc 57 fe 3d 15 55 72 be 78 79 b1 be 58 e2 8b 3d
       0.124191254 -0.23665269 -0.34662986 0.06830281
0003b0 c0 6a 29 bc 7b d9 47 3d 75 74 95 bd 60 33 ba 3d
       -0.010340393 0.04879139 -0.07297603 0.0909183
0003c0 6a b3 8a 3e 94 7d 45 3c 2e cd c4 bd 73 50 0f be
       0.27090007 0.012053866 -0.096094474 -0.13995533
0003d0 fc e6 76 3d 57 90 dc 3d 94 db 8c bd 3c 04 09 be
       0.060278878 0.10769718 -0.06877819 -0.13380522
0003e0 cd 75 c8 3d cf 84 8c 3d 06 86 0a 3e a2 6b 07 3d
       0.09788094 0.06861269 0.13527688 0.03306163
0003f0 b0 97 12 3e 1d 0d b7 3d 3b af 58 bd f7 1a e9 bd
       0.14315677 0.08938048 -0.052901488 -0.11382096

model.6.bias f4 [128]
000000 be 48 8f 3a 5a 71 e3 3c 0a d7 23 3c 0a d7 23 3c
       0.0010931713 0.027764011 0.01 0.01
000010 20 bf e3 3d f2 dc 79 bc 87 39 00 3d 19 ac 32 3d
       0.111204386 -0.015250431 0.031304862 0.043621156
000020 89 83 2e bc 50 61 9b bb 43 5e 89 3d 0a d7 23 3c
       -0.010651478 -0.004741825 0.06707432 0.01
000030 00 58 d0 3d d7 70 9e 3c 81 01 19 3b 0a d7 23 3c
       0.10173035 0.019340916 0.0023346844 0.01
000040 0a d7 23 3c 55 96 8d bb bd 2a f0 3c cc 68 05 bc
       0.01 -0.0043208995 0.029317254 -0.008142661
000050 4e f4 bb 3d 9d 44 5c 3b 5e b2 23 3c cd ec af 3d
       0.09177457 0.0033610233 0.0099912565 0.08590088
000060 71 69 87 3c 0a d7 23 3c eb 90 cc 3d ad 58 dd 3d
       0.01652977 0.01 0.099885784 0.10807929
000070 40 2e 0b bb 9b da 74 3b ec bb 98 3b 10 52 e5 b9
       -0.0021237284 0.0037361744 0.004661074 -0.00043739425
000080 39 13 cd 3d d3 bd c7 3d 1f f6 dc 3d 93 4a ce 3d
       0.10013432 0.09753003 0.107891314 0.10072818
000090 04 e8 ae 3d f1 4f 43 3d e8 bd c1 3d 4d 8e 9b 3d
       0.08540347 0.04768366 0.0946005 0.07595501
0000a0 37 bf d8 3d be 63 c6 3d d8 23 55 3d 88 10 fd ba
       0.10583346 0.09686993 0.052036136 -0.0019307295
0000b0 25 de 38 3d 70 70 03 3c 8b be 0a 3b e6 02 38 3c
       0.04513373 0.008022413 0.0021170701 0.01123116
0000c0 81 fc d0 3d 95 0f de 39 b7 38 18 3c 54 74 b9 3c
       0.10204411 0.0004235475 0.009290866 0.022638477
0000d0 cd 2c 0f 3d dd ee 3b 3d cd bc a6 3c 8e ae e1 3d
       0.034954835 0.045882095 0.0203537 0.11019622
0000e0 0b c5 ea 3d d3 1c b6 3d c2 1a c2 bc d5 3e be 3d
       0.11463364 0.088922165 -0.0236944 0.09289328
0000f0 6b 91 cc 3d db 63 85 3c 0a d7 23 3c 88 04 d3 3d
       0.09988674 0.016282966 0.01 0.10303599
000100 fc 9b c1 3d 0a d7 23 3c 2b 24 4e 3d 7f 79 e2 3d
       0.0945358 0.01 0.05032746 0.1105833
000110 0a d7 23 3c 73 5b e9 3d b2 42 45 3c 52 64 bb 3c
       0.01 0.11394396 0.012039827 0.022874985
000120 0a d7 23 3c 88 75 d6 3d 08 88 e5 3d 96 f4 91 3c
       0.01 0.10471636 0.112075865 0.017816823
000130 f4 91 c7 3d 9b 4a 14 3a ae 04 e4 3c 88 eb f4 3b
       0.09744635 0.0005656869 0.027834263 0.0074743666
000140 bd 63 ad bb 2e 46 a6 3a 92 3f cc 3d 0a d7 23 3c
       -0.0052914307 0.001268571 0.099730626 0.01
000150 c5 b4 c4 3c d2 2e 78 3d 15 bf 0b 3a 00 ae fc 3c
       0.024011979 0.060591526 0.00053309026 0.030844688
000160 24 d3 bd 3c ce 46 02 3d b5 9d c1 3d 65 17 ec 3d
       0.023171969 0.031805806 0.09453908 0.115279
000170 0a d7 23 3c 97 04 d0 3d b7 ca 59 bb 0a d7 23 3c
       0.01 0.101571254 -0.00332324 0.01
000180 d5 20 d2 3d 4d 9c 1b 3d d0 33 c5 3c b7 7d ca 3d
       0.102601685 0.037990857 0.024072558 0.098872595
000190 68 25 10 3d 32 57 ce 3c ce 62 2a bb f3 67 aa 3c
       0.035191923 0.025188062 -0.0025998834 0.02080152
0001a0 0a d7 23 3c e9 26 d8 3d 84 77 07 3d 8a bc c7 3d
       0.01 0.105542965 0.033072963 0.09752758
0001b0 3f e7 7a 3c 0a d7 23 3c b2 87 c7 3d 97 f9 cc 3d
       0.015313922 0.01 0.09742679 0.10008543
0001c0 59 d2 37 3b 5d 96 c4 3d ca e1 e1 3d 0a d7 23 3c
       0.002804896 0.09598992 0.11029394 0.01
0001d0 0a d7 23 3c 71 40 85 bb e9 c3 1a 3c 75 71 03 3b
       0.01 -0.00406652 0.009446123 0.002005664
0001e0 39 4a cb 3d 0a d7 23 3c ac 33 ba 3d fa 37 35 3d
       0.09926266 0.01 0.09091887 0.044242837
0001f0 32 96 ab 3c 26 aa c2 3d 28 e4 2d 3a 65 8a cb 3d
       0.020945642 0.095051095 0.0006633424 0.09938506

model.8.weight f4 [3, 128]
000000 28 f6 70 3c 87 f8 34 3e 1f 75 3d 3e da 48 e3 bd
       0.014707126 0.1767293 0.1850171 -0.1109788
000010 6a e4 34 be 23 21 07 3d 6b 15 cb 3d 85 15 44 3d
       -0.17665258 0.032990586 0.099161945 0.047872085
000020 1d 98 88 bd 27 63 a3 3d a5 f1 26 be d5 95 d7 bd
       -0.06669638 0.07977896 -0.16303118 -0.10526625
000030 65 ea bc bd 5f 4e 2f 3e f4 47 03 3e 63 55 86 3b
       -0.09224395 0.1711974 0.12820417 0.0040995344
000040 2e df 30 3e 03 fb bc 3c 7f f1 90 3e c6 b0 a6 bb
       0.17272636 0.02306891 0.28309247 -0.005086991
000050 01 4d f0 bd 9c 83 a4 3e 4b 99 3c 3e e3 ff b1 bd
       -0.11733437 0.3213166 0.18417852 -0.08691385
000060 f7 74 11 3e c1 7c f5 bd a6 2c 87 be 07 c8 af bd
       0.14204775 -0.119866855 -0.26401252 -0.08583074
000070 c7 bd 94 3d 32 03 89 3e a2 f0 52 3e 58 be df 3d
       0.0726276 0.2676025 0.20599607 0.10924977
000080 18 64 71 be 06 21 9c be 85 b2 c9 bd af b0 85 be
       -0.23573339 -0.30493945 -0.09848503 -0.2611136
000090 15 52 f6 bd c5 50 28 3e 8c a2 cc bd 8b 98 82 be
       -0.12027375 0.16437061 -0.09991941 -0.25507006
0000a0 26 b6 6e be 98 49 33 be e9 a7 1d 3e 5c c7 4c 3d
       -0.23311672 -0.17508543 0.15396084 0.04999481
0000b0 e6 de 2a 3e 06 70 a8 3e 4d e8 1a 3e 4d 8d 15 bd
       0.16686592 0.32897967 0.15127678 -0.036511708
0000c0 d3 c7 93 3b 2d 03 e5 3d 99 5a 79 3e 5e c9 26 3e
       0.004509905 0.11182246 0.24350967 0.16287753
0000d0 f1 ff 17 3d 37 27 83 3e 28 32 0c 3e bf 43 0f be
       0.03710932 0.25615856 0.13691008 -0.13990687
0000e0 7a a5 de bd e3 bd c5 be 88 99 94 3d 20 07 33 be
       -0.10871406 -0.38621435 0.07255846 -0.17483187
0000f0 65 20 91 be 63 c0 7a bd db 9f 44 3e 05 7a 0b be
       -0.28345028 -0.06121863 0.19201605 -0.13620766
000100 e1 d8 90 be a9 2f 98 bd 4d 62 57 3e 72 34 f6 bc
       -0.28290465 -0.074309655 0.21033593 -0.030054305
000110 84 3f 48 bc 13 dd 40 be 9e 0d 08 3e d5 e1 cc 3d
       -0.012222175 -0.18834333 0.13286445 0.100040115
000120 94 fd 6d be 8d 45 b7 bd 10 74 6b be 93 6f 01 3e
       -0.23241264 -0.08948813 -0.22993493 0.12640218
000130 6b 31 a0 be fa 13 ba 3e 2c 63 39 3e 77 6a 27 bd
       -0.31287703 0.36343366 0.18104237 -0.040873017
000140 6e e8 7c 3e dd 4c 88 3e 96 86 48 be 30 e7 3a bd
       0.2469804 0.26621142 -0.1958259 -0.045630634
000150 eb 23 31 3e be 2e cc 3d 0a 17 0a be 9e c4 22 3e
       0.17298858 0.09969853 -0.13485351 0.15895316
000160 5c 12 21 3d 28 6d da 3d 5c 98 ce bd 38 d8 cf bd
       0.03932415 0.10665351 -0.10087654 -0.10148662
000170 2e df 30 bd 31 80 7e be 7f 2a 3e 3e 57 bc fa bc
       -0.04318159 -0.24853589 0.18570898 -0.030607386
000180 51 51 79 be 9e fe d5 3d 5f 24 e1 3e 25 eb 82 be
       -0.24347426 0.10448955 0.4397306 -0.25570026
000190 d5 81 20 3d 83 19 92 3e 7f b2 91 3e 56 e3 9c 3d
       0.039186317 0.2853509 0.28456494 0.076605484
0001a0 f3 c3 23 3e f1 e9 78 be 8f 87 5b 3e 15 c6 05 bf
       0.15992717 -0.24307992 0.2143843 -0.52255374
0001b0 7c 56 57 3e fa 9a 08 bd 4d 7e 85 be a7 eb 41 be
       0.21029085 -0.033350922 -0.26072922 -0.1893755
0001c0 3a 66 3d 3e 2b 4c 46 be dd 36 62 be 27 f8 48 bd
       0.18496028 -0.19364993 -0.22091241 -0.04906478
0001d0 0a 5d 76 be 84 65 32 be b7 92 fe bc 81 82 a0 be
       -0.24058929 -0.17421538 -0.031075818 -0.31349567
0001e0 98 f5 a6 be 16 21 d3 bd 56 6f ff bd 12 5e 0f 3e
       -0.32609248 -0.10309045 -0.124724075 0.14000729
0001f0 f6 a4 62 3e fd c5 8e be 90 28 65 be 8d 09 39 be
       0.2213324 -0.27885428 -0.22378755 -0.1807005
000200 14 7e f9 3d 82 38 2d be c4 b3 00 3c c0 a9 41 3e
       0.121822506 -0.16916087 0.007855359 0.1891241
000210 b7 dd 86 3d 86 d9 80 bd cc 04 59 be d3 a9 ab bd
       0.065852575 -0.06291489 -0.21193236 -0.08382001
000220 58 e1 39 be ab ed 1d bb 20 d6 96 3d 25 34 91 3c
       -0.18152368 -0.002409796 0.0736506 0.01772506
000230 f1 94 29 3e 48 18 dd bd de 27 31 be 80 72 93 bd
       0.16560723 -0.10795647 -0.17300364 -0.071995735
000240 d3 8d 98 bd 39 ab ff 3c 3f 2d ec 3c e8 4c a1 bd
       -0.07448926 0.031209575 0.028830169 -0.07875997
000250 4e b8 8a 3e e4 40 3c bd 97 a4 76 be 79 9a 9f 3e
       0.27093738 -0.045960322 -0.24086224 0.3117254
000260 45 3b ca bd 15 e3 cd bd c8 b2 99 3e 0f e8 65 3e
       -0.09874586 -0.10053078 0.30019212 0.22451805
000270 3b ba 48 3c de ee 1c be c3 a4 af bd cf ea bf bb
       0.012251432 -0.15325496 -0.08576348 -0.005856849
000280 71 12 8c 3e 3d f4 1a 3e bd 9a 26 3e 55 ff 0c 3e
       0.2735782 0.15132232 0.16269965 0.13769276
000290 f2 60 4a 3e 41 88 7f be 92 de 15 3e e6 c9 58 3e
       0.19763544 -0.2495432 0.14635685 0.21170768
0002a0 9f 3c 10 3e 5e 4a 9e 3e 96 9b 17 be 6b 91 c4 bd
       0.14085625 0.30916113 -0.14805445 -0.09598049
0002b0 30 c8 a0 bd 14 ff 12 bb 98 da 69 be 20 49 01 3e
       -0.07850683 -0.002242987 -0.22837293 0.12625551
0002c0 b8 53 97 3e 7c a2 5a 3e 3a 91 0b bc 15 28 26 be
       0.2955606 0.21351045 -0.008518511 -0.16226228
0002d0 49 94 1e be b5 b7 4a 3d ec fe 06 be 59 4f 1a 3e
       -0.15486254 0.049491603 -0.13183182 0.15069331
0002e0 ba e5 1e 3e b5 13 45 3e 8b 18 93 3d 86 08 8c 3d
       0.15517321 0.19245799 0.071824156 0.06837563
0002f0 0e 61 2c 3e af ed cb bc 83 37 c8 3d d9 ad f6 3d
       0.16833898 -0.02489361 0.09776213 0.120448776
000300 9d c7 c5 3e aa f2 3b 3e db db 49 be 7b 88 6c 3e
       0.38628855 0.18354288 -0.19712774 0.23098938
000310 86 86 c3 3c bb d2 ac 3d 10 29 16 be 9b 91 8d bd
       0.023867857 0.08438631 -0.14664102 -0.06912538
000320 48 73 d2 3d ce 14 8d 3e 7d 6a 52 3d b2 27 bb bd
       0.102758944 0.27554935 0.051371086 -0.09138431
000330 37 59 79 3e 7f 26 db 3d 93 84 8a be 6a 46 64 be
       0.24350439 0.10700702 -0.2705427 -0.22292486
000340 73 5a a3 3d d6 38 96 bc 3e a3 ab 3e 5e 9f 8d bd
       0.07976236 -0.018337648 0.3352298 -0.069151625
000350 b0 0d 8e be ce ee 5b bd 9b c5 ca 3d fb 6d 5d bc
       -0.27744818 -0.05369454 0.099009715 -0.013514991
000360 9f 10 af bd 1d e5 92 be f1 6f c2 3e ce 0a 29 3e
       -0.08548092 -0.28690425 0.3797603 0.16508028
000370 5b d9 32 3e dd 38 85 3e 43 8b 69 bd 4e 28 16 be
       0.17465727 0.26019946 -0.057017576 -0.14663813
000380 52 de 27 3d 3c 1e e4 bd 09 b7 16 3c 62 54 bf 3d
       0.040983506 -0.11138579 0.009198912 0.093422666
000390 66 c2 31 be b2 92 79 bd 75 bc 01 3e e3 dd 71 be
       -0.17359313 -0.060930915 0.12669547 -0.236198
0003a0 b2 d1 04 3e d7 c8 a5 3d a3 6f 84 be dc 63 61 3e
       0.12970617 0.08094948 -0.25866422 0.2201075
0003b0 d6 e0 47 be 8d 47 25 be d3 20 95 3e 42 cf e1 3d
       -0.19519362 -0.16140576 0.29126605 0.110258594
0003c0 77 6b bc bd 74 68 b7 3e 95 de 88 3d 3d 56 72 bd
       -0.09200185 0.3582188 0.06683079 -0.059164274
0003d0 a1 4c 92 bd 41 a8 4c be 52 90 c1 3b 93 cd f8 3c
       -0.07143522 -0.19986059 0.005907097 0.030371463
0003e0 dd 15 e1 3d 53 41 f4 3d 3e c8 43 3e ca 79 29 bb
       0.10990498 0.11926522 0.19119355 -0.0025859945
0003f0 b3 96 be 3d 41 0e 25 3e b1 51 18 3c 5f bf c0 3e
       0.09306087 0.16118719 0.0092968205 0.37646005

model.8.bias f4 [3]
000000 68 5e 8f bd 0c 04 b6 3d 23 38 6c ba
       -0.070004284 0.08887491 -0.00090110506
