p2_actor_envs_2_lam_0_9877519995852527_gamma_0_9870407103527608_t_1245_a_lr_3_274007371392119e-05_c_lr_0_00016818884477100903.pth (torch, 209900 bytes, 10 tensors)

model.0.weight f4 [128, 6]
000000 a7 06 71 be d2 3b 3d 3f d6 e7 25 3f f2 bb 92 bf
       -0.23537694 0.73919404 0.6480688 -1.1463606
000010 14 a7 b6 bd 21 53 5e 3f c1 a3 2b be b1 ae f7 be
       -0.089185864 0.86845595 -0.16761686 -0.48375466
000020 00 a9 5b 3f 75 21 35 3f 33 e2 21 3f 9f d1 9f be
       0.8580475 0.70754176 0.6323578 -0.31214616
000030 95 dd a6 bf 34 87 04 3c c9 f4 26 bf 77 f8 52 bf
       -1.3036371 0.008088876 -0.6521726 -0.8241038
000040 88 01 3a 3b 5e 30 34 bf 10 8b 0b 3f 07 86 40 bf
       0.002838226 -0.703863 0.5450907 -0.7520451
000050 cc 10 18 bf a9 a0 23 3f 02 b9 dd bd 0c 89 57 bf
       -0.5940063 0.6391702 -0.10826303 -0.8419349
000060 6b 52 36 3e cd e5 6b 3f 35 42 3f 3f 57 df fa 3e
       0.17804877 0.92147523 0.747104 0.4899852
000070 88 75 15 3f 5e 4a fe 3e 10 e2 5b bf cb e2 34 bf
       0.58382463 0.49666113 -0.8589182 -0.7065856
000080 c3 e7 b7 3e 7a 2e 37 bd 9f 82 a7 3e 4c 34 be 3e
       0.35919008 -0.044722058 0.32716843 0.37149274
000090 90 f3 8a bf f5 87 22 be d5 e1 c1 be 70 66 98 be
       -1.0855579 -0.15872176 -0.3786761 -0.29765654
0000a0 d6 3a 09 3f da c0 c0 bd 0c f8 b4 be 50 70 8e bd
       0.536054 -0.094117835 -0.35345495 -0.06955016
0000b0 f4 b6 b9 bd 15 3e fd be bf 1a cb be c8 07 9d be
       -0.09068099 -0.49461427 -0.39668843 -0.3067
0000c0 21 b8 ea be b4 4a c8 3e f2 b9 e2 be 46 14 f6 be
       -0.45843604 0.39119494 -0.4428249 -0.48062342
0000d0 17 ea a1 3f ff b2 5a bf d0 fc 7b 3d ec 9b 2b 3e
       1.2649564 -0.85429376 0.061520398 0.16758698
0000e0 69 0e 58 3e cf 4c b9 be 3d f3 58 3e d2 a1 77 bd
       0.21099247 -0.36191413 0.21186538 -0.06045706
0000f0 b0 28 bc be 8f ea 65 be 7e 2b fb be 67 0c 97 bd
       -0.36749792 -0.22452758 -0.4905662 -0.073754124
000100 69 03 8c bf 33 3b d5 3e b5 e3 27 3f e1 29 b3 3e
       -1.0938541 0.41646728 0.6558183 0.3499289
000110 d8 80 59 3f bb 7e a0 bf 35 66 ee 3c 04 5b 49 3e
       0.84962225 -1.2538675 0.02910147 0.19663626
000120 d9 b1 fa 3e 0f 37 3c 3f 11 48 2a be f7 11 99 bf
       0.48963812 0.7352151 -0.16629054 -1.1958607
000130 d2 ce 98 3f f6 ac 2e bf 1b 86 df 3e 8c 59 4c 3e
       1.1938117 -0.6823267 0.43657002 0.19956034
000140 c8 52 7c bf bf e4 9c 3f 82 ea 88 bf 06 ae ad be
       -0.98563814 1.2257308 -1.0696566 -0.33921832
000150 8c 45 f6 be 82 b9 c7 3d 19 41 87 be eb fe 5b bf
       -0.48099935 0.0975218 -0.26416853 -0.8593585
000160 a9 a2 e3 3d 26 9c 05 bf ef ec 13 3f 15 77 e3 3d
       0.11115009 -0.5219139 0.57783407 0.111066975
000170 20 3e 86 be f9 08 63 bf ae 5f d6 be 2a a2 35 3f
       -0.26219273 -0.88685566 -0.41869873 0.7095057
000180 2b ec bf 3e 97 61 46 bf 95 45 00 3e e5 9f f7 3b
       0.3748487 -0.7749266 0.12526543 0.0075569027
000190 1e 77 1e be 43 e6 34 bc 0c f3 22 3f b3 4d 33 3f
       -0.15475127 -0.011041227 0.6365211 0.70040435
0001a0 68 2a 9d 3e e4 2b af be 9f dc 31 3f cf f2 3c 3e
       0.30696416 -0.34213173 0.69477266 0.18451999
0001b0 d4 ec 02 3f 6e 08 b5 be 84 17 30 bf 52 27 8f be
       0.5114262 -0.35357994 -0.6878588 -0.27959687
0001c0 d0 8f 26 bd 59 3f 43 3e 5f cc 7a 3d 13 25 b5 be
       -0.040664494 0.19067134 0.06123006 -0.35379848
0001d0 1e 2d 9e be 3c 08 58 3e c4 44 7b 3f 9f 4f 35 3f
       -0.30893797 0.21096891 0.98151803 0.7082462
0001e0 c9 1f 85 3f f3 fd 3d be 59 42 82 3f 98 90 81 3e
       1.0400325 -0.18553905 1.0176498 0.2530563
0001f0 3c 7b 5e bf 64 6a 0c 3f 71 4d 93 3e 55 6d b0 3e
       -0.8690679 0.5484984 0.2877002 0.34458414
000200 44 d8 0c 3f f8 6f bf 3c 50 6a b6 be eb 56 40 3f
       0.55017495 0.02336882 -0.35627985 0.75132626
000210 4f 49 66 be ac 20 94 bf 02 7a ef be fb 42 44 3f
       -0.22488903 -1.1572471 -0.46772772 0.76664704
000220 96 e3 0b 3f cc ae 44 3f 2e be ce be 8d 3a 97 be
       0.54644144 0.7682922 -0.4037947 -0.29536858
000230 a5 4f 23 bf 9a 08 e5 be 6b 00 b3 bd 6f de c0 3e
       -0.637934 -0.44733125 -0.08740314 0.37669703
000240 5d 6a 18 3f 84 e2 2f bd 8e f2 9e 3f 11 99 50 bf
       0.595373 -0.04294063 1.2417772 -0.8148356
000250 3c 2e 47 bd 47 af d5 3e dc ee 97 bf c2 5d c6 be
       -0.048628077 0.41735289 -1.1869769 -0.38743407
000260 c6 bb d4 be ba 18 a5 be 10 5d 93 bd 43 b0 92 3f
       -0.4154951 -0.32245427 -0.07195485 1.1460041
000270 d3 af 17 be f5 c6 6a 3a b9 38 b7 bd 5d af c1 3e
       -0.14813165 0.00089560385 -0.08946366 0.37829104
000280 a6 4e 60 be cb d4 f4 be 4e c0 e8 3e 0a 9a c8 3d
       -0.21905002 -0.47818598 0.45459217 0.097950056
000290 c3 dd 47 3f c3 90 cd 3f 10 1e c7 3e 3a 1b 58 bf
       0.78072757 1.6059803 0.38890123 -0.84416544
0002a0 f2 ad 4c be 5d f3 9e 3f bf b5 19 be 3a 9f 16 3f
       -0.1998823 1.2418019 -0.15010737 0.5883671
0002b0 19 3d d1 be 33 91 64 bf bf d2 b7 bf c5 26 70 3f
       -0.40866926 -0.89284056 -1.436119 0.9380916
0002c0 8b 23 0d 3f e9 79 91 be d2 78 7a 3e d1 d6 7a 3f
       0.5513236 -0.28413323 0.24460152 0.97984034
0002d0 b5 72 bc be e6 b2 af be 93 18 68 bb de 0b 3c 3f
       -0.36806265 -0.34316176 -0.0035415038 0.7345561
0002e0 d1 cc 5b 3d 69 5e 0a bf 24 00 dc 3d 89 f2 e4 be
       0.053662125 -0.5405031 0.10742214 -0.4471629
0002f0 d3 26 25 3f b7 26 a0 be bf 46 05 bf 7a 78 f1 bd
       0.64512366 -0.31279537 -0.52061075 -0.11790557
000300 72 fa b1 be b8 d2 57 3d 3a 7f de be ac 91 3a 3f
       -0.34761387 0.05269119 -0.4345644 0.7287853
000310 8a ce 36 bf a3 da ad bf 80 c5 46 bf d6 40 7e be
       -0.71408904 -1.3582348 -0.7764511 -0.2482942
000320 db dd 5d bf 1e 38 72 3e 96 60 4f 3f 2e 6d 4b 3e
       -0.8666665 0.2365422 0.81006753 0.19865867
000330 85 67 04 3f e4 42 57 be 75 a6 a7 3d 1b 92 44 bf
       0.5172046 -0.2102161 0.08186046 -0.7678544
000340 d0 d9 7a 3f 14 7c 64 3f b0 db b2 be 04 ba 1b be
       0.97988605 0.8925183 -0.34933233 -0.15207678
000350 f0 9a f1 be 45 0c 8f be 11 f2 89 bf b2 fc ac 3d
       -0.4718852 -0.27939048 -1.0776998 0.08446635
000360 af 38 a3 be b4 59 aa 3e b8 48 0f bf 8e 3e 30 3f
       -0.31879184 0.33271563 -0.55970335 0.6884545
000370 80 20 80 bf c1 3e 04 bf e5 d7 81 bf 99 27 c1 3e
       -1.0009918 -0.51658255 -1.0144011 0.37725523
000380 74 2e 17 bd e1 f4 14 3d 3a c3 3f bf a5 35 08 bf
       -0.036909536 0.036366347 -0.7490727 -0.53206855
000390 65 68 99 bf 80 19 b8 bd b8 c2 02 bd 70 0c bc 3a
       -1.1984984 -0.08989239 -0.03192398 0.0014346968
0003a0 b7 15 90 be 19 ba 7e bf 8e 4c 1b be 0a db 40 bf
       -0.28141567 -0.9950271 -0.15165922 -0.7533423
0003b0 2d 25 72 bf 97 6f 06 be 51 0b a0 be 52 4a 8c 3e
       -0.94587976 -0.13128506 -0.31258634 0.27400452
0003c0 d1 0a ab bf c1 04 f3 3d c6 31 43 3f 69 e4 97 3e
       -1.3362676 0.11866141 0.76247823 0.2966645
0003d0 0d 31 12 3f 98 8c 2d bf a9 f5 b3 be 4b 82 fc bd
       0.57106096 -0.67792654 -0.3514836 -0.12329539
0003e0 31 dc 2b bf b2 52 24 3f a5 34 01 3f c5 15 49 be
       -0.6713286 0.64188683 0.50470954 -0.1963721
0003f0 6a 9c e1 be 71 d4 de be ef 03 8c be 86 7a 05 3e
       -0.44064647 -0.43521455 -0.2734675 0.1303502

model.0.bias f4 [128]
000000 b0 20 fa 3b 43 b3 47 3c 0a d7 23 3c 33 61 ec 3b
       0.007633291 0.012188735 0.01 0.0072137355
000010 3a 6c 53 3c 0a d7 23 3c 0a d7 23 3c 0a d7 23 3c
       0.012904221 0.01 0.01 0.01
000020 6a c5 1a 3c 4d aa 27 3c 0a d7 23 3c f4 6d ee 3b
       0.009446481 0.010233474 0.01 0.007276291
000030 f7 7d 35 3c ff bc 21 3c 0a d7 23 3c aa 98 3f 3c
       0.011077396 0.00987172 0.01 0.011694113
000040 0a d7 23 3c 11 14 38 3c 2b 26 40 3c 8d 5f 3c 3c
       0.01 0.011235253 0.01172785 0.01149739
000050 da ac 45 3c d6 46 00 3c f2 46 1e 3c 0a d7 23 3c
       0.012065137 0.007829389 0.009660469 0.01
000060 5f be 04 3c 0a d7 23 3c 7c a0 1a 3c af 65 14 3c
       0.008102029 0.01 0.0094376765 0.009057446
000070 33 c8 57 3c f4 37 20 3c 62 d0 f3 3b b2 ce 56 3c
       0.01317029 0.009778965 0.0074406127 0.013110803
000080 e9 5b 34 3c 0a d7 23 3c 43 b7 47 3c 0a d7 23 3c
       0.011008241 0.01 0.012189689 0.01
000090 6c c8 47 3c ac 9c 23 3c 0a d7 23 3c 0a d7 23 3c
       0.01219378 0.009986084 0.01 0.01
0000a0 c8 aa 5c 3c af 9b 0e 3c 0a d7 23 3c cf f9 33 3c
       0.013468452 0.00870411 0.01 0.010984852
0000b0 53 79 35 3c 0a d7 23 3c 0a d7 23 3c 41 f6 f9 3b
       0.011076289 0.01 0.01 0.0076282327
0000c0 06 9e 10 3c 8f cb 1d 3c 95 4b 1b 3c 56 d8 41 3c
       0.008826738 0.009631052 0.009478469 0.011831364
0000d0 b4 27 45 3c 6c ed 2e 3c 85 34 fe 3b 03 77 27 3c
       0.012033392 0.010676723 0.0077577257 0.010221246
0000e0 0a d7 23 3c 99 7c f7 3b 5d c8 09 3c be ba f0 3b
       0.01 0.007552695 0.008409587 0.00734648
0000f0 0a d7 23 3c af 4b 00 3c 7b f0 1c 3c 54 b4 29 3c
       0.01 0.007830544 0.009578819 0.010357935
000100 0a d7 23 3c b2 d7 ed 3b ec 86 55 3c 3d 21 4f 3c
       0.01 0.007258379 0.013032656 0.012642202
000110 52 b3 fe 3b 44 c1 35 3c 0a d7 23 3c 93 8a 57 3c
       0.0077728415 0.011093441 0.01 0.013155597
000120 3b 2d 4e 3c 0a d7 23 3c d4 dc fc 3b 0a d7 23 3c
       0.012584026 0.01 0.0077167545 0.01
000130 3e 2a ff 3b ff e9 f1 3b 0a d7 23 3c 5f fe 10 3c
       0.007787018 0.007382631 0.01 0.008849709
000140 85 f6 e7 3b a6 f3 5b 3c 0a d7 23 3c 0f e2 43 3c
       0.007078948 0.0134247895 0.01 0.011955752
000150 0e 45 4d 3c b9 85 41 3c bf 8c 39 3c 7e e1 4e 3c
       0.012528671 0.011811667 0.01132506 0.012627004
000160 32 0c e0 3b 0a d7 23 3c b9 11 2f 3c a8 a2 33 3c
       0.0068373913 0.01 0.010685378 0.010964073
000170 0a d7 23 3c 0a d7 23 3c a2 e3 07 3c 73 40 3c 3c
       0.01 0.01 0.008294018 0.011489975
000180 87 5c 3d 3c e2 db 57 3c 8d df 4d 3c af c1 03 3c
       0.011557705 0.013174983 0.012565506 0.008041783
000190 60 84 3b 3c 5f 91 0c 3c 0a d7 23 3c da 4f 31 3c
       0.011445135 0.008579581 0.01 0.010822261
0001a0 48 c8 0b 3c 0a d7 23 3c 4c f2 16 3c 09 35 fd 3b
       0.0085316375 0.01 0.0092130415 0.0077272695
0001b0 bf 54 30 3c 97 4d 01 3c 86 59 4c 3c 1f 76 42 3c
       0.010762393 0.007892034 0.012472516 0.011868983
0001c0 0a d7 23 3c 11 26 37 3c cb 16 49 3c d0 6c 18 3c
       0.01 0.011178509 0.012273501 0.009303287
0001d0 40 9f 58 3c 0a d7 23 3c 94 cd 09 3c 68 76 43 3c
       0.013221562 0.01 0.00841083 0.011930086
0001e0 cc f9 e6 3b 66 5d 38 3c 4d cb 13 3c 11 0b 5a 3c
       0.007048821 0.011252737 0.009020639 0.0133083025
0001f0 21 17 32 3c d4 ee 0f 3c be 68 38 3c 38 80 59 3c
       0.010869772 0.008784968 0.011255441 0.013275199

model.2.weight f4 [128, 128]
000000 67 23 d1 bd 0c bc c0 3d 91 5f dd 3d 28 98 13 3d
       -0.102118306 0.09410867 0.108092435 0.03603378
000010 cb c0 a2 bd 0f 97 5a bd 8b b0 81 3e 5d de eb 3d
       -0.079469286 -0.053366717 0.25330004 0.11517022
000020 0d eb ab bd ce f9 26 be 57 ea 0b be e9 9f 4a 3d
       -0.08394442 -0.1630623 -0.13663612 0.04946891
000030 dd 98 14 bd a1 c8 17 bd 26 f1 df 3d d8 9e 00 3e
       -0.036278594 -0.03705657 0.10934667 0.12560594
000040 d3 ae 19 bd b7 96 41 be 4b 84 90 3c 9d 59 12 3d
       -0.03752024 -0.1890515 0.017641207 0.035729993
000050 ea e8 68 3b 99 ab 9d 3c 0f fb 8f 39 19 58 af bd
       0.0035539218 0.019246863 0.0002746214 -0.08561725
000060 ec 82 f6 bb b3 2c ab 3c 7f 38 7d be 21 67 d8 3c
       -0.0075229313 0.020895338 -0.24728583 0.026416363
000070 2e 63 12 be 97 76 50 3e 4e ad 44 3d 8c 6e 6e be
       -0.14295647 0.20357738 0.04801684 -0.23284358
000080 2d 7e 57 be 73 52 94 bd 47 ba 13 be 45 94 a4 3d
       -0.21044226 -0.072422884 -0.14426528 0.08036093
000090 34 83 2a be 6f bc 79 3e 1e 24 5d be 85 85 f7 bc
       -0.16651613 0.24388288 -0.21595809 -0.030215034
0000a0 6d 85 5a be df 4f 48 3c a8 0c d5 bd 77 b4 50 3e
       -0.2133996 0.012226074 -0.104028046 0.20381342
0000b0 79 9c 2f be a2 40 12 be 95 a9 da 3c 50 14 39 be
       -0.17149533 -0.14282468 0.026692191 -0.18074155
0000c0 76 9a bc 3d c0 3a 9d bd 18 a0 55 be fd bd ee bb
       0.092091486 -0.07677221 -0.20861852 -0.007285832
0000d0 3a ba 4b bd 36 51 57 3d 30 a1 50 bd c8 26 70 bc
       -0.049738146 0.052567683 -0.05093497 -0.014657684
0000e0 01 86 22 be 06 9e 95 bd 38 18 cb 3d 9d a9 ad 3d
       -0.15871431 -0.07305531 0.09916729 0.08479617
0000f0 d9 be 0a 3d c3 b3 97 3a d5 91 64 bd 05 0b d2 3d
       0.033873413 0.0011573959 -0.05580314 0.10256008
000100 7e 83 02 bd 68 ee 03 3d e8 9a 53 3e 7a a3 ed bd
       -0.031863682 0.032209784 0.20664561 -0.11603446
000110 68 6e ae bd 66 da ac bd 87 3a 04 be ab 9f 74 be
       -0.08517152 -0.08440094 -0.12912951 -0.23889033
000120 a5 cc 8d bd 25 f3 1d be e7 39 9d 3c 7c d3 58 3d
       -0.069237985 -0.15424784 0.019192649 0.052936062
000130 6c 66 38 bc b8 ad 47 3e 2f e0 96 3d cd 8a 8a 3d
       -0.011254888 0.19499862 0.073669784 0.067647554
000140 11 aa 1b 3e 19 96 93 3e 47 eb c9 bc ff 76 71 3d
       0.15201594 0.28825453 -0.024648322 0.058951374
000150 fb 53 99 3d 51 63 ee 3d 31 f8 b8 3d 93 05 7e 3e
       0.07486721 0.11640037 0.09031714 0.24806814
000160 7a c7 7a 3d 1c 2d 01 be f4 b2 19 3e ee a1 64 3e
       0.061225392 -0.12614864 0.15009671 0.22327396
000170 5c 59 09 3e 1e 6d 37 3d 5c 6e f4 bd 28 a6 a2 3d
       0.13412994 0.044781797 -0.11935112 0.07941848
000180 d4 07 94 3d 65 eb 94 bd 79 f8 6f 3d 2d e0 40 3d
       0.072280556 -0.072714604 0.05858657 0.04708879
000190 e5 81 0d 3e a6 16 67 3e 65 db 44 3d 7f bf d4 3c
       0.13819082 0.22567233 0.048060793 0.025970219
0001a0 26 66 ec bd 86 ab 92 3e b5 3d 30 3e 8a b9 cf 3d
       -0.11542921 0.28646487 0.1721104 0.10142811
0001b0 5c 95 88 3d c6 4d 37 be ca ff 97 3d d9 d0 cd bd
       0.06669113 -0.17900762 0.07421835 -0.100496
0001c0 bc a5 87 3c 66 3d 72 bc 0a 73 63 3d 4d 37 3f bc
       0.01655852 -0.014785146 0.05552963 -0.0116709
0001d0 8d 50 79 3d d5 41 9c 3c c3 e6 58 be bb ff 17 3d
       0.060867835 0.01907436 -0.21181779 0.037109118
0001e0 81 3f 0b bd 76 5b 24 3e a4 a3 27 3d f1 b4 95 3c
       -0.03399611 0.16050515 0.040927544 0.018274756
0001f0 aa f3 e4 3d 28 3b cb bc e9 b8 66 be 61 f6 7f 3d
       0.11179288 -0.024808481 -0.22531475 0.062490825
000200 9c f2 67 3d 49 33 b1 bd f9 2e 07 be f3 3a 3e bc
       0.056627855 -0.0865236 -0.13201512 -0.011610734
000210 22 27 7b 3c e0 0f 06 3e b1 88 29 3e 3c 2c c2 3d
       0.015329154 0.13091993 0.1655605 0.09481093
000220 a9 59 08 3e 60 6b 31 3d c4 d7 b8 3d 45 49 85 be
       0.13315453 0.04331529 0.09025529 -0.26032463
000230 2e 4a dc bc 72 16 35 be 44 60 d7 3c 9e ad 90 3d
       -0.02689084 -0.17684343 0.02629102 0.07064365
000240 b7 0e 5d 3d 6d ec a6 bc 6c bd 6a bd 44 b5 3d 3d
       0.05396911 -0.020376408 -0.057309553 0.046315446
000250 2d 3a 5a 3e 77 83 ae bd 2e 88 90 bc ad e2 e3 3d
       0.21311255 -0.08521169 -0.01764306 0.11127219
000260 27 1e d1 bd 19 45 6e be 28 8a 1f bd 16 57 4d 3d
       -0.10210829 -0.23268546 -0.038950115 0.05013188
000270 86 0e ee bb 62 4e f7 3b 42 9d 95 3d 08 e1 62 bd
       -0.007264915 0.0075471858 0.07305385 -0.055390388
000280 76 52 03 3e 63 05 a0 bd 33 80 9c 3d e4 96 35 3c
       0.12824425 -0.078135274 0.076416396 0.011083338
000290 b8 87 b7 3d 04 13 3d 3b 6e 57 c3 bd d3 b3 1c be
       0.08961433 0.0028850446 -0.0953816 -0.15302972
0002a0 af bb 15 bd 36 88 d2 3d 84 41 c5 bb 4f 46 3f 3e
       -0.036555942 0.102798864 -0.006019773 0.18679164
0002b0 4e 38 9c 3e a7 60 1e be ae 83 92 bd 3e 3a 00 3e
       0.30511707 -0.15466557 -0.07154022 0.12522218
0002c0 32 b9 67 be dd e7 ae 3d b1 21 81 be 2a 13 0b 3d
       -0.2262924 0.08540318 -0.25221017 0.033953823
0002d0 60 db d5 3d 08 f2 1e be d4 b3 6e bc 16 df ae bc
       0.10442233 -0.15522015 -0.014569242 -0.02134661
0002e0 c4 6a 2f 3e 92 f5 37 3e 23 a1 3f 3e 88 7b a1 3d
       0.17130572 0.17964771 0.18713813 0.0788489
0002f0 81 f9 18 3e 18 a4 35 3c 3a 2b 82 3d c4 6d 89 3d
       0.14938928 0.011086486 0.06355901 0.06710389
000300 2c 7b 90 3d f4 74 c1 3d 6c 08 e1 bd 94 60 08 3e
       0.07054743 0.09446135 -0.109879345 0.13318092
000310 3a 4d 0e 3c be d8 d9 bd 94 1f e7 bd 39 ae e3 bd
       0.008685404 -0.106370434 -0.1128532 -0.11117215
000320 34 8d e3 3a e4 ad 44 3e e6 d0 ba bd ce d6 b2 bd
       0.0017360807 0.19206959 -0.091218755 -0.08732377
000330 b9 e0 81 3b 35 66 05 3d a0 bc eb bb 9a 78 eb bd
       0.0039635566 0.032568175 -0.0071941167 -0.11497612
000340 fc 49 87 3e 29 df 14 3e 5b dc 3d 3c ce 83 32 3a
       0.26423633 0.14538254 0.011588181 0.00068098016
000350 1a 12 eb 3d e7 14 d3 3d 50 e0 81 bc 5d 38 ac bd
       0.11478062 0.10306721 -0.01585403 -0.08409188
000360 80 8d 20 bd 3b 6e b3 bd a1 d8 35 be c7 0d 41 be
       -0.039197445 -0.08761259 -0.17758419 -0.18852912
000370 f7 eb 8e 3d 00 e7 bb bd 64 72 64 be 9d b5 74 3d
       0.069786005 -0.09174919 -0.22309262 0.059743512
000380 53 a4 89 3d f7 5e 05 3e df 56 e9 3d 04 ba 4b 3d
       0.067207955 0.13024507 0.113935225 0.049737945
000390 7a fb 3a 3c f6 00 06 3d 09 c7 63 be 43 f8 82 bc
       0.011412496 0.03271576 -0.22243895 -0.015987521
0003a0 03 fd 30 bd 00 4b e8 bc 38 08 8c 3c 03 94 9c 3c
       -0.04321004 -0.028356075 0.017093763 0.019113546
0003b0 13 86 a5 3d 2b fa 31 3c dc 8c bc bd 89 95 99 3c
       0.08082213 0.010862867 -0.09206554 0.018748062
0003c0 91 a0 e4 bd 46 83 92 3d 27 9a 79 3d ce dc 9d 3d
       -0.11163438 0.07153945 0.060938027 0.07708131
0003d0 7b 9e 4b be 85 e6 d2 3d ec 05 d9 b8 00 3a 4a bd
       -0.19884674 0.10297874 -0.000103484694 -0.04937172
0003e0 17 df 36 be 81 20 00 be 58 a7 6d bc 65 8c 9b bd
       -0.1785854 -0.125124 -0.01450523 -0.075951375
0003f0 16 3b 27 3e cf 70 23 3d fb 4e 2d bc 76 83 d3 3d
       0.16331133 0.039902505 -0.010577912 0.103278086

model.2.bias f4 [128]
000000 10 e1 3b 3c bd 6c 43 3c 0a d7 23 3c 3e a5 3f 3c
       0.011467233 0.011927781 0.01 0.011697112
000010 0a d7 23 3c 87 96 0e 3c df 7c 4a 3c 42 a2 d7 3b
       0.01 0.008702881 0.012358873 0.006580622
000020 b1 a4 47 3c 0a d7 23 3c db 48 20 3c 39 62 f5 3b
       0.012185262 0.01 0.009782995 0.0074885157
000030 bb 78 0e 3c a7 0c 24 3c b1 ec fa 3b 0a d7 23 3c
       0.008695777 0.010012782 0.0076576103 0.01
000040 cb dd 2c 3c 24 4a 07 3c 0a d7 23 3c 0a d7 23 3c
       0.010550926 0.008257423 0.01 0.01
000050 3e 8b 52 3c 67 e9 12 3c dc 82 42 3c 7d e8 55 3c
       0.012850581 0.00896678 0.01187202 0.013055918
000060 28 6c 4a 3c 95 64 3e 3c 59 8e f6 3b ba 10 17 3c
       0.012354888 0.01162066 0.0075242934 0.0092202965
000070 2a 4c 0c 3c ad ba 3e 3c 05 3e 41 3c 3d fc 4a 3c
       0.008563081 0.011641187 0.011794572 0.01238924
000080 a3 4b 46 3c e2 cc 3e 3c 5a d3 ef 3b 0a d7 23 3c
       0.012102994 0.011645528 0.0073188962 0.01
000090 fb 11 17 3c e5 e1 54 3c 8a 17 25 3c 6d b3 08 3c
       0.0092205955 0.012993311 0.010076413 0.00834356
0000a0 4e 7a 56 3c e9 ea 19 3c 11 f8 fc 3b 60 72 39 3c
       0.013090683 0.009394386 0.0077200015 0.011318773
0000b0 6b ef 4a 3c b9 0a 40 3c ca ac 15 3c 75 09 f0 3b
       0.012386183 0.0117213065 0.009135434 0.007325346
0000c0 0a d7 23 3c 3d c8 3b 3c 69 b2 05 3c a7 8e 40 3c
       0.01 0.011461315 0.008160212 0.011752761
0000d0 38 aa 02 3c 30 68 49 3c 7d 3f 46 3c aa d4 2a 3c
       0.007975154 0.012292907 0.012100098 0.01042668
0000e0 9d c5 49 3c 0a d7 23 3c 81 1c 1c 3c 42 8a 2f 3c
       0.012315181 0.01 0.00952828 0.010714116
0000f0 c0 e0 41 3c 7d 8e 4e 3c 61 d7 02 3c 2a c2 0f 3c
       0.01183337 0.012607214 0.007985921 0.00877432
000100 0a d7 23 3c 29 dd 43 3c 3b 2c 43 3c 78 21 5d 3c
       0.01 0.011954584 0.011912401 0.013496749
000110 29 ae 23 3c 9f a8 1c 3c a7 71 db 3b 0a d7 23 3c
       0.0099902535 0.009561687 0.006696898 0.01
000120 41 57 3e 3c 42 9b 13 3c 0f 5a f6 3b 33 ff fc 3b
       0.011617483 0.009009184 0.00751806 0.007720852
000130 a5 99 29 3c 1b 35 12 3c 9d 01 05 3c f8 a7 37 3c
       0.010351573 0.008923794 0.00811806 0.01120948
000140 88 08 54 3c b3 d5 59 3c 60 a9 3c 3c 00 d2 58 3c
       0.012941487 0.013295579 0.0115149915 0.013233662
000150 69 21 58 3c 40 6c 46 3c 64 7a 3d 3c dc ff 4c 3c
       0.013191559 0.01211077 0.011564825 0.0125121735
000160 f3 0c f7 3b 09 a3 03 3c 85 2c 2a 3c fb 33 0b 3c
       0.0075393855 0.008034476 0.010386591 0.00849628
000170 0a d7 23 3c f5 55 09 3c dc 66 0d 3c 0a d7 23 3c
       0.01 0.00838231 0.008630481 0.01
000180 c3 51 1b 3c d9 3f 50 3c 1c 84 53 3c 1b be 50 3c
       0.009479943 0.012710535 0.012909915 0.012740637
000190 5e 9a 05 3c 0a d7 23 3c d2 ba 20 3c 84 ce 2e 3c
       0.00815448 0.01 0.009810166 0.010669354
0001a0 1a 51 53 3c 0a d7 23 3c e8 cb 23 3c 47 0d 1a 3c
       0.012897754 0.01 0.0099973455 0.00940258
0001b0 58 6b 0e 3c 64 e7 1b 3c 1f 6a 20 3c 42 9a 41 3c
       0.008692585 0.009515617 0.009790926 0.011816563
0001c0 24 cf ec 3b ad 6d 38 3c 7c 47 4f 3c 2f 91 ef 3b
       0.0072268415 0.0112566175 0.012651321 0.0073110084
0001d0 8f af f7 3b 0a d7 23 3c 87 0f f3 3b 2a 4d 43 3c
       0.00755877 0.01 0.0074176225 0.011920253
0001e0 d7 64 3b 3c b3 91 40 3c ff 44 54 3c 1b c4 ff 3b
       0.011437616 0.011753487 0.012955903 0.00780536
0001f0 0a d7 23 3c 0a d7 23 3c 9a b5 1a 3c 92 70 52 3c
       0.01 0.01 0.009442711 0.012844222

model.4.weight f4 [128, 128]
000000 ef 0c 04 be 51 d1 fc 3d de 68 0b be 00 d5 49 bd
       -0.12895559 0.123446114 -0.13614222 -0.0492754
000010 0a 3a 8e 3c d7 50 55 3d 2f 92 b9 bd 51 ee e0 bd
       0.01736166 0.052079048 -0.090610854 -0.10982955
000020 ef a5 b1 bd 71 5d 3e 3d 13 45 17 be 7c b0 5a be
       -0.086742274 0.04647583 -0.14772443 -0.21356386
000030 2d d0 c6 3d df 58 fa 3d 0d 3c e4 3d bb bf 44 bd
       0.09707675 0.12223982 0.11144266 -0.04803441
000040 84 4f fe bc 3c 1f 89 be c1 22 dd 3a 48 a6 c3 3c
       -0.031043775 -0.26781642 0.0016871319 0.023883
000050 40 54 c6 3c 41 2c 8b be 00 6c b8 3c f2 57 56 3e
       0.024210095 -0.271822 0.022512436 0.20931986
000060 07 4b 1a bd 64 09 6d bd e6 db 17 3c d2 64 be 3d
       -0.037669208 -0.057870284 0.0092687365 0.09296574
000070 f9 29 69 be b6 ea 58 3d 3f fd 47 be d9 09 0b 3e
       -0.22769918 0.052958213 -0.195302 0.13577975
000080 5f 93 61 3e 25 be 68 3d 5e b0 d9 3c 68 ab f1 3b
       0.22028874 0.05682196 0.026573356 0.0073751695
000090 61 be 14 be 05 de 3a 3e e4 0f 1b bd c0 05 83 3d
       -0.14525749 0.18248756 -0.03785695 0.06397581
0000a0 89 18 ce 3d d4 20 b0 3d 3c e9 c7 3d ad cb cb 3d
       0.100632735 0.086000115 0.09761283 0.099509574
0000b0 04 80 b9 3d ba 85 d1 3d 22 98 9a 3d d3 0a c5 bd
       0.0905762 0.102305844 0.07548548 -0.09621205
0000c0 e5 94 9c 3c 0f 86 29 3e d0 f5 b1 bd 5e 36 0f be
       0.019113967 0.16555046 -0.08689463 -0.13985583
0000d0 10 52 19 3c ec 73 fb 3c 30 c9 16 3d 29 50 1c 3d
       0.009357944 0.030694924 0.03681296 0.038162384
0000e0 cb 4b 2c 3c 09 7b 88 be 3e cc b7 3c 04 73 a4 3d
       0.010516117 -0.26656368 0.022436257 0.0802975
0000f0 ea 5f c9 3d 8a fa 05 be 61 f1 d7 bd 8b cf 6c bd
       0.09832747 -0.13083854 -0.10544086 -0.057815116
000100 04 c7 3d be d5 72 12 be b3 c5 cc bd 2b b6 54 bd
       -0.1853295 -0.14301617 -0.09998646 -0.05193154
000110 04 e7 c5 bd 04 74 11 be 9f d0 1e be 2e 50 76 3c
       -0.09663203 -0.14204413 -0.1550927 0.015033765
000120 6c d1 20 be 17 0d 8e 3d 8e 6a 88 bd 81 29 d8 bd
       -0.15704888 0.069360904 -0.06660949 -0.10554791
000130 da e6 6c 3d c2 90 ee bd 3a bf 8e bd d2 71 c7 bd
       0.057837345 -0.11648704 -0.06970067 -0.097385064
000140 3b 3c 8e 3d cc 28 d1 bd dc ea 1f be 13 d7 c7 3d
       0.06945082 -0.102128595 -0.15616935 0.09757819
000150 3d a3 9a 3d e7 18 c8 3c 3a 11 19 3e f1 2b d6 bc
       0.075506665 0.024425937 0.14947978 -0.026144
000160 ff 87 09 be 75 2e 24 be 14 cb 0d bd c6 4a 19 3e
       -0.13430785 -0.16033347 -0.0346175 0.1496993
000170 95 26 89 be a3 ab 93 be 67 8c e3 bc 97 22 09 be
       -0.26787248 -0.28841886 -0.02777691 -0.13392101
000180 21 76 bc ba 22 57 c6 bb 93 54 33 3d bf e3 18 be
       -0.0014378467 -0.0060528675 0.043781828 -0.14930628
000190 08 e4 68 bd 11 7b c8 bd b6 a9 85 be 7b 80 17 3e
       -0.056858093 -0.09789098 -0.26106042 0.14795105
0001a0 b6 49 5b 3c 6f be 7e be d5 da f0 3d d5 f3 16 3e
       0.013384273 -0.24877332 0.11760489 0.14741452
0001b0 98 88 0d be 44 e7 bb bc a0 38 26 3d 7b 24 e1 bb
       -0.13821638 -0.022937424 0.040581346 -0.006870804
0001c0 c3 50 dd 3d d2 2d d8 bd 19 e4 47 3e ab ff f3 3d
       0.1080642 -0.105556145 0.19520606 0.11913999
0001d0 0a 80 29 3e b8 c3 e9 3d 6b 5b 8d 3d f3 f6 68 3c
       0.1655275 0.114142835 0.06902202 0.0142190335
0001e0 a7 f5 fa bd a8 f7 02 3e b1 95 68 bd 7a 81 d2 bd
       -0.12253886 0.12789786 -0.05678338 -0.10278602
0001f0 d7 82 90 bd 19 53 9f 3d 63 5a 81 3c 7c b4 fa 3a
       -0.07056206 0.077795215 0.01579017 0.0019127275
000200 cb fc cd 3c 7b e8 4c 3e e2 79 9c 3e 13 3f 64 be
       0.025144955 0.2001056 0.3056174 -0.22289686
000210 71 15 6b bd e7 c0 8d be 47 bc b7 3d 09 42 90 bc
       -0.057393495 -0.27686235 0.08971458 -0.017609613
000220 90 4c ae 3d 2c 04 bc 3d f8 57 b9 bd a5 8d 55 3e
       0.08510697 0.09180483 -0.09049982 0.20854814
000230 4d 36 9f bc 14 7d 1c bc f6 3a 76 bd 4f 7b fe bd
       -0.019435072 -0.009551305 -0.060114823 -0.12425863
000240 eb e2 52 be f3 a2 4a be 8b e2 21 bd d2 47 9a 3d
       -0.20594375 -0.19788723 -0.03952269 0.0753323
000250 3b 0e 25 3e 42 0a cb bc 91 3e 2a be 6b 5e a5 bb
       0.1611871 -0.024785165 -0.1662543 -0.005046656
000260 22 e1 59 be 49 98 26 be 36 03 24 3d 76 e3 ce bd
       -0.21277288 -0.1626903 0.040042125 -0.101019785
000270 ea b0 87 3c 75 d0 29 be 83 d7 48 bd 9c 13 97 bc
       0.016563851 -0.16583426 -0.049033653 -0.018441968
000280 79 bf 8e be 03 cf f3 bb 71 8c 8d bd 61 bf 71 3d
       -0.27880457 -0.007440449 -0.06911553 0.059020404
000290 08 90 df 3d 5f 72 d1 bd f9 5a 2b be 26 7f 2d 3e
       0.10916144 -0.10226893 -0.16733922 0.16943035
0002a0 a7 61 f1 3d 70 27 a3 3e 15 c7 94 bd 03 29 20 be
       0.11786204 0.31866026 -0.072645344 -0.15640645
0002b0 b4 72 0c bc c2 1b a3 3d 62 de a2 3c 64 6b 86 3d
       -0.008572269 0.07964279 0.019881431 0.06563452
0002c0 44 1f 09 be c9 3d e9 3b 88 c8 05 bd 34 35 50 be
       -0.13390833 0.007117961 -0.032661945 -0.20332795
0002d0 6f 82 69 bd db 95 21 3d 3d 24 1f bb 2e 20 5c 3c
       -0.057009157 0.039449554 -0.0024283074 0.013435407
0002e0 81 65 a3 3d f5 88 98 3d 49 cd 44 3e e7 58 3b 3e
       0.07978345 0.074479975 0.19218935 0.18295632
0002f0 3a 83 1a 3e a8 0b 87 3c 65 2a 05 3e 69 bf 1c be
       0.15089121 0.01648505 0.13004453 -0.15307392
000300 53 98 be 3d 5f 07 49 3d 1b b0 b6 3d b5 dc 70 be
       0.09306397 0.049079295 0.08920308 -0.23521693
000310 1d de ed 3c e5 5d de bd 96 39 7c bd a8 4b cf bc
       0.029036576 -0.10857753 -0.061578356 -0.02530463
000320 ba 9e 2a 3d 13 31 56 3d f1 09 60 be 23 57 00 3d
       0.04165528 0.052292895 -0.21878792 0.0313331
000330 72 46 b2 be 06 41 2e be ec bc 92 3d 4a a1 17 be
       -0.3481937 -0.17016992 0.0716494 -0.1480762
000340 d0 b3 7e 3e 0e 4e ef 3d 56 30 6b be 48 d0 92 bd
       0.2487328 0.116848096 -0.22967657 -0.07168633
000350 a3 14 55 be 57 95 21 bd e3 ac 54 3c 40 20 56 be
       -0.20808654 -0.039449062 0.0129806725 -0.2091074
000360 fc f1 f2 3d 10 68 c1 3d ea fe c4 3d 8e 57 58 bd
       0.11862561 0.094436765 0.096189335 -0.052817874
000370 9c c3 a9 3d a4 2d 43 bc 16 2f ba bd 6b 62 0d 3d
       0.08289263 -0.011912737 -0.09091012 0.034517687
000380 17 ae ba 3d bf 54 c1 bc bd d7 87 bd a5 85 27 3e
       0.09115236 -0.02359998 -0.06632946 0.16359575
000390 b0 e4 cf bd c4 47 92 bd fc a1 8d bd 2e 91 a1 3d
       -0.101510406 -0.071425945 -0.06915662 0.07889019
0003a0 e9 64 70 3d de c5 04 3e 08 eb 3b bd 69 8c 0f 3e
       0.058689985 0.12966105 -0.04587844 0.14018406
0003b0 bd 7d e3 3d e0 d0 64 bd 6f ea 76 bd 84 9e 01 3d
       0.11107967 -0.05586326 -0.060282167 0.031645313
0003c0 e6 54 fa bc 80 07 5f be 30 70 2a be f1 0b 97 bd
       -0.03055806 -0.21780205 -0.16644359 -0.073753245
0003d0 ac 40 db bd d7 b4 ab bb 2c 4c 8a 3d d7 14 3d bc
       -0.107056946 -0.0052400636 0.0675281 -0.011540613
0003e0 77 31 f0 3d 3f ed cd 3c 38 2f 4d be df 86 8a be
       0.11728185 0.025137542 -0.20037544 -0.27056023
0003f0 63 3a 2b 3e 04 8d d0 bc 4d 03 09 be 6f 59 06 3e
       0.16721492 -0.025457866 -0.13380165 0.13120054

model.4.bias f4 [128]
000000 cf 8a 0c 3c 0a d7 23 3c 0a d7 23 3c b4 c9 ee 3b
       0.008578016 0.01 0.01 0.0072872285
000010 d6 ef 0c 3c e8 ff 00 3c d4 59 58 3c 28 4f 23 3c
       0.008602103 0.007873513 0.01320501 0.009967603
000020 0a d7 23 3c 21 af 15 3c de f4 33 3c 1b 97 11 3c
       0.01 0.009135992 0.010983674 0.008886124
000030 65 61 50 3c 0a d7 23 3c 75 5a 51 3c 4b e8 2d 3c
       0.012718533 0.01 0.012777914 0.010614465
000040 9c 54 f5 3b 50 38 43 3c 9c 54 54 3c b9 05 50 3c
       0.007486893 0.011915281 0.012959626 0.012696677
000050 0a d7 23 3c 82 fd 4e 3c fb 42 20 3c 0c ab 3a 3c
       0.01 0.012633683 0.009781594 0.01139332
000060 28 e0 3e 3c 27 15 33 3c 0a d7 23 3c a2 08 02 3c
       0.011650123 0.010930336 0.01 0.007936629
000070 0a d7 23 3c 72 10 f1 3b 0a d7 23 3c 33 74 ee 3b
       0.01 0.0073566968 0.01 0.0072770356
000080 0a d7 23 3c 0a d7 23 3c 0a d7 23 3c 0a d7 23 3c
       0.01 0.01 0.01 0.01
000090 58 76 f4 3b 0a d7 23 3c ee b8 e6 3b 0a d7 23 3c
       0.0074603967 0.01 0.0070410883 0.01
0000a0 bd c1 25 3c b4 b6 12 3c db 71 51 3c 9f 65 12 3c
       0.010116992 0.008954693 0.012783493 0.008935361
0000b0 70 1f 4a 3c 0a d7 23 3c 80 0c 0f 3c 57 55 55 3c
       0.012336597 0.01 0.008731008 0.013020835
0000c0 8e 81 4f 3c 66 02 36 3c 1d 43 51 3c 8a 0b 23 3c
       0.012665166 0.01110897 0.012772349 0.009951482
0000d0 3c b8 4f 3c 4e 32 3d 3c ad 61 08 3c b3 d5 32 3c
       0.012678202 0.011547638 0.008324069 0.010915208
0000e0 b2 dc 1b 3c b6 de 18 3c eb 8f 51 3c 59 35 4a 3c
       0.009513067 0.009330442 0.01279066 0.012341821
0000f0 2e 37 40 3c 4c 6c 20 3c 5f 6f 45 3c 5a 9e 40 3c
       0.011731906 0.009791445 0.012050479 0.011756504
000100 87 61 36 3c 0a d7 23 3c 0a d7 23 3c 0a d7 23 3c
       0.011131651 0.01 0.01 0.01
000110 53 96 fb 3b 4b 04 13 3c 03 cc 4a 3c 44 c0 07 3c
       0.007677832 0.0089731915 0.012377742 0.008285586
000120 0a d7 23 3c 0a d7 23 3c 45 3f 46 3c 16 28 41 3c
       0.01 0.01 0.012100046 0.011789342
000130 0a d7 23 3c 6d ce 26 3c 0a d7 23 3c df 73 1d 3c
       0.01 0.010181052 0.01 0.009610145
000140 3b 2f f8 3b 69 cd 03 3c 43 ee 4a 3c 81 98 2e 3c
       0.0075739897 0.008044579 0.012385908 0.010656477
000150 e2 94 01 3c 84 cf 0c 3c a7 9f 42 3c e5 45 54 3c
       0.007909032 0.008594397 0.011878884 0.012956117
000160 0a d7 23 3c 57 ad 50 3c 92 1a 4f 3c f5 e9 4c 3c
       0.01 0.01273664 0.012640612 0.012506952
000170 56 20 1c 3c 0a d7 23 3c b2 c0 06 3c d4 a0 25 3c
       0.009529194 0.01 0.008224653 0.010109145
000180 e4 60 31 3c 12 a6 54 3c fd 42 42 3c 0a d7 23 3c
       0.010826323 0.012979047 0.011856792 0.01
000190 77 b2 24 3c 52 f0 5a 3c 0a d7 23 3c 81 a0 0e 3c
       0.010052315 0.013362961 0.01 0.008705259
0001a0 7a a8 20 3c 0a d7 23 3c b8 b4 4f 3c 93 2b f6 3b
       0.009805793 0.01 0.012677364 0.0075125187
0001b0 d6 08 01 3c ce 14 08 3c 37 69 3d 3c c7 b5 54 3c
       0.007875642 0.0083057415 0.01156073 0.012982792
0001c0 2e 25 32 3c ec 9f 4c 3c 0a d7 23 3c 84 c4 0b 3c
       0.010873122 0.0124893 0.01 0.00853074
0001d0 0a d7 23 3c 76 ad 2e 3c 0a d7 23 3c 42 8e fe 3b
       0.01 0.0106614735 0.01 0.0077684233
0001e0 0a d7 23 3c 0a d7 23 3c cb c2 1d 3c 10 01 43 3c
       0.01 0.01 0.009628962 0.011902109
0001f0 0a d7 23 3c 8c f9 f6 3b 72 f0 36 3c 5f 48 1a 3c
       0.01 0.0075370725 0.011165725 0.009416669

model.6.weight f4 [128, 128]
000000 6b 71 24 be 3b 5f 71 3b 35 86 72 bc de e5 1b bd
       -0.1605889 0.0036830443 -0.014802505 -0.038061015
000010 df dd 6c bc 27 91 9f bc 99 76 a8 3e 96 1e b1 bd
       -0.014457195 -0.019478394 0.32902983 -0.08648412
000020 79 a9 16 3e 61 8f 95 3e 8c d1 53 bd c3 72 fa bc
       0.14713086 0.29210952 -0.05171351 -0.0305723
000030 2a 14 92 bd 6f c6 bd 3d 2e 34 12 bc 7c 49 ee bc
       -0.07132752 0.09266364 -0.008923573 -0.029087774
000040 89 e7 88 3d 2f 2f 77 be 01 45 cc 3c 7f af e3 bd
       0.06684787 -0.24139093 0.024935247 -0.111174576
000050 e3 10 d1 3d 60 8a ce 3c 36 77 1d bd bc 88 04 bb
       0.10208299 0.025212467 -0.038443767 -0.0020223102
000060 11 a7 ca 3c 3f c0 92 bd b5 be e1 bd 3b fa c8 3d
       0.024737867 -0.07165574 -0.110227026 0.09813353
000070 de 3c ac 3e c1 48 e1 bd 24 73 6a be 08 cd de 3c
       0.33640188 -0.11000205 -0.22895485 0.027197376
000080 82 f3 4f 3e 88 be 1e 3e f8 77 c0 bb 76 4a 39 bb
       0.20307735 0.1550237 -0.0058736764 -0.0028273142
000090 86 c3 af 3d f1 8e 6f bb 1b 64 5e be aa 0c be 3d
       0.08582215 -0.0036553706 -0.21717875 0.09279759
0000a0 2b c7 99 3c 06 f2 9d be 56 18 8a 3d c6 b9 62 3e
       0.018771729 -0.30848712 0.06742923 0.2214118
0000b0 7f 0e 33 3e 36 b1 77 3c 00 0e 70 3d 1b 9e 29 3d
       0.17485999 0.015117934 0.0586071 0.041410547
0000c0 c3 af f7 bd c6 78 64 3e a3 d9 7b 3c d2 eb 1d bc
       -0.12094071 0.22311696 0.015371713 -0.0096387435
0000d0 8f d5 b4 bd f9 d0 07 3e 72 9a f2 3d a5 a4 81 bd
       -0.088297956 0.1326331 0.11845864 -0.063302316
0000e0 d7 92 04 be 99 bf 99 3d 8b ea 5e bd 20 2d f1 bd
       -0.1294664 0.075072475 -0.054422896 -0.11776185
0000f0 f3 bd d0 bd 97 25 25 3c 88 17 1a 3e 7e c1 69 3e
       -0.1019248 0.010079763 0.15048039 0.22827718
000100 74 82 84 3d 13 89 4a 3c 85 29 3f 3d ff e3 d1 bd
       0.064701945 0.012361783 0.046670455 -0.10248565
000110 e3 ef 09 3e 4b f4 11 bd 97 94 87 bd 8b d2 4f bd
       0.13470416 -0.035633367 -0.06620138 -0.0507379
000120 80 cc 86 bc a4 55 85 3e c6 d6 b2 bc 86 04 8d bb
       -0.016454935 0.260419 -0.021830928 -0.0043035178
000130 a2 20 f9 bc a8 7f f3 3d 2b 34 95 3d 83 cc a4 bd
       -0.030411068 0.11889583 0.07285341 -0.0804682
000140 6c 06 89 bc 83 40 4c bd ff 92 6d 3d 42 07 84 3a
       -0.016726695 -0.04986621 0.058001515 0.0010072964
000150 ca 9f cf bd 9c 49 99 bd ec a5 af bd e1 fd 5b bd
       -0.10137899 -0.07484743 -0.08576569 -0.053708915
000160 cd de 00 3e 72 dc 7e bd 30 18 a1 be dc 8f 66 be
       0.12584992 -0.06222195 -0.31463766 -0.22515815
000170 34 90 a5 bd 68 6d 98 3d d1 1d 10 3e b3 3e 8c bd
       -0.08084145 0.074427426 0.14073874 -0.068478964
000180 c2 8b b1 bd ce 0d 62 be f5 12 69 bd e3 f4 8e 3c
       -0.08669235 -0.22075579 -0.056902844 0.017450755
000190 e2 c0 ce 3d a6 69 5a be b4 4a 80 be 81 bc 56 bd
       0.10095383 -0.21329364 -0.25056994 -0.052425865
0001a0 c4 87 45 3e 08 1a 20 3e 94 49 29 ba ec cd 91 3d
       0.19290072 0.1563493 -0.00064578024 0.071193546
0001b0 02 4e cf 3d 6c f5 b0 bd 1c ba 11 be 8c 47 73 bd
       0.10122301 -0.086405605 -0.14231151 -0.059394404
0001c0 a3 a3 92 3e 32 bd b2 bd 0d 8e 0d bd 8e ab d3 3c
       0.2864047 -0.087274924 -0.0345593 0.02583864
0001d0 d8 15 19 be 6f fd 27 bd ce 5e 74 3e ed 02 73 be
       -0.14949739 -0.041013177 0.2386429 -0.23731585
0001e0 c5 fe 4c bd 04 35 28 3d 8e cb b1 bd 8c dd 6d bd
       -0.050047655 0.041066185 -0.08681403 -0.05807261
0001f0 bb b5 25 3d 0e dd 9c be ea 86 85 bc 99 74 24 bd
       0.040456515 -0.306374 -0.016299684 -0.04015026
000200 73 01 2d 3e 59 0d 71 3c e2 c7 44 3d e4 b8 39 3d
       0.16895084 0.014712655 0.048042186 0.04534234
000210 e9 73 a6 3d 52 2a d0 bd c8 d6 10 bd f8 07 38 3e
       0.08127577 -0.10164322 -0.03536108 0.1797179
000220 cd f6 2f 3d cd b6 d0 bd fd 8b 12 3d d5 f0 68 3e
       0.042959977 -0.101911165 0.035778034 0.2274812
000230 9d d5 b1 3d 64 df 85 3c 8e 41 97 3c 3c 9d b6 bd
       0.086833216 0.016341873 0.018463876 -0.08916709
000240 01 04 53 bd d3 55 15 be 3a 63 7e bb 8e bc 08 3e
       -0.05151749 -0.1458352 -0.0038816468 0.13353178
000250 c3 65 13 3d de 80 7c bd 1a 52 13 3c 63 78 09 be
       0.03598572 -0.061646335 0.0089917425 -0.1342483
000260 53 96 3f be ff 7b 85 bd 33 cb 06 3e 37 59 78 3e
       -0.18709688 -0.06517791 0.13163452 0.24252783
000270 95 2a 1d 3d 90 24 7a 3d c8 fa 34 3e 78 ed c6 bd
       0.038370688 0.061070025 0.1767379 -0.09713262
000280 fa e3 22 bc b0 96 99 3d f9 5f 81 3d 0b 95 8d 3e
       -0.009942049 0.074994445 0.063171335 0.27652773
000290 a8 a2 bb bc 97 1c b9 3d f1 bf 83 bd b0 a7 5d be
       -0.022904709 0.09038656 -0.06433094 -0.21645999
0002a0 8a 93 8c bc 9c 8e 89 3c 9f 33 00 3d da 81 ec 3c
       -0.017160196 0.016791634 0.03129923 0.028870512
0002b0 03 07 cf 3d 19 c1 35 bc 5e dc 88 3d ae c2 48 be
       0.10108759 -0.011093401 0.06682657 -0.19605514
0002c0 07 3f 89 bd b8 f3 e3 bc 5a b7 12 3e ca e1 5b 3d
       -0.06701475 -0.027826175 0.14327756 0.053682126
0002d0 b9 cb 5e bc 04 41 af bd ac 59 b5 bd d5 24 20 be
       -0.013598376 -0.085573226 -0.08854994 -0.1563905
0002e0 c2 8f e6 bc 7e c1 8d bd 53 ce 71 3e 2e f3 2d bc
       -0.028144721 -0.06921671 0.23613863 -0.010617061
0002f0 4f 60 6a 3e 3b 0e fb 3c 3c b0 e5 bd 4f 97 87 be
       0.22888301 0.030646434 -0.11215255 -0.26482627
000300 58 56 4a 3c 1d f9 39 be c4 d8 c9 bd 51 fe 41 be
       0.0123496875 -0.18161435 -0.09855798 -0.1894467
000310 2d be 93 bc b1 9d 6a be 0b 56 36 bd f0 b4 1b 3d
       -0.018035019 -0.22911717 -0.04451565 0.038014352
000320 75 06 19 bd 21 e2 3d bd 49 68 25 bd ba f1 b7 3d
       -0.037359674 -0.04635823 -0.040382657 0.089816526
000330 7d db 20 bd b5 ef 25 3e 4b 88 4e 3d da 80 91 3e
       -0.03927182 0.16204722 0.050422948 0.28418618
000340 7d 08 35 3c 09 5d 0b bd 8f b7 84 bd 0c 70 c4 3c
       0.011049387 -0.034024272 -0.064803235 0.02397921
000350 b8 9d 2e bd e1 02 a8 bc 0f 22 06 be 71 9f 07 3a
       -0.04263088 -0.020509185 -0.1309893 0.00051736
000360 a4 98 e2 bd 1a 94 05 3c 15 cf 8f 3d a5 1c 99 3e
       -0.1106427 0.008152986 0.0702192 0.29904667
000370 94 f2 9b bd de 02 c6 3d 51 35 a7 bb 72 d3 f7 bd
       -0.076146275 0.096685156 -0.0051027914 -0.12100877
000380 bb fa 47 3d f8 84 81 3d 69 ab 89 bc 75 12 43 3e
       0.0488231 0.0632419 -0.016805368 0.1905001
000390 01 9b d0 bd cb 2b 04 be 87 0e 94 be 4c fb da bc
       -0.10185815 -0.1290733 -0.28917333 -0.026731156
0003a0 2a 50 0e 3e ca 7e 36 3d 8f b5 1c bd 36 db 74 bd
       0.13897768 0.04455451 -0.038259085 -0.05977937
0003b0 fd d2 17 bb ac 79 1a be e0 2c f5 3c 41 04 31 bd
       -0.002316653 -0.15085477 0.029928625 -0.043216947
0003c0 c0 c8 b0 bb da f3 08 3e 77 91 36 be 8a e5 fb bc
       -0.005395025 0.13374272 -0.17828928 -0.030749101
0003d0 08 8e 81 3d 6f c9 d4 3b 2c 1d 90 be 5b 3c 0e 3d
       0.063259184 0.0064937393 -0.28147256 0.03472553
0003e0 e7 0a 88 be 71 52 c0 3b 0f e8 28 be 62 d6 e4 ba
       -0.26570818 0.005869203 -0.16494773 -0.0017458911
0003f0 85 90 b6 3d 50 15 4c be 55 96 dd 3d 24 e7 85 be
       0.08914284 -0.19930005 0.10819689 -0.2615291

model.6.bias f4 [128]
000000 0a d7 23 3c 0a 0d 4e 3c 0a d7 23 3c 14 87 19 3c
       0.01 0.012576351 0.01 0.009370584
000010 65 f4 0c 3c 0a d7 23 3c 58 dd 5a 3c c3 b7 40 3c
       0.00860319 0.01 0.0133584365 0.011762562
000020 42 18 4f 3c 34 06 d0 3b 57 f8 04 3c df ee 10 3c
       0.012640061 0.0063483957 0.008115849 0.008846014
000030 8c 5f e2 3b b7 d7 1b 3c c1 9f 0c 3c 6a a1 52 3c
       0.0069083627 0.00951188 0.00858301 0.012855867
000040 a7 57 3d 3c ad af 07 3c 45 26 37 3c 29 25 59 3c
       0.0115565425 0.00828163 0.011178558 0.013253489
000050 3f 8e 5f 3c 79 d7 5d 3c 46 07 5d 3c 0a d7 23 3c
       0.013644754 0.013540142 0.013490504 0.01
000060 0a d7 23 3c 0a d7 23 3c 0a d7 23 3c 51 66 4f 3c
       0.01 0.01 0.01 0.0126586715
000070 0a d7 23 3c 86 36 5b 3c 65 44 54 3c d8 c1 09 3c
       0.01 0.013379699 0.01295576 0.008408032
000080 55 3a eb 3b 95 0f 3d 3c 0a d7 23 3c 21 07 5c 3c
       0.0071785846 0.01153936 0.01 0.013429434
000090 81 cd 34 3c 6a 03 0c 3c 1d 4c 03 3c 0a d7 23 3c
       0.011035324 0.008545736 0.008013752 0.01
0000a0 0a d7 23 3c b4 a2 10 3c fc ea 61 3c db c0 41 3c
       0.01 0.008827854 0.013788935 0.0118257655
0000b0 aa 0b 57 3c fd 57 f3 3b d8 28 4e 3c d5 d0 ea 3b
       0.0131253395 0.0074262605 0.01258298 0.007166008
0000c0 92 3c f5 3b ea cf 3c 3c 01 0a 4a 3c 53 fd ec 3b
       0.007484027 0.01152418 0.012331487 0.007232347
0000d0 20 c6 d7 3b 35 8e e2 3b 57 e9 d9 3b 45 27 54 3c
       0.0065848976 0.006913925 0.0066501307 0.012948816
0000e0 2a a5 22 3c 84 64 55 3c 01 ac 5a 3c 0a d7 23 3c
       0.0099270735 0.013024453 0.013346673 0.01
0000f0 08 8f f4 3b 0a d7 23 3c 0a d7 23 3c 64 91 54 3c
       0.0074633397 0.01 0.01 0.012974117
000100 0a d7 23 3c b0 ed 42 3c 4d d2 5c 3c 0a d7 23 3c
       0.01 0.011897489 0.013477874 0.01
000110 95 b8 5e 3c 08 d4 5c 3c db 61 5d 3c 6d af 1a 3c
       0.0135938125 0.013478287 0.0135121 0.009441239
000120 0a d7 23 3c 33 39 f3 3b 99 c8 fb 3b bf 79 1a 3c
       0.01 0.00742259 0.007683825 0.009428441
000130 0a d7 23 3c e1 3f 0e 3c 90 74 03 3c 4a bf 57 3c
       0.01 0.008682222 0.008023396 0.013168165
000140 7c 70 0c 3c 42 e5 5e 3c 8e ea e9 3b c7 12 11 3c
       0.00857174 0.013604464 0.007138557 0.0088545745
000150 0a d7 23 3c 08 be 16 3c 0a d7 23 3c 0a d7 23 3c
       0.01 0.00920058 0.01 0.01
000160 f5 d3 e4 3b a2 24 f6 3b eb a8 0f 3c 5b 44 ef 3b
       0.006983275 0.007511691 0.0087683005 0.00730185
000170 0a d7 23 3c 00 d1 36 3c 04 9a 11 3c df 03 54 3c
       0.01 0.011158228 0.008886818 0.012940376
000180 52 8b 5c 3c 7a 50 06 3c ec 86 dc 3b 14 f2 4c 3c
       0.013460951 0.008197898 0.006729951 0.012508888
000190 0a d7 23 3c 0a d7 23 3c 48 56 d6 3b 20 4a 52 3c
       0.01 0.01 0.0065410472 0.012835056
0001a0 0a d7 23 3c c5 8d 1a 3c 91 a4 4d 3c 40 1e d1 3b
       0.01 0.009433215 0.012551443 0.00638178
0001b0 b0 85 05 3c 90 df 5c 3c f1 93 dd 3b 0a d7 23 3c
       0.008149549 0.013481036 0.0067620208 0.01
0001c0 0a ed f4 3b df bb 5c 3c 4f 9d fa 3b b9 3b 3f 3c
       0.0074745463 0.013472526 0.007648147 0.011671954
0001d0 73 a3 01 3c 0a d7 23 3c f0 14 d5 3b 86 92 5b 3c
       0.0079125045 0.01 0.00650274 0.013401633
0001e0 be 1b e5 3b 29 3b 19 3c be a0 08 3c 0a d7 23 3c
       0.0069918325 0.009352484 0.008339105 0.01
0001f0 08 ad ff 3b 93 97 1d 3c 0a d7 23 3c ec 93 e4 3b
       0.0078026094 0.009618658 0.01 0.0069756415

model.8.weight f4 [3, 128]
000000 fb 2f 3a bd fe 8c 56 3e f2 cc 0a 3e 00 47 e9 3c
       -0.045455914 0.20952222 0.13554743 0.028476238
000010 47 ca b3 3d 50 45 a3 bd 71 d6 88 bd c8 5a 0d 3e
       0.08778816 -0.07972205 -0.066815265 0.13804162
000020 93 0d a2 bc eb 84 9d 3e 5d 10 72 bc 37 ee db bc
       -0.019781863 0.3076547 -0.014774409 -0.026846988
000030 f9 1f 80 bd 44 9b b0 3d 56 49 31 be 47 2b c8 bc
       -0.06256098 0.086233646 -0.17313132 -0.024434699
000040 db d3 14 3c be c1 6e 3d b5 07 8a 3e c8 93 64 3e
       0.009083713 0.058290236 0.26959005 0.22321999
000050 63 db 23 be ef 4f 1d bd 2c 18 f5 bd 2c 47 b2 bd
       -0.16001658 -0.03840631 -0.11967501 -0.08704981
000060 be e2 05 bd 9a 92 2c 3e 71 2a 32 3e f4 84 10 be
       -0.03268694 0.16852799 0.17399003 -0.14113218
000070 87 2e 67 be 32 73 3b be 66 04 d4 bd 16 6b 11 be
       -0.22576343 -0.18305662 -0.103524014 -0.14201006
000080 8c 0f 4f bd 42 c7 53 3c 79 cc a0 3d c4 cf 29 be
       -0.050551936 0.012925925 0.078515 -0.16583163
000090 b8 10 aa bd 50 6a 99 bd f4 58 a8 3d 02 40 02 be
       -0.0830397 -0.074909806 0.082200915 -0.1271973
0000a0 ca ac 83 bd 42 43 3b be d1 30 33 be 06 b6 ac 3e
       -0.06429441 -0.18287376 -0.1749909 0.33732623
0000b0 ef 73 29 be 8a b8 af 3d ce 9e 5f bd ba a3 0a 3e
       -0.16548131 0.0858012 -0.054594807 0.13539019
0000c0 9f a9 39 3e c7 67 25 be b0 ee 1e 3e 13 5c 0f be
       0.18131112 -0.16152869 0.1552074 -0.13999967
0000d0 4f 9b ae 3c cf a8 c4 bd d0 bf 0c 3e f7 d5 92 3d
       0.021314291 -0.0960251 0.13745046 0.07169717
0000e0 48 60 4b bd e7 19 26 3d 3d ef 1f be 30 68 8b 3c
       -0.049652368 0.040552046 -0.15618606 0.017017454
0000f0 1f b2 53 3d 00 77 2b be c5 fc aa 3d 16 53 22 be
       0.05168354 -0.16744614 0.08348993 -0.15852007
000100 a1 9d 64 be 11 5c 43 bd 5d 2d 0a be 15 58 20 3d
       -0.22325756 -0.047695223 -0.13493867 0.0391465
000110 67 6c 22 bd 87 e1 a9 3d 75 79 e7 bd 8b d6 8c 3c
       -0.03965416 0.08294969 -0.11302463 0.017192146
000120 c5 e1 38 3d db 44 77 be 22 7e c9 bd 7d a8 83 bc
       0.045137186 -0.2414736 -0.09838511 -0.016071552
000130 02 16 94 ba 6c 98 ac bd cb 20 10 3c ca a4 ab 3b
       -0.0011298063 -0.0842751 0.008796881 0.0052381502
000140 2e 0c 38 bc 2b 38 10 be b1 08 82 3d 67 aa 9d bd
       -0.011233373 -0.14083926 0.06349314 -0.07698517
000150 e7 16 dd bd 53 22 ac 3d cf e2 16 be 99 92 6e 3c
       -0.10795384 0.08404984 -0.14734958 0.014561319
000160 dd ba 30 3e 62 60 00 3b 3a 16 f9 3b 28 d6 e0 3c
       0.17258783 0.0019588699 0.0076015266 0.027445868
000170 7a 1d 67 3e e0 dc 25 be f2 ed 64 bd f4 dd 07 3e
       0.22569838 -0.16197538 -0.055890985 0.13268262
000180 41 34 22 be bb 9b f9 bd a6 61 9e 3c 2d 60 2b 3e
       -0.15840246 -0.12187906 0.019333672 0.16735907
000190 6b d9 06 be 52 40 2a 3e 98 3b f7 bc 45 7d c0 bd
       -0.13168876 0.16626099 -0.030179784 -0.09398893
0001a0 e3 b1 65 be 26 21 97 3d a8 57 ea bd 0b c8 77 3e
       -0.2243114 0.073793694 -0.114425 0.24197404
0001b0 f9 99 46 be 14 ad 60 bd a7 c9 36 bc 7e 42 8a 3d
       -0.19394673 -0.05485256 -0.011156476 0.06750964
0001c0 7d f2 44 3c 49 3c a4 3d 53 bf e9 bb 53 44 8f bd
       0.012020704 0.08019311 -0.0071334033 -0.06995454
0001d0 9d db 33 bd ae ad 6a 3d 21 1c fb 3d 31 14 17 be
       -0.04391061 0.05729454 0.122612245 -0.14753796
0001e0 e8 aa 39 3d bf 8d 03 be a3 7e c1 bc dc f7 19 3e
       0.045329005 -0.1284704 -0.023619955 0.15035957
0001f0 22 78 b5 bc e4 1c b0 bb 32 67 9e bd 64 5a 83 3d
       -0.02215201 -0.005374538 -0.07734527 0.06413725
000200 17 92 d3 bd 73 9d 8b be 2a ad 4a 3b 72 f3 d1 3d
       -0.10330599 -0.27268562 0.0030925968 0.10251512
000210 e0 98 16 be d1 17 16 3e 5e 7a 98 bc e9 f2 77 3d
       -0.14706755 0.14657523 -0.018613037 0.06053439
000220 47 52 34 3d 72 d8 8c bd d3 ae ad 3d 8e d6 c7 3d
       0.04402378 -0.06877221 0.08480611 0.0975772
000230 67 d9 94 be f4 cd 9b bc 85 a4 04 3d a8 58 5b 3d
       -0.29072115 -0.019019105 0.03238346 0.053551346
000240 b7 82 3d 3d 94 23 ec 3d 97 a3 88 3d 8c f1 0b 3c
       0.046267238 0.115302235 0.06671827 0.008541476
000250 3f 13 36 3d 4e 95 f1 3d e4 6e 95 bd 9c 3a da 3c
       0.04445195 0.11796056 -0.07296541 0.026639275
000260 9c fb 24 3e d1 6e e7 bc ff c5 85 bd f2 51 88 bd
       0.16111606 -0.028251084 -0.065319054 -0.06656255
000270 26 97 85 b9 de fb 8c 3d 08 51 d3 3d 8a 7a 3d 3d
       -0.0002548035 0.06883977 0.1031819 0.04625944
000280 68 05 c6 bc 88 45 b5 bd d0 52 4c 3d c7 f4 0d bd
       -0.0241725 -0.08851153 0.049883664 -0.034657266
000290 70 8b 72 3d b3 6f b2 3d 91 e5 f6 bc 57 1c d0 3d
       0.05921501 0.08712711 -0.030138763 0.101616554
0002a0 53 89 66 be 79 05 6c 3e 3e 3b 01 3d 93 c8 2f 3e
       -0.22513323 0.23048963 0.03155064 0.17166357
0002b0 f4 73 91 3d 16 70 0e bc 38 ef 90 be 1c 63 0e bc
       0.071021944 -0.008693716 -0.2830751 -0.008690622
0002c0 3c da 46 bc 5e 0f ab 3b ea c1 17 be 19 57 ed 3c
       -0.012136992 0.005220338 -0.14820066 0.028972195
0002d0 82 81 d0 bd 0c 9e 70 3e 50 80 ad 3d 76 bf 1a bd
       -0.10180952 0.2349779 0.08471739 -0.037780248
0002e0 2f 57 26 3e b1 62 35 be fe 63 0e be aa d2 5d bc
       0.16244195 -0.17713429 -0.13905331 -0.013538996
0002f0 6b a8 9e 3e b9 a0 09 3e 6b a5 7a 3d 84 00 0e bc
       0.30987868 0.13440217 0.06119291 -0.008667115
000300 d9 3e 7a 3d d8 5a b8 3d 03 3c dc ba 4b 2d 70 bd
       0.061095092 0.09001702 -0.0016802553 -0.058636945
000310 70 f3 37 bb cc e6 63 bd 03 e9 83 3d b6 51 ac bd
       -0.0028068684 -0.055640027 0.06440928 -0.084140226
000320 a9 9a 15 3e e7 cd cd 3d 77 3c c2 3c 65 a1 17 be
       0.1460978 0.100490384 0.023710473 -0.14807661
000330 2c 37 a0 bd 4e 30 28 3e 24 bf a4 3e 3b 59 5e bd
       -0.07823023 0.16424677 0.3217708 -0.054284316
000340 d5 c6 9f bd c2 bd fa b9 32 b1 36 3e 85 3f b6 3d
       -0.07801596 -0.00047825096 0.17841032 0.08898834
000350 67 29 b3 3c 84 95 13 3e 03 ea 44 3d fc 3e e6 bd
       0.021870328 0.14412504 0.048074733 -0.11242482
000360 39 8a 0d bd 1c fd 90 bd 84 95 cb 3e 87 c1 06 3d
       -0.034555648 -0.07079527 0.3976251 0.032899406
000370 1a 0a 02 3e 49 76 59 bd b4 39 b1 bd 60 0b 20 bd
       0.12699166 -0.05309132 -0.08653584 -0.039073348
000380 57 de e7 3d fd 0a ef bd f8 3b 80 be bd 3d b6 3d
       0.11321705 -0.11672018 -0.25045753 0.088984944
000390 6d af 85 bc 1c e4 8a be 12 bd 18 be b7 ff 4b 3e
       -0.016319001 -0.2712716 -0.14915875 0.19921766
0003a0 85 e0 21 3e 38 7d 2f be bb 56 4f 3e 3d dd 83 3d
       0.15808304 -0.17137611 0.20247929 0.06438682
0003b0 7d b5 dc 3d 02 54 c0 3d f0 1d 1b 3c d6 a3 ca 3e
       0.10776804 0.09391023 0.009467587 0.39578122
0003c0 17 dc 0e 3e e0 2d 08 3e 32 47 cc b7 53 bb ba bd
       0.13951145 0.1329875 -2.4351848e-05 -0.091177605
0003d0 96 6e f6 3d ae 3f 13 3e 47 f0 42 bc 91 9f 9a bc
       0.12032811 0.1437976 -0.011898107 -0.018874915
0003e0 2e ab 22 3d 9c 0a 34 3e 08 98 21 3e e9 f1 b5 be
       0.03971403 0.17582172 0.15780652 -0.35536125
0003f0 4b 45 36 3e 09 da 51 bd 83 0b 1e be 80 c0 c2 bd
       0.1779987 -0.051233325 -0.15434079 -0.09509373

model.8.bias f4 [3]
000000 d5 2b cf 3b ef 69 1c 3c 20 cf 59 3c
       0.006322364 0.009546741 0.013294011
