p2_actor_envs_2_lam_0_9922430370674816_gamma_0_9650092319605733_t_1332_a_lr_0_0005524869359673548_c_lr_0_0009210095329147815.pth (torch, 209886 bytes, 10 tensors)

model.0.weight f4 [128, 6]
000000 47 aa 81 bf 33 2c 86 bf a4 43 d9 3d ba 81 35 3f
       -1.013009 -1.0482239 0.106086046 0.7090107
000010 24 cc 6c 3e 02 50 ad be f1 46 91 3e 7f 65 54 3e
       0.23124748 -0.33850104 0.28374436 0.20741843
000020 4f 07 36 3f d5 29 2b 3f 08 3d 2a 3e dd 49 34 3f
       0.711049 0.66860706 0.16624844 0.70425206
000030 b0 0c 6f bf 57 64 ed be 8e 94 23 3f d1 fb 89 be
       -0.93378735 -0.46365616 0.6389855 -0.26949933
000040 2c 80 66 bf 1e e8 55 bf 4a 05 f1 3e b7 ff 35 bf
       -0.90039325 -0.8355731 0.47074348 -0.71093315
000050 b2 44 82 3e 22 ee 6a 3f 1e cf 3b 3e 1a 4e 38 bf
       0.25443035 0.9176961 0.18340728 -0.71994174
000060 d5 26 67 bf 51 da 22 3f 45 27 61 3e df 67 0b 3f
       -0.9029363 0.63614374 0.21987636 0.5445537
000070 3c f6 03 bf 54 2f 74 be f7 45 02 3f e7 24 ff be
       -0.515476 -0.23846179 0.5088801 -0.49832842
000080 28 77 21 3e 99 34 a9 3e 25 22 be be ac 70 c0 3f
       0.15768111 0.3304794 -0.37135425 1.5034385
000090 ae 60 aa 3e e1 45 9b be df b1 bb 3e 90 82 a0 3e
       0.33276886 -0.3032675 0.36659142 0.3134961
0000a0 15 67 e6 be a2 e1 47 3e 45 0f 56 3f 98 6b 11 3f
       -0.4500052 0.19519666 0.8361705 0.568048
0000b0 ca 59 1d 3e 44 77 5a bf 26 8a ba be be 66 a5 3e
       0.15366283 -0.85338235 -0.36433524 0.3230495
0000c0 12 76 04 3e 4e ec 6c bf 74 22 d3 be 48 b2 66 bf
       0.12935665 -0.9254807 -0.41237223 -0.90115786
0000d0 c6 77 40 bf e3 58 6d be 79 01 5c 3e ce 2c 1e 3f
       -0.7518276 -0.23178439 0.21484937 0.61787117
0000e0 a8 e7 e8 3d 2b 00 0f be 3d 76 a5 bf 93 bb 92 bf
       0.1137231 -0.13964908 -1.2926708 -1.1463493
0000f0 80 c5 0b 3e 08 ad f4 3e 9d 12 17 3f 71 b2 03 bf
       0.13649559 0.47788262 0.59012777 -0.51444155
000100 94 56 f5 be 1a 58 44 bf c9 e8 81 be d1 a5 f6 be
       -0.47917616 -0.7669693 -0.25372913 -0.48173383
000110 94 f7 4f 3f c8 14 ca be 15 6b 6e 3e 38 05 2b bf
       0.8123715 -0.3946898 0.23283036 -0.6680484
000120 c9 be 8e be d7 ff 51 3f a6 09 9e be 74 29 ad 3e
       -0.27879933 0.82031006 -0.30866736 0.3382069
000130 f4 5e 02 3f 92 5d ca 3e 81 6d 55 be 28 21 48 3f
       0.50926137 0.39524513 -0.20842554 0.7817559
000140 36 38 af 3e 02 6b a4 3e 6d fe cc be 5e 8f 85 3e
       0.34222573 0.3211289 -0.4003786 0.26085943
000150 38 41 a0 3d 2b 19 b9 bc 24 44 8c bf 9c 5d 97 be
       0.078249395 -0.022595009 -1.0958295 -0.29563606
000160 b0 40 03 3e 73 90 aa 3f 51 f3 82 3d ec 93 96 3e
       0.12817645 1.3325332 0.06394065 0.2940973
000170 fa ac 90 3e cc b5 2f bf a1 a9 a3 3e e1 7a 68 be
       0.2825697 -0.68636775 0.31965354 -0.22703125
000180 cb 18 da be 0f d4 df 3e 25 5b f1 3e 63 8d 86 bf
       -0.4259704 0.43716475 0.4713985 -1.0511898
000190 d9 be cd 3e b0 4c 9d be a0 3c ad bc 77 6a b4 3f
       0.40184668 -0.3072257 -0.021147072 1.409499
0001a0 49 23 1c 3f 38 ce 4c bf 62 22 cb bf 49 fd 0c be
       0.6099134 -0.80002165 -1.5869868 -0.13768496
0001b0 3b a8 95 bf 2e 95 f9 3c 8c 3b 82 3f 7d f4 17 bf
       -1.1691965 0.030466642 1.0174422 -0.59357435
0001c0 d7 66 bc 3e 33 f9 49 3f f1 34 12 be bd ca 6d 3f
       0.3679721 0.7889587 -0.14278008 0.9288748
0001d0 ee 62 0a bd 60 2c c2 3e 87 b6 a2 3e b0 81 20 3f
       -0.033785753 0.3792448 0.31779882 0.6269789
0001e0 e7 10 d8 be cd b2 56 bf b8 52 12 3f 3c c3 13 bf
       -0.42200395 -0.8386658 0.5715747 -0.5771978
0001f0 80 9b 01 bf 8a 6b f1 be 91 46 1e 3f d4 1e 7a bf
       -0.506279 -0.47152358 0.61826426 -0.9770329
000200 5e d2 95 3f 32 b5 82 bf 1b a0 b7 3c d3 33 32 3f
       1.1704824 -1.0211546 0.022415211 0.6961033
000210 bf ac 09 3e b7 80 c0 3e 47 7d 34 bf f4 f5 67 3f
       0.13444804 0.37598202 -0.7050366 0.9060967
000220 70 55 5e bc bd 4b 20 3f b5 f4 fe be 38 9f 63 bf
       -0.013570175 0.6261557 -0.49796072 -0.88914824
000230 4f fd 31 bf 21 7f 09 bf 17 37 5a 3e 51 17 60 bf
       -0.69527143 -0.5370961 0.21310078 -0.8753558
000240 d7 12 c1 be 91 8f 15 3f 73 82 c9 be 2f 28 46 3e
       -0.37709686 0.5842219 -0.39357337 0.19351266
000250 68 2d c7 be 49 86 5c bd ba 2e 7a 3f fe 57 a9 3e
       -0.3890183 -0.053839 0.9772755 0.33074945
000260 48 a3 52 bf 94 7e d0 3d fc 11 4a be b4 9f e0 3d
       -0.822804 0.10180393 -0.19733423 0.10967961
000270 d6 34 39 be da 5f 16 3e 70 fe 18 bf ba 0e 12 3f
       -0.18086562 0.14685002 -0.5976324 0.5705372
000280 1b 23 c1 be 34 94 95 3e 79 05 95 bd 6e bc 1c be
       -0.37722096 0.29214633 -0.072764345 -0.15306255
000290 b2 57 f0 bd a5 79 35 bf a6 d8 d4 be ab e6 84 3f
       -0.117354766 -0.7088874 -0.4157154 1.0382894
0002a0 b6 23 d5 be 11 59 9b 3e 74 98 89 3c 76 b5 d9 bd
       -0.41628808 0.3034139 0.016796328 -0.10630314
0002b0 b6 aa 37 bf fd 93 b6 bf c9 65 10 3f f2 1a 81 be
       -0.7174486 -1.4263912 0.5640531 -0.2521587
0002c0 f4 47 9b 3d d4 cf 24 3f 28 c5 36 3f 05 4b cd 3c
       0.07582083 0.6437962 0.71394587 0.025060186
0002d0 79 c0 9b 3f ca 6c f1 be a7 f3 2b 3d 1b 93 3c 3f
       1.2168113 -0.47153312 0.04198041 0.73661965
0002e0 77 1e 8d bf 91 a8 eb 3d e9 60 0f 3d 4e c4 90 3f
       -1.1024922 0.11506761 0.03500453 1.1309907
0002f0 b5 56 8c bf 6c f5 69 3d e5 8e b5 be 4e 79 07 bd
       -1.0963961 0.05711882 -0.35460582 -0.03307467
000300 fd d9 3e 3f f6 fb d3 be 82 70 5e 3e 21 1d f9 3e
       0.74551374 -0.41403168 0.21722606 0.48655036
000310 7e 51 01 3f 76 cc 4c 3e a1 19 92 be 8a 60 7d bd
       0.5051497 0.1999987 -0.28535178 -0.061859645
000320 d9 a5 c5 bf a2 7c be 3e 36 c0 99 bc 04 5f 91 3e
       -1.5441238 0.37204462 -0.018768411 0.28392804
000330 d4 f4 44 3c 66 43 d2 3c 16 4c c8 3e d6 a8 22 3f
       0.012021262 0.025666904 0.3912055 0.63538873
000340 21 f8 8b 3e 4f 08 5e 3f ae 85 e2 bd 16 37 d6 be
       0.27337745 0.8673143 -0.110606536 -0.41838902
000350 0c 0c 55 bf d4 eb b4 3c 4e 73 04 bf 0f e7 4a 3e
       -0.8322151 0.022085108 -0.5173844 0.19814704
000360 ec 91 27 bd 18 eb f6 3e 4c d4 44 bf 0e b1 6f 3f
       -0.040910646 0.48226237 -0.7688644 0.9362954
000370 fc e0 48 bd e5 92 1f bf 4e f0 93 3f 56 f8 52 3f
       -0.049042687 -0.6233352 1.155771 0.8241018
000380 49 19 e2 bd 2b c7 a3 3e f6 36 05 3f 2b f4 2b bf
       -0.11039979 0.3198789 0.5203699 -0.67169446
000390 54 90 2e 3f 43 78 cd be 55 bc 7b 3e 29 32 8b be
       0.6818898 -0.40130815 0.24583562 -0.27186707
0003a0 57 09 8c be 80 7f b1 3e b0 2a 31 3f 5f 98 bb 3f
       -0.27350876 0.34667587 0.6920576 1.4655875
0003b0 e3 ca ba bf c6 b8 30 be 5b bf 0f 3f 04 9d 8e be
       -1.4593166 -0.17257985 0.5615136 -0.27854168
0003c0 52 42 82 3d d4 f6 1b 3f 3b 65 ef 3e 13 e7 2f be
       0.06360306 0.60923505 0.4675692 -0.17177992
0003d0 51 c0 4f 3f 92 f3 b1 3f 34 32 80 3e d0 64 70 bf
       0.81152827 1.3902457 0.25038302 -0.9390383
0003e0 7d b5 99 3f eb 70 96 3e de 07 d4 be d9 3a cb be
       1.2008511 0.29383025 -0.41412252 -0.39693335
0003f0 01 26 25 3f bb cf 92 be 19 f0 55 be 50 4b 6e be
       0.64511114 -0.2867411 -0.20892371 -0.23270917

model.0.bias f4 [128]
000000 0a d7 23 3c 50 4f 8c 3d 0a d7 23 3c 74 9b ca 3c
       0.01 0.06851065 0.01 0.024732329
000010 58 d4 94 3d 2b 32 90 bc c0 dc b3 3d 2e b9 37 3d
       0.07267064 -0.017602047 0.08782339 0.044854335
000020 0a d7 23 3c 21 05 03 3d b6 75 8c 3d a5 d1 5d 3d
       0.01 0.031987313 0.06858389 0.05415501
000030 8f 26 e4 3c 6e 90 01 3d 3f 9d a9 bc 56 6f 0f 3d
       0.027850417 0.03163188 -0.020704864 0.035018288
000040 bd 86 c3 3c 6d 53 b0 3d fa de 8f 3d f1 99 b9 3d
       0.02386796 0.08609662 0.07024951 0.09062565
000050 0a d7 23 3c 31 3c 6d 3d 8f e1 91 3c 0a d7 23 3c
       0.01 0.05791873 0.01780775 0.01
000060 36 a8 53 3d ff 7c 7d 3d 61 cd 4c 3d 0a d7 23 3c
       0.05167409 0.061886784 0.050000552 0.01
000070 df 69 07 3d 05 d6 63 3d 70 16 98 3d dd cd 44 3d
       0.03305995 0.055624027 0.074261546 0.04804789
000080 70 2b 1a 3d 2e 30 43 3d d7 b6 65 3d 0a d7 23 3c
       0.03763908 0.04765337 0.056082573 0.01
000090 83 73 bd 3c b6 f1 b8 3d be cf 8e 3d 6c 5c e8 3c
       0.02312637 0.09030478 0.069732174 0.028364383
0000a0 38 c7 76 3d 65 4c a7 3d 67 fb 79 3d 0a d7 23 3c
       0.060248584 0.08168868 0.06103077 0.01
0000b0 29 81 85 3d c6 7d 90 3d 8d da b1 3d f3 11 93 3d
       0.06518776 0.070552394 0.086842634 0.07181158
0000c0 0a d7 23 3c b0 93 68 3d 7e 0e 9a 3d 0b d2 39 3d
       0.01 0.05678147 0.075222954 0.04536633
0000d0 79 5c 9c 3d 0a d7 23 3c 55 26 a6 bc a8 97 aa 3c
       0.07634825 0.01 -0.02028195 0.020824268
0000e0 90 13 60 3d 9f 95 41 3d d2 a2 9e 3b d9 6e a9 3d
       0.054706156 0.04726183 0.004841187 0.08273096
0000f0 1f ac 82 3d 6c 3b 63 3d 3c e2 45 3d 0a d7 23 3c
       0.06380486 0.05547659 0.048311457 0.01
000100 2b 08 8d 3d 60 16 2f 3c 7e 91 7a 3d d8 f3 c5 3b
       0.068863235 0.010686487 0.06117391 0.0060410313
000110 0a d7 23 3c 85 7e b5 3d a0 f8 e6 3c 35 c6 48 3d
       0.01 0.08862022 0.028194726 0.04901715
000120 0a d7 23 3c 20 77 9d 3d b4 d4 08 3c 13 c4 74 bc
       0.01 0.07688737 0.008351494 -0.014939326
000130 e6 19 92 3d 9c 5e 57 3d 87 4a 99 3d 2e d9 89 3d
       0.07133846 0.05258046 0.07484918 0.06730877
000140 b2 fa 9c 3d 0a d7 23 3c c4 da 77 3d 8b ae 0f 3d
       0.07665004 0.01 0.060511366 0.035078567
000150 47 02 36 3d 76 44 fe 3b 46 5d 69 bb 0a d7 23 3c
       0.044435766 0.007759626 -0.0035608574 0.01
000160 0a d7 23 3c 75 fe c1 bb 0a d7 23 3c cd 8c 71 3d
       0.01 -0.005920226 0.01 0.05897217
000170 d2 e4 86 3d 0a d7 23 3c 38 c6 93 3d 0a d7 23 3c
       0.06586613 0.01 0.072155416 0.01
000180 98 0e 35 3d 72 c4 ae 3d 02 96 29 3d d8 0a 98 3d
       0.04420337 0.08533563 0.041402824 0.07423943
000190 2d 4e 3e 3d ca 8e 2e 3d 6b 97 b6 3d b7 39 7e 3d
       0.046461273 0.042616643 0.089155994 0.06206676
0001a0 34 a1 4f 3d 5f 11 b3 3d 0a d7 23 3c 66 22 8b 3d
       0.050690845 0.08743548 0.01 0.0679367
0001b0 2b 55 46 3d 6a 71 eb 3b d1 c0 b7 3d 1a ac 9a 3d
       0.048421066 0.007185151 0.08972324 0.07552357
0001c0 dd a4 3b 3d d2 e0 37 3d 76 f9 94 3d ae 2e 88 3d
       0.045811523 0.04489214 0.072741434 0.066495284
0001d0 59 e6 89 3c cb 66 8d 3d 6a 54 12 3c 2d f1 07 bb
       0.016833471 0.06904372 0.008931259 -0.0020743117
0001e0 d6 09 aa 3d d1 3e 88 3d ac 09 98 3d bc 36 23 3d
       0.08302657 0.06652606 0.0742372 0.03984712
0001f0 b9 33 78 3d ad 48 a1 3d 7c 05 a5 3c 0a d7 23 3c
       0.0605962 0.0787519 0.020144217 0.01

model.2.weight f4 [128, 128]
000000 11 5e 22 bd 12 93 15 bd 78 68 68 bc 88 47 53 3d
       -0.03964049 -0.03651721 -0.014185064 0.05158189
000010 0b 7f b3 bd 88 84 63 3e 51 79 a2 3d 47 72 2d 3d
       -0.08764466 0.22218525 0.079332955 0.04234531
000020 85 c4 0d 3e 9b 56 cb bd 23 15 d8 3c 6f 3c 5b 3e
       0.13844498 -0.09928628 0.026377266 0.21409772
000030 fc f8 60 3d b5 c9 a4 3d e1 98 6d bd a4 36 3f bd
       0.05492495 0.08046285 -0.058007125 -0.04668297
000040 e7 d8 f4 3d 74 37 cd 3d e2 32 02 be 67 15 48 3d
       0.11955433 0.100203425 -0.12714723 0.048848536
000050 ba b8 f6 bc 40 6c 66 3e a4 a2 07 3e 6a 2e a7 bc
       -0.030117381 0.22502232 0.13245636 -0.020407874
000060 c1 48 6b 3c 7e 81 6c 3e 4e 5d 0a 3d 45 d9 d6 bd
       0.014360608 0.23096272 0.03378039 -0.104906596
000070 88 c2 b5 bb 52 2c 45 3e 90 96 ff 3d 08 31 ba bd
       -0.0055468716 0.19255188 0.124798894 -0.09091383
000080 ef 0b 11 bd d4 05 30 bd 45 ef b4 3d 41 b2 84 3e
       -0.03541177 -0.042974308 0.088346995 0.25917247
000090 17 03 7d bd d6 25 8e 3e 6d a3 b7 3e e6 f2 66 bd
       -0.061770525 0.27763242 0.3586687 -0.05638399
0000a0 e6 ea 13 3e 93 e0 eb 3c ad 72 a9 bd 92 e8 84 be
       0.14445075 0.028793609 -0.08273826 -0.25958687
0000b0 fa 55 f0 3d 9a a0 c8 bd 73 a1 9e 3d d2 28 3f 3d
       0.11735149 -0.09796257 0.07745638 0.04666979
0000c0 c1 02 11 be 7c a2 d6 bd 11 ed 45 3d 66 31 e2 3d
       -0.14161207 -0.1048021 0.048321787 0.11044578
0000d0 c8 d8 8b 3b 0b 66 c0 bc 30 dc 26 3e 8f 4a 80 bc
       0.0042677857 -0.023486158 0.16294932 -0.015660552
0000e0 70 72 36 3e 98 94 8e be 63 c5 2b 3d 08 e5 83 bc
       0.17817092 -0.27847743 0.04193629 -0.016100422
0000f0 c2 d1 92 bd f6 22 04 be c9 06 2e be 87 aa 4f bd
       -0.071689144 -0.12903962 -0.16994776 -0.050699737
000100 30 a9 3e 3d ed 1f f5 3d c8 16 57 bd c3 a9 89 bb
       0.04654807 0.1196898 -0.05251196 -0.0042011454
000110 46 ab a0 be 3b 06 d4 bd 3e a6 e5 bc aa f3 ce 3d
       -0.3138067 -0.10352751 -0.028033372 0.10105069
000120 bc 27 12 bd 08 b7 49 be f5 cc d0 3d 88 b9 8b bd
       -0.035682425 -0.19698727 0.101953425 -0.06822497
000130 70 f1 63 3e 3a 13 51 3d 85 b5 1b 3d 93 08 25 3e
       0.2226007 0.051043727 0.038014907 0.16116552
000140 a4 8b ef 3d 8a 9c b3 bd bc 0f 45 bd e8 33 9b 3e
       0.11696556 -0.08770092 -0.04811071 0.3031304
000150 94 b8 7a 3d c1 f8 f5 bb 6d 87 a0 bb 72 cf 62 3e
       0.061211184 -0.0075064604 -0.0048989565 0.22149447
000160 46 7d 2a 3e 2b 03 c3 3d 74 d2 8f bd e2 7f 70 3c
       0.1664935 0.095220886 -0.070225626 0.014678927
000170 4b e9 d1 bd 30 5e da bb c5 04 5e 3e 7d a2 63 be
       -0.10249575 -0.00666406 0.21681507 -0.22229953
000180 cb 46 31 3e e9 f5 c6 3d 27 9d 36 be 2f 43 84 3d
       0.17312162 0.097148724 -0.17833386 0.06458127
000190 64 c3 fd bd 41 1f 89 bd 1b 75 53 bd 5e d0 e3 3d
       -0.123907834 -0.06695414 -0.051625352 0.11123727
0001a0 44 d7 b1 3e 2e b9 92 3d 27 b2 1a bd f8 17 44 3e
       0.34734547 0.071642265 -0.037767556 0.19149768
0001b0 51 df d7 3b de 72 af bc 89 58 0c 3e b1 1b 41 3c
       0.0065879007 -0.021417078 0.13705648 0.011786387
0001c0 1e e9 2a 3e 31 be 74 3e 55 0d f4 bc 55 0b 59 be
       0.1669049 0.23900677 -0.029791513 -0.21195729
0001d0 7d 93 23 3d 19 c1 21 be 13 94 a8 bb ea 75 b1 3e
       0.039935578 -0.15796317 -0.005144605 0.34660274
0001e0 07 74 82 bd af 39 69 3d 4e a5 db be 3c dd ed bc
       -0.06369787 0.056939777 -0.42899555 -0.029036157
0001f0 45 c2 a9 bd 77 8d 53 be dc 72 4b bc df db e0 3d
       -0.08289007 -0.20659433 -0.012417521 0.10979437
000200 cf 58 ac b9 6b 2a 58 be 43 3a dc 3d c7 61 29 3c
       -0.00032872564 -0.21109931 0.107533 0.010338253
000210 17 1c 12 be 34 76 08 3e 60 38 11 bb 3d 71 0b 3e
       -0.14268528 0.13326341 -0.0022158846 0.13617416
000220 58 b1 74 be aa 1c dd bc f4 20 bb bb 57 84 56 be
       -0.23895776 -0.026991207 -0.0057107154 -0.20948921
000230 0a 2d 15 bd c1 a9 97 bd c0 ff e2 3b ae 04 06 3e
       -0.036419906 -0.07405425 0.0069274604 0.13087723
000240 e6 fa dc bd df ee 10 bd a3 62 c2 3d 82 fd 9d 3c
       -0.107900426 -0.035384055 0.0949147 0.019285921
000250 8b 0b 97 3e 1b 13 6d bd cf d7 46 bd 34 a9 9c bd
       0.29500994 -0.05787955 -0.048545655 -0.076494604
000260 bc a3 43 3d 14 3a bf 3e 23 0b 14 3e 50 65 56 3d
       0.04776357 0.37348998 0.14457373 0.052342713
000270 f5 57 0c be a0 5c aa bd 3f ed ae 3d ad 0e 39 3e
       -0.13705428 -0.08318448 0.08541345 0.18072005
000280 0b ca b2 3d 09 f0 4c 3e 1e ca 5f 3d b2 dd 21 3e
       0.08729943 0.20013441 0.054636113 0.15807226
000290 ee 3e cd 3d d4 e9 cf 3c b0 2c 44 3e 88 ba 40 3d
       0.100217685 0.025380053 0.19157672 0.04705289
0002a0 47 e3 ea 3d 42 d4 83 3d b8 7b d8 3d 30 f1 53 be
       0.11469131 0.06436969 0.105704725 -0.20697474
0002b0 22 b3 b3 3d 10 7f 2f 3d aa 66 a5 be 36 17 71 3c
       0.08774401 0.042845786 -0.3230489 0.014715007
0002c0 c1 05 8c bd ab 19 86 3d d9 2b 15 3e f4 ee a3 3b
       -0.06837035 0.065478645 0.14567508 0.0050028507
0002d0 ee e6 6e 3e ac ee 97 3d 1f c3 f5 3d 3c 13 16 be
       0.2333028 0.0741857 0.12000107 -0.14655775
0002e0 24 e8 e8 bd 94 d0 f7 bd cc 1c 1e bc 13 39 8e 3e
       -0.11372402 -0.1210033 -0.00965042 0.2777792
0002f0 10 ef e8 bd 19 fb 2a bd 4e 73 43 3e 29 76 78 3d
       -0.113737226 -0.04174337 0.19086954 0.06065956
000300 cb db a8 3b be 35 3f 3d 2e dc 6d 3d 00 5d 8e 3d
       0.0051531545 0.046682112 0.058071308 0.06951332
000310 1d e6 07 3d 4b f9 7c 3e 74 28 2f be 76 5e 69 3e
       0.033178438 0.24704473 -0.17105275 0.2278994
000320 0c 8b d2 bc aa a4 d0 3b 1d c3 57 3e 4c b2 55 3e
       -0.025701068 0.0063672857 0.21070524 0.20868796
000330 d3 70 db 3d b4 42 be bd 31 21 eb 3d 5e 3f ee bd
       0.10714879 -0.09290066 0.1148094 -0.1163318
000340 c0 c8 1c be d7 41 1e bd ee 62 96 be 12 bf 21 3e
       -0.15310955 -0.03863701 -0.29372352 0.15795544
000350 46 78 a9 3d 15 db 38 be 35 24 35 3e 9f a8 78 bd
       0.082748935 -0.18052323 0.17689593 -0.060707685
000360 13 f6 4b be b8 c3 74 3d 99 88 a8 bd 06 03 3e be
       -0.19918089 0.059756964 -0.08229179 -0.18555841
000370 c2 74 9b 3d b4 35 a1 bd 2a 61 da bd 74 8d 09 3e
       0.07590629 -0.07871571 -0.10663064 0.13432866
000380 75 5c 9b 3d 99 6e a6 bb 22 6a 82 3e b8 25 e5 bc
       0.07585994 -0.0050791022 0.25471598 -0.027972087
000390 e0 23 ac bc 86 37 09 3e 6b 55 a5 bd dc 83 06 be
       -0.0210132 0.13400087 -0.08072933 -0.13136238
0003a0 13 d3 e7 3d e0 b5 9b 3d 35 af 67 bd 5e db f6 bd
       0.11319556 0.07603049 -0.056563575 -0.1205356
0003b0 cf fd 39 3c 83 61 dc bd ae 9e 98 bd 28 13 49 3e
       0.011352017 -0.107607864 -0.07452141 0.19636214
0003c0 aa 0b 5a 3d c3 d6 2f bd 0d 2b 69 3d dd c7 63 3e
       0.05323378 -0.042929422 0.056925822 0.2224421
0003d0 68 12 e6 bd 59 ea 4e bd 45 bc a0 3d c4 ca b1 3c
       -0.112339795 -0.05051646 0.078484096 0.021703131
0003e0 22 92 4d bd 29 2c d2 bc 77 b1 c6 3e 7b 3e f0 3d
       -0.05018819 -0.025655823 0.3880727 0.11730667
0003f0 81 e7 0e be a7 2b 87 be c2 aa eb bc 34 bb 0e 3d
       -0.13955499 -0.26400492 -0.028767947 0.0348465

model.2.bias f4 [128]
000000 bf 1e a2 3d 2f dc 45 3d 0a d7 23 3c 53 bd 19 3d
       0.079160206 0.048305687 0.01 0.03753407
000010 48 98 24 3b 0a d7 23 3c 1e 78 1a 3d 0a d7 23 3c
       0.002511518 0.01 0.03771221 0.01
000020 0a d7 23 3c 5f f4 21 3d 58 f8 5e 3d 61 55 9d 3c
       0.01 0.03953969 0.054436058 0.01920575
000030 93 76 8d 3d 3f 00 53 3d 82 d8 a1 3d 0a d7 23 3c
       0.06907382 0.051513907 0.07902624 0.01
000040 0a e7 94 3d 9e f7 9a 3d bc fb 9f 3d 8c b2 66 3d
       0.0727063 0.075667605 0.078116864 0.05632262
000050 6f 64 07 3d d6 ad 06 3d 01 44 a4 3d 24 80 aa 3c
       0.033054765 0.032880627 0.08020783 0.020813055
000060 c6 4c 23 3d c3 9b 17 3d 07 96 8b 3d bd 6b 14 3d
       0.03986814 0.03701378 0.06815725 0.03623556
000070 07 8a 84 3d b3 5b 4d 3c 8f 52 a3 3b 0a d7 23 3c
       0.06471639 0.01253407 0.004984207 0.01
000080 db ca 48 3d e6 c1 86 3d 0a d7 23 3c 0a d7 23 3c
       0.049021583 0.06579952 0.01 0.01
000090 0a d7 23 3c 57 cb 3b 3d ba be 89 3d 44 bb 7a 3d
       0.01 0.045848217 0.06725831 0.061213747
0000a0 9e 67 43 3d ac 83 6b 3c 40 32 c9 3c 62 98 36 3d
       0.04770624 0.014374655 0.024560094 0.044578917
0000b0 0a d7 23 3c 45 e6 17 bc 79 db a9 3d 3e c1 db 3c
       0.01 -0.009271209 0.08293814 0.026825543
0000c0 6e b5 7a 3d b9 ed 2a 3d 63 0d 5f 3d 39 2d b0 3a
       0.06120818 0.041730616 0.054456126 0.0013441212
0000d0 92 c6 42 3d 0a d7 23 3c a3 9c 67 bb c1 4a ae 3d
       0.047552653 0.01 -0.0035341165 0.08510352
0000e0 c0 08 84 3d 0a d7 23 3c 6d 6d 9c 3d fe b0 8f 3c
       0.064469814 0.01 0.07638059 0.017540451
0000f0 22 55 7c 3d 0a d7 23 3c 33 4f ab 3d 27 60 03 3c
       0.061604626 0.01 0.083647154 0.00801853
000100 2e e9 0b 3d 0a d7 23 3c 50 64 ac 3d 59 3e e6 3a
       0.034157924 0.01 0.084175706 0.0017566188
000110 66 2a ac 3d 00 88 36 3d ac e2 b2 3c cd 4a 6c 3a
       0.08406524 0.044563293 0.021836601 0.0009013832
000120 df f9 66 3d 2d 3c 85 3d 9e 6f 8c 3d a2 99 9b 3d
       0.05639064 0.06505618 0.06857227 0.075976625
000130 4c 87 25 3d 02 a0 cc b9 88 67 8c 3d 65 7e 07 3d
       0.040412232 -0.00039029127 0.068556845 0.033079524
000140 0a d7 23 3c bd e9 21 3d 63 23 26 3d 25 b3 9b 3c
       0.01 0.03952955 0.04056109 0.019006321
000150 25 c8 62 3d a0 84 a5 3b 56 9d 70 3d 3a 46 7f 3d
       0.055366654 0.0050512105 0.058743797 0.062322833
000160 b7 8f 77 3d fd d7 1d 3d 78 6a ea 3b 0a d7 23 3c
       0.06043979 0.03853606 0.0071538053 0.01
000170 37 9a 23 3d 52 34 70 3d d0 5d 90 3d 90 07 76 3d
       0.039941993 0.058643647 0.07049143 0.060065806
000180 81 60 0b 3c b3 17 ed 3c 65 d3 23 3d 0a d7 23 3c
       0.008506895 0.028941965 0.039996523 0.01
000190 74 d6 c3 3c f7 a6 83 3c 0a d7 23 3c 20 70 99 3d
       0.02390597 0.016070826 0.01 0.07492089
0001a0 0a d7 23 3c 10 0c 5a 3d 5f a8 b0 3d 67 bf bb 3b
       0.01 0.05323416 0.08625864 0.005729604
0001b0 2c 57 45 3d 0a d7 23 3c 23 a9 ed 3c 0a d7 23 3c
       0.048178837 0.01 0.029011315 0.01
0001c0 66 5d ac 3d f4 30 99 3d d6 e6 34 3d 69 59 53 3c
       0.08416252 0.0748004 0.044165455 0.012899735
0001d0 90 19 89 3d de e7 01 3d f6 94 88 3b a1 70 84 3d
       0.06694329 0.031715266 0.004168148 0.06466795
0001e0 0a d7 23 3c 21 63 85 3d 0a d7 23 3c ea 2f 8c 3d
       0.01 0.06513048 0.01 0.068450764
0001f0 10 77 5f 3c 43 d3 1d 3d f9 4a 7a 3d ce 10 4c 3d
       0.013639227 0.038531553 0.061106656 0.049820714

model.4.weight f4 [128, 128]
000000 e9 4b e0 bc be 27 c9 bc 63 31 5f bd 16 09 23 3e
       -0.027379947 -0.024555083 -0.05449046 0.15921435
000010 8d e3 26 be 1a a8 02 be 9c 48 b8 3d f1 54 70 be
       -0.16297741 -0.12759438 0.08998224 -0.23469903
000020 12 49 06 be 68 16 88 bd 53 92 7f 3e be 72 2e 3d
       -0.13113812 -0.06644899 0.24958162 0.042589895
000030 7b e2 b9 3d c3 da e5 bd b6 af 84 3d d8 86 f5 bc
       0.09076401 -0.11223366 0.06478827 -0.029971525
000040 53 29 5c 3e 72 cf 46 3e 13 61 0b 3d 13 ad 9e bd
       0.21500139 0.19415072 0.034028124 -0.07747855
000050 f8 41 49 be 38 52 8a bc fd 55 b7 3d 91 09 29 bc
       -0.19654071 -0.016884908 0.08951948 -0.010317222
000060 cb 81 80 3d 6a 01 e9 bc 85 e5 cd bd 00 68 f4 bd
       0.06274756 -0.028443057 -0.10053543 -0.11933899
000070 6c b7 53 bd 64 90 86 3e 60 21 a8 3d 41 b0 5e 3d
       -0.051688597 0.26282036 0.08209491 0.054367308
000080 8a 92 c2 bd e6 11 c3 bd 22 ef e7 3d 24 48 41 3e
       -0.09500606 -0.09524898 0.11324908 0.18875176
000090 e2 38 b1 bd 87 20 86 be 2a 7b ef 3c 63 90 8c 3e
       -0.08653428 -0.2619669 0.029233534 0.27453908
0000a0 5e 47 cc bd d7 72 f3 bd 61 61 ac 3d 34 57 ca be
       -0.0997455 -0.11887138 0.08417011 -0.39519656
0000b0 e8 78 60 bd 24 05 5d 3d 51 df 98 3e 26 0b 08 bd
       -0.054802805 0.05395998 0.29857877 -0.033213757
0000c0 14 47 85 bc e3 0a 48 3e 83 9d 53 3d 13 3e ac bd
       -0.016269244 0.19535403 0.051663887 -0.08410277
0000d0 87 7a 2a bd 17 2e e2 bd 3a 42 a0 bd 39 86 5d bd
       -0.041620757 -0.11043947 -0.07825132 -0.054083083
0000e0 fe 45 e4 3d 2f 05 1f 3c 48 41 06 3e b2 d9 2e 3e
       0.111461625 0.009705826 0.1311084 0.17075232
0000f0 08 25 03 3c 12 0e 0b be 24 ac 64 bd 9d 69 06 be
       0.008004434 -0.13579586 -0.05582823 -0.13126226
000100 46 89 1e bd 3f 22 40 bd f0 33 4f be 1f b8 1c be
       -0.038705133 -0.04690766 -0.20234656 -0.15304612
000110 cf 05 43 3d 56 0a 2c bd 06 6e f2 bd c5 da 2d be
       0.04761296 -0.042002045 -0.118373916 -0.16977985
000120 30 b4 73 3e 3c 50 55 3e 02 47 ed 3d f3 51 f1 3c
       0.23799205 0.20831388 0.11585809 0.029458022
000130 47 32 31 bd 62 0a 01 3d a9 b8 55 3d 33 5e 82 3e
       -0.04326084 0.031504042 0.05217806 0.25462493
000140 6f 7a 82 3d 49 87 c7 bc 37 fe b8 bd 07 37 8c bd
       0.063710086 -0.024356501 -0.09032863 -0.06846433
000150 05 c4 46 3e d8 44 22 bd 01 9f 9c 3e 44 91 38 3e
       0.19410713 -0.039616436 0.3059006 0.18024164
000160 3e b6 50 3e e6 65 62 bd b0 73 3d bc d5 79 b9 bd
       0.2038202 -0.05527296 -0.011563227 -0.09056441
000170 4f 78 05 3e de 04 f4 bc 31 c8 6e 3e 6f ff 79 3d
       0.13034175 -0.029787477 0.23318554 0.061034616
000180 b3 3c 7e 3e 61 21 82 bd 7c 87 17 bc a8 52 0c 3e
       0.24827842 -0.06354023 -0.009248611 0.13703406
000190 d6 4b c7 3c f6 6f 36 3d 44 46 a5 bd af e1 a4 3d
       0.024328154 0.044540368 -0.08070043 0.08050858
0001a0 c2 62 ac bd 95 f2 51 3e 8b d6 04 3e 9c a6 06 be
       -0.08417274 0.20502694 0.12972467 -0.13149494
0001b0 26 bd c4 3d ac 22 1b be 4a cd 08 3e 2f 92 40 bd
       0.0960639 -0.15149945 0.13359562 -0.04701441
0001c0 c7 2c 3e 3d d0 73 09 3d 50 32 b6 bd 54 a2 4b be
       0.04642942 0.033557713 -0.08896315 -0.19886142
0001d0 9c a3 bf bd 46 e8 ca bd 7e 89 55 3e be 54 79 3d
       -0.09357378 -0.09907584 0.2085323 0.060871832
0001e0 16 d7 d1 bd 41 3e 44 3e 1c f0 c2 bc a1 24 52 3e
       -0.102461025 0.19164373 -0.023796134 0.20521785
0001f0 92 c3 3f bc b3 df 1e be ec 8c ae 3d 1c 1c 99 bd
       -0.011704342 -0.15515022 0.085229725 -0.074760646
000200 3f ed bc 3d 3d 02 f8 3d 83 ca 40 3e ab d2 f1 3c
       0.092249386 0.12109802 0.18827252 0.0295194
000210 7a c7 be bd 2e 89 7e 3e a5 8c 05 bd b2 b6 55 bd
       -0.09315391 0.24857017 -0.032604832 -0.052176185
000220 3e 44 8a 3d 9f 32 8d bc 6c 61 b0 bc 3d 20 42 bc
       0.067512974 -0.017236052 -0.02153083 -0.0118485065
000230 81 34 b5 3c cd 2d e3 bd ca 37 ee bd e4 94 59 3e
       0.022119762 -0.1109272 -0.11631735 0.21248204
000240 6a 8b 34 be 13 93 c5 3d 18 34 d7 3e 4c 9c 1d 3e
       -0.17631307 0.09647193 0.42031932 0.15391654
000250 8d 58 c6 3d d4 24 83 3e f9 80 b2 3d fd 7b 49 3e
       0.096848585 0.25614035 0.08716006 0.19676204
000260 2b 6a 7a bd dd 6f 52 3e 8d 87 98 3d 00 51 4d 3e
       -0.061136406 0.20550485 0.07447729 0.2005043
000270 3c 86 0b bd c8 27 f4 bd eb 4e a5 bd 51 0e 41 3e
       -0.034063563 -0.1192165 -0.08071693 0.18853118
000280 ce 23 9b 3e 96 c1 b2 3e ef 23 ed bd 14 6d b4 bd
       0.30300754 0.3491332 -0.115791194 -0.088098675
000290 63 71 90 be 84 dc 53 bd 54 47 36 3e 27 0c d5 3e
       -0.28211507 -0.051723972 0.17800647 0.41610834
0002a0 a7 dc 38 3e 8d 74 30 3e 10 44 08 3e 28 70 54 be
       0.18052922 0.1723196 0.13307214 -0.20745909
0002b0 bc f0 8e 3d 07 31 17 bd a3 43 00 3e 34 6a 69 bd
       0.0697951 -0.03691199 0.12525801 -0.05698605
0002c0 17 27 70 3e 92 76 02 be 2f b2 3f 3e 33 ba 9a 3e
       0.23452412 -0.12740543 0.18720315 0.30220184
0002d0 a1 43 b9 3d e7 0e 00 be 8d c6 46 be d8 4c 83 3e
       0.09046102 -0.12505685 -0.19411679 0.25644565
0002e0 76 ba f3 bd 5c 87 51 3e ed 72 23 3c 77 44 26 be
       -0.11900799 0.20461792 0.009976131 -0.16237055
0002f0 b7 c2 dd 3c 9c f2 d2 bd 31 a6 1c bd 45 a9 5e 3d
       0.027070386 -0.1030018 -0.03824443 0.054360647
000300 fb 6e 11 be c7 86 a2 be d1 bf 58 3e fd ee 4a 3c
       -0.14202492 -0.31743452 0.21166922 0.012386081
000310 99 67 8e 3d 32 2d 83 3e 4b 1a 39 bd 3f df 74 be
       0.069533534 0.2562042 -0.04519109 -0.23913287
000320 be 7f 21 3e 81 55 4a 3e ea d7 14 bd 99 6a 3e 3d
       0.15771386 0.1975918 -0.036338724 0.04648838
000330 7a 4e 40 3e 23 b3 85 3e 45 c0 1b 3e 67 d2 3e 3c
       0.18779936 0.26113233 0.15210064 0.0116468435
000340 68 31 10 bd 27 d2 4f bd 79 3b ec 3c c1 25 eb bd
       -0.035203367 -0.050737526 0.028836953 -0.1148181
000350 d7 2f 0a 3e 7b fc 24 be 85 a2 3a bd 6d f6 a4 3c
       0.13494812 -0.16111939 -0.045565147 0.020137036
000360 32 bb 7f 3e e8 11 34 be bc 6e da 3c a3 cd 0a 3d
       0.24973753 -0.17584956 0.02666413 0.033887517
000370 49 7d 28 bd e3 97 8b 3e 77 30 60 3e 75 bc 3b 3e
       -0.041135106 0.27264318 0.21893488 0.1833361
000380 aa 10 96 3e 20 7a 72 3d 52 68 02 be 04 62 0b 3e
       0.2930959 0.0591985 -0.12735108 0.13611609
000390 4f ba 84 bd 55 d4 5a 3e e2 0c 27 3d c3 ac fa 3c
       -0.06480848 0.2137006 0.04078377 0.030599957
0003a0 68 ff c3 bc 80 c7 15 bd d8 f1 27 3e 90 55 37 3e
       -0.023925498 -0.03656721 0.1640085 0.17903733
0003b0 64 cc 9e 3d c2 d8 3d 3d 2a 87 c4 bc 83 88 89 3d
       0.07753828 0.046349294 -0.023990232 0.06715491
0003c0 5f 02 04 3d b9 b2 84 3d 2b 1d 26 3d 1f 9b bd bd
       0.032228824 0.06479401 0.04055516 -0.092581026
0003d0 0f a2 57 3c 4e 23 cd 3d e5 f6 49 bd e1 e9 5b bd
       0.013161196 0.100164995 -0.049307723 -0.05368984
0003e0 32 5c 1e 3e 91 16 e6 bc c5 8d 38 bc 68 21 4e be
       0.15464857 -0.028086932 -0.011264269 -0.20129931
0003f0 61 90 56 be aa 1a 8a 3c 4a 01 e2 bc 47 04 96 3e
       -0.20953514 0.016858418 -0.027588505 0.29300138

model.4.bias f4 [128]
000000 7c 45 6a 3d bd 1e 92 3d 0a d7 23 3c ef f8 88 3d
       0.05719517 0.07134769 0.01 0.06688105
000010 0a d7 23 3c 8e 25 a7 3b 04 9d 36 3d 74 f5 19 3d
       0.01 0.0051009124 0.044583336 0.037587598
000020 47 d4 6b 3d 0a d7 23 3c 8c a0 99 3d 7e e4 8f 3d
       0.05757549 0.01 0.07501325 0.07026003
000030 c6 f7 da 3b 0a d7 23 3c f1 93 0f 3d 0a d7 23 3c
       0.006682369 0.01 0.035053197 0.01
000040 0a d7 23 3c e2 38 11 bc 0a d7 23 3c f3 23 99 bb
       0.01 -0.00886366 0.01 -0.004673475
000050 b6 59 e5 3b 34 72 a8 3d d6 65 9f 3c d5 c7 8e 3d
       0.00699922 0.082249075 0.019457739 0.06971709
000060 d6 76 0f 3d 0a d7 23 3c 61 81 39 3d 12 d2 3f 3d
       0.03502544 0.01 0.0452894 0.046831198
000070 8a a9 2e 3d 0a d7 23 3c fc 3c cc 3a 11 a4 c3 3b
       0.042642154 0.01 0.001558214 0.005970486
000080 0a d7 23 3c b4 1c 93 3d 0a d7 23 3c 96 05 47 3d
       0.01 0.07183209 0.01 0.04858931
000090 f3 a3 82 3d 0a d7 23 3c 0a d7 23 3c 66 bf 50 3b
       0.06378927 0.01 0.01 0.0031852364
0000a0 19 c9 5d 3d 0a d7 23 3c b3 91 17 3d c7 15 9f 3d
       0.05414686 0.01 0.037004184 0.077678256
0000b0 96 43 6e 3d 94 f3 1b 3d 70 30 92 3d e7 2c 87 3d
       0.058169924 0.03807409 0.07138145 0.06600361
0000c0 ae 85 88 3d 88 6c 8b 3d fd cc 1d 3d 2e 79 1f 3d
       0.066661224 0.0680781 0.03852557 0.038933925
0000d0 0a d7 23 3c 26 5f 49 3d 5e f1 83 3d 3e 8f 49 3d
       0.01 0.049163006 0.064425215 0.049208872
0000e0 e9 18 04 3d 28 21 e2 3a be f3 9c 3d dd 79 27 3d
       0.03225032 0.0017252313 0.07663678 0.040887702
0000f0 23 d5 17 3d d3 70 59 3d 52 bb 85 3d 0a d7 23 3c
       0.037068497 0.053086113 0.06529869 0.01
000100 9c 1b cb 3b f5 43 d8 38 94 62 26 3d 0a d7 23 3c
       0.0061983597 0.000103123406 0.040621355 0.01
000110 fb 10 7c b8 3f d6 08 3d d9 4f 98 3d 18 3b 8e 3d
       -6.0097296e-05 0.033407446 0.07437105 0.06944865
000120 9d f9 23 3d 0a d7 23 3c c2 28 82 3d 31 0c 0b 3d
       0.04003297 0.01 0.0635543 0.033947174
000130 0a d7 23 3c 7f ea 10 3c 71 48 5e 3d a6 fa 53 3a
       0.01 0.008844971 0.054268304 0.0008086361
000140 29 0c 4d 3d ea 11 97 3d a8 b9 22 3d 93 65 7b 3d
       0.050060425 0.07376464 0.039727837 0.061376166
000150 c9 54 e6 3c 30 98 36 3d 88 e6 9a 3d 0a d7 23 3c
       0.0281166 0.04457873 0.075635016 0.01
000160 2f 8c 83 3d 35 7d 08 3d 05 12 21 bc c1 c7 6f 3d
       0.06423222 0.03332253 -0.009830956 0.05854011
000170 25 31 15 3d ab 9d 98 3c 67 6b 36 3c ab a6 05 bc
       0.03642382 0.01862987 0.011134005 -0.0081574125
000180 c2 ca 0d 3d 9e 25 91 3d cb d4 d5 3a 70 61 44 3b
       0.034617193 0.07087253 0.0016314028 0.0029965304
000190 63 79 46 3d 0a d7 23 3c 95 28 75 3d cf ba 65 3c
       0.048455607 0.01 0.059853155 0.014021589
0001a0 d8 52 9e 3d f1 23 5d 3d 21 11 5e 3d 51 03 fa 3c
       0.07730645 0.053989355 0.054215554 0.03051916
0001b0 0a d7 23 3c 0a d7 23 3c c4 bd 74 3b 23 2c b2 3c
       0.01 0.01 0.0037344554 0.021749562
0001c0 78 33 73 3d fc 22 7f 3d 0a d7 23 3c 0a d7 23 3c
       0.059375256 0.062289223 0.01 0.01
0001d0 82 9c 39 3d cb e6 8b bb df 5f 32 3d f4 60 f7 ba
       0.045315273 -0.004269456 0.04354846 -0.0018873499
0001e0 0a d7 23 3c 65 42 9d 3d 4d 63 e0 3c a0 8f 95 3d
       0.01 0.076786794 0.0273911 0.07302785
0001f0 53 33 68 3d a8 31 ea 3c db a7 31 3d 6e 1a c0 3b
       0.05668957 0.028588131 0.04337297 0.0058625257

model.6.weight f4 [128, 128]
000000 87 49 57 3e a5 a9 f7 3d 17 7d 36 be 6b a3 c6 3d
       0.21024142 0.12092904 -0.17821155 0.09699138
000010 75 8d 49 3d 3b 72 13 be d8 2f c4 bb 0b 25 19 bd
       0.04920717 -0.14399044 -0.0059871487 -0.037388843
000020 e9 eb b2 3d 44 88 fe bd 3d 78 97 3d 4d 43 72 3e
       0.087364025 -0.12428334 0.073959805 0.23658486
000030 9a 24 01 3e 66 d0 6f be 83 8b 10 3e f4 dd 04 3e
       0.12611619 -0.23419341 0.1411572 0.12975293
000040 9d d7 26 3d ab f3 26 3d 54 d2 06 be 03 b6 ca bc
       0.04073297 0.040759724 -0.13166171 -0.024744993
000050 58 e3 d2 3d 4a 54 0a 3e d4 42 3a bc 1e 22 ce bd
       0.10297269 0.13508716 -0.011368472 -0.10065101
000060 c0 c2 a9 3b c1 b0 ce 3c 0e 4a 05 3e 98 40 1a be
       0.0051806867 0.025230767 0.13016531 -0.15063703
000070 86 4b 02 3d a8 13 9f bd 39 af 1e bc bc 36 13 bc
       0.031810306 -0.07767421 -0.009685331 -0.008985218
000080 73 6b b3 bd a7 37 0c 3e 52 b5 58 3e d1 bb 6a be
       -0.08760729 0.13693105 0.21162918 -0.22923209
000090 8b 44 78 3e 9c b7 16 be d5 bc 96 3d 2d b6 d1 3d
       0.24244897 -0.14718479 0.073602356 0.102398254
0000a0 f5 e7 5e 3d 88 be 24 be 0f 2e 88 3d 39 29 dd 3d
       0.05442043 -0.16088307 0.0664941 0.10798878
0000b0 e5 36 7a 3e 5c c7 56 bd 5c 24 b8 3e 23 fd 56 3d
       0.24435003 -0.052436218 0.3596524 0.052487504
0000c0 81 e1 93 3d 58 b3 eb 3c 5e e0 80 3d b4 06 fe bc
       0.07220746 0.028772041 0.06292795 -0.031009056
0000d0 8c 27 27 3e 71 a8 4c 3e 6e 9d cb 3d 43 dd 80 be
       0.1632368 0.1998613 0.09942137 -0.2516881
0000e0 06 fa 82 be 61 6c a6 3b 51 63 47 3e f7 d2 7a be
       -0.25581378 0.0050788377 0.1947148 -0.24494539
0000f0 60 aa f6 bc f2 92 3d 3e cb 05 bb 3e 44 c8 73 3d
       -0.030110538 0.18513086 0.36527857 0.05951716
000100 ec f2 e3 3d 6b 73 c2 bd a3 ba c7 bc db b0 26 3d
       0.11130318 -0.094946705 -0.024380988 0.040696006
000110 5d 23 d9 3e 63 5e fa bd cb 1d 0d 3d 26 1e 33 3d
       0.42409793 -0.12225034 0.03445224 0.043729924
000120 6f ae 43 be 8c 08 da bd 4b 2c d2 bd d2 c9 90 3d
       -0.1910951 -0.106461614 -0.102623545 0.07069744
000130 20 dc 87 3c bd 37 c0 bd 7e a9 51 3d 5e 6e 33 be
       0.016584456 -0.09385631 0.05118703 -0.1752257
000140 02 42 25 3e 59 f9 87 bd 88 00 08 be a9 a6 72 bd
       0.16138461 -0.06639356 -0.13281453 -0.05924097
000150 5d 53 a4 be 4f ee 87 bd b5 38 2d 3e 96 59 1b 3e
       -0.3209485 -0.06637251 0.16916163 0.15170893
000160 df d2 38 3d 0e 08 8d be 5d 78 5a 3d cf 95 14 bb
       0.045122977 -0.27545208 0.053337444 -0.00226723
000170 1b e6 0d 3c df e1 04 3d b8 c5 6d bd c4 62 00 bd
       0.008660818 0.03244197 -0.058049887 -0.03134419
000180 76 78 76 bd 6b c1 8e 3e 0c dd e6 bc ae a7 de 3d
       -0.060173474 0.2788194 -0.028181575 0.10871826
000190 23 58 21 be fb 24 cb 3c 49 6c 92 bc 94 01 a8 3d
       -0.15756278 0.024797907 -0.0178739 0.08203426
0001a0 d4 c0 85 3d 51 ec 53 bd e7 63 cb bc 8a c5 c8 3d
       0.0653092 -0.05173904 -0.02482791 0.098033026
0001b0 3e ea 08 be d3 98 d8 bd c9 7b 05 be 00 04 1e be
       -0.13370606 -0.10576024 -0.13035502 -0.15431213
0001c0 0c 4e 19 bd a0 f1 48 bb ea e3 9d 3d 24 3f 6a bc
       -0.037427947 -0.0030661598 0.07709487 -0.01429728
0001d0 ca 76 8e be ff 60 cc bb a2 be e8 bd a1 d4 1c 3e
       -0.27825004 -0.006237149 -0.11364485 0.15315486
0001e0 41 88 32 3d d9 6c 61 3e 5a 5e 00 be cc 0b de 3d
       0.043586973 0.22014178 -0.12535992 0.10842094
0001f0 8e d3 6d 3d 3d ed c1 bc 34 41 19 bd 25 39 c8 bd
       0.058063082 -0.023672694 -0.0374157 -0.097765245
000200 6a e9 e1 3c 1c f6 79 3c 12 c9 3a 3e ae fa 1c bd
       0.02757712 0.015256431 0.18240765 -0.038325004
000210 2e ad 03 3e 46 b5 71 bd 9f 6a 37 be c6 18 2e be
       0.12859032 -0.059010766 -0.17911766 -0.17001638
000220 09 4d cf bc 53 fc c7 bd 2e 5f 0d bd 97 27 6c bd
       -0.025305288 -0.09764924 -0.0345146 -0.057654943
000230 cf e2 d6 3d 35 99 06 3d 47 c7 7f bd b3 6e 81 3b
       0.10492479 0.032860953 -0.062445905 0.003949964
000240 0e 02 6a 3e 6a 07 25 bd 0f 79 80 3d b2 2e ec 3c
       0.22852346 -0.040290274 0.0627309 0.02883086
000250 1b cc af 3d 14 a8 ed 3d 84 e2 bc bd 1c 9a 2d 3e
       0.08583852 0.11604324 -0.09222892 0.1695332
000260 db f6 5e bd 1e 08 1e 3e 0c fd 15 be 48 c4 da 3d
       -0.05443464 0.15432784 -0.14647311 0.10681969
000270 f8 44 2e be 7d d5 87 bc cd 5d e5 3d 5f 97 2c 3d
       -0.17018497 -0.016581291 0.11199532 0.042136546
000280 44 cb 3f 3e 5f ba 73 3d be 47 0e 3d 7c 62 23 bd
       0.18729883 0.05950391 0.034736387 -0.039888844
000290 8f 7c 69 3c 9c 4c 9a 3d 73 27 3c 3d a9 94 74 3d
       0.0142508885 0.07534143 0.04593606 0.059712086
0002a0 8e 1e 5e bd 5b e9 02 be f5 1f ad 3d f4 35 4e 3c
       -0.054228358 -0.1278433 0.08453361 0.012586106
0002b0 6a 5a 33 be e6 3d dc 3c 77 7f 47 3e 44 38 96 bd
       -0.17514959 0.026884984 0.19482218 -0.073349506
0002c0 81 5c 0b bd 17 37 8e be 88 ca 55 bc 50 00 b1 3d
       -0.034023765 -0.27776405 -0.0130487755 0.08642638
0002d0 b1 e7 1e bd d5 15 55 3e b6 da 5f 3d 99 a5 f4 3d
       -0.038795177 0.2080911 0.05465194 0.11945648
0002e0 d3 00 b8 bd 0b 7f 08 be 95 83 03 bd 18 66 0c 3c
       -0.08984532 -0.13329713 -0.03210791 0.008569263
0002f0 6b 9a 14 3e 22 d1 4a bc a1 dd 64 be bb b0 8b 3d
       0.14512031 -0.012378963 -0.2235017 0.06820818
000300 7d ae be bb 9c 01 43 3e b0 52 a6 3d eb db a0 3d
       -0.0058191405 0.19043583 0.0812124 0.07854446
000310 c2 d0 43 3e bd c7 84 3d e4 3c d0 bc f8 d4 82 bd
       0.19122604 0.064834096 -0.02541966 -0.06388277
000320 5b 6e 0a 3d 18 e5 e1 bb 01 10 0e 3e 02 04 80 3e
       0.03379665 -0.006893765 0.13873293 0.25003058
000330 64 70 46 be eb 79 12 3d ee ea 62 3c ea 26 86 be
       -0.19378811 0.0357608 0.013849957 -0.26201564
000340 d7 0d 1a bc 0f 7b e3 3d 73 cc 94 bd f3 99 9d bd
       -0.009402714 0.11107456 -0.07265558 -0.07695379
000350 6e c9 8e 3c 8e 8a b9 3b 09 ae 8a bd 4d 8f c4 3c
       0.017430034 0.005662269 -0.06771476 0.023994112
000360 e0 d0 c0 3d 0d cd 83 bd 21 7e 06 bd 7a d4 02 3d
       0.0941484 -0.06435595 -0.03283513 0.031940915
000370 c8 11 b6 bd 66 3b a2 be 13 ce 2a 3e 77 0c ae bb
       -0.0889011 -0.31685942 0.16680174 -0.0053115445
000380 4e ef 77 bd 85 03 d4 bc 54 e0 7d be e6 68 ac 3d
       -0.060530953 -0.025880584 -0.24792606 0.08418445
000390 db a3 c4 3d 9f ce da 3d a3 23 2c be be a0 b6 3d
       0.096015655 0.10683941 -0.1681047 0.08917378
0003a0 f7 af 44 3d 45 1a 32 be bb 26 41 3e 91 85 46 3e
       0.048019376 -0.17392834 0.18862431 0.19386889
0003b0 1e b6 11 be 9e 14 30 be 25 79 5e bd e6 9c 19 3e
       -0.14229628 -0.17195365 -0.05431475 0.15001258
0003c0 6b 4a 8e 3e 9a 56 fe bc 95 98 55 be 60 83 6c 3e
       0.2779115 -0.031047154 -0.20858987 0.2309699
0003d0 c0 34 23 be ef c2 38 3d 0b d2 46 be 13 9b d6 3d
       -0.15938091 0.04510778 -0.19416063 0.10478797
0003e0 52 ef 32 be 68 4a 17 be b2 6e 54 bd 7f 96 22 be
       -0.17474106 -0.14774477 -0.05186338 -0.15877722
0003f0 66 18 8c bd b1 89 5b 3e eb e2 56 3d a1 0d 86 bd
       -0.06840591 0.21439244 0.0524625 -0.06545568

model.6.bias f4 [128]
000000 fd d2 61 3d 26 23 1d 3c 74 46 85 3d b5 cc 58 3d
       0.055132855 0.0095909 0.065075785 0.0529296
000010 5f c7 a1 3c 45 6d 2f 3d 39 ee 85 3d 81 9a 53 3b
       0.019748388 0.042828817 0.06539578 0.0032288136
000020 f2 0b 7b 3d 0a d7 23 3c 5a 26 c4 bb 0a d7 23 3c
       0.06129069 0.01 -0.005986017 0.01
000030 72 66 88 bb 66 1e f8 3c 0a d7 23 3c ee 8c f7 3c
       -0.004162603 0.030287933 0.01 0.030218568
000040 f6 25 80 3d f2 91 8d 3d 1b 1a 26 3d c7 94 91 3d
       0.062572405 0.069126025 0.04055224 0.07108455
000050 b0 15 5c 3d 64 8d dc 3c 5f 6d 5c 3d 0a d7 23 3c
       0.05373162 0.026922889 0.053815242 0.01
000060 0a d7 23 3c 2c 09 6a 3d 32 72 f4 3b 0a d7 23 3c
       0.01 0.057137653 0.007459902 0.01
000070 58 34 40 3c 0a d7 23 3c fa 4a 18 3d d1 33 35 3d
       0.01173123 0.01 0.03718088 0.04423887
000080 e2 0a 85 3b 3a b7 3b 3d 02 5e 96 3b 0a d7 23 3c
       0.004060135 0.045829035 0.0045888433 0.01
000090 1b 65 39 3b 4b 22 85 3d d7 3a 43 3d 56 4e 24 3d
       0.0028289023 0.065006815 0.047663536 0.04011377
0000a0 0a d7 23 3c df fc 50 3b 0a d7 23 3c 0a d7 23 3c
       0.01 0.0031889004 0.01 0.01
0000b0 3f 99 8b 3c d7 59 23 3d 0a d7 23 3c c4 20 43 3d
       0.017040847 0.0398806 0.01 0.04763867
0000c0 68 57 e2 3c 0a d7 23 3c 03 56 45 3d b2 ce 08 3c
       0.02762957 0.01 0.04817773 0.008350061
0000d0 14 ec 6c 3d f7 4e 4a 3d 83 18 c5 3b cd 8f 7b 3d
       0.05784233 0.049391713 0.006014885 0.061416436
0000e0 0a d7 23 3c fe 40 4b 3d 26 fe 3d bc 0a d7 23 3c
       0.01 0.04962253 -0.011596238 0.01
0000f0 cd 00 79 3d a5 02 26 3d 9d 31 b1 3c 2b d7 7f 3d
       0.06079178 0.040529866 0.021630103 0.06246106
000100 10 04 92 3b e9 0f 95 39 f3 6c 83 3d 1d 52 8c 3d
       0.0044560507 0.0002843135 0.06417265 0.06851599
000110 16 53 81 3c ed e8 94 3c f5 7e 93 3b bf c8 09 3d
       0.015786689 0.018177474 0.0045012184 0.033638712
000120 3a 38 3c 3d 16 47 63 3d 3c 68 27 bc ae bb 75 bc
       0.04595206 0.055487715 -0.0102177225 -0.01499836
000130 d2 7a 3a bb 94 aa 2a 3d bb ac 18 3b ed a2 90 3d
       -0.0028454554 0.041666582 0.0023296315 0.070623256
000140 27 4c f4 3c 0a d7 23 3c a8 8a 92 3d d3 2b 50 3b
       0.029821469 0.01 0.07155353 0.0031764403
000150 76 3c 6f 3d b7 21 06 bb 3c 64 89 bb ca 03 80 3d
       0.05840727 -0.0020466873 -0.004192857 0.06250723
000160 6b c1 84 3c 3a a7 06 3d 66 ba 90 3d 4c ca 88 3d
       0.01620551 0.032874323 0.07066803 0.0667921
000170 af c6 40 3d b3 0d a2 3a ee 50 80 3d a7 d4 98 bb
       0.04706448 0.0012363702 0.06265436 -0.004664022
000180 0a d7 23 3c 2e ae c8 3c 41 be 69 3d 27 2b 88 3d
       0.01 0.024497118 0.057066206 0.06648856
000190 30 db df 3b a5 2d 83 3d a5 e4 7e 3b 5b be 0b 3d
       0.006831549 0.064051904 0.0038893607 0.034117084
0001a0 ae de 7d 3d 4c 38 7c 3d 06 2c 77 3b b0 0f 03 3d
       0.061979942 0.061577126 0.003771545 0.031997383
0001b0 6d 81 80 3d 0f 02 cf 3b 0a d7 23 3c d0 d6 1e 3d
       0.06274686 0.006317384 0.01 0.03877908
0001c0 0a d7 23 3c 6e 78 7b 3d c6 13 1e 3b 0a d7 23 3c
       0.01 0.061394148 0.0024120673 0.01
0001d0 5d 8b f5 3a 7d 34 69 bc 09 50 87 3d b2 98 1f 3d
       0.001873355 -0.014233706 0.06607062 0.03896398
0001e0 41 61 88 3d 13 5f 08 3d 0c ad 87 3d 32 c9 7f 3d
       0.06659175 0.033293795 0.06624803 0.062447734
0001f0 4f 73 88 3c 32 74 23 3d 0a d7 23 3c 26 47 8a 3d
       0.016656546 0.039905734 0.01 0.06751852

model.8.weight f4 [3, 128]
000000 76 9a 2f be 2b 64 85 bc eb 25 5b be 76 00 2f 3e
       -0.17148766 -0.016283115 -0.21401183 0.1709002
000010 7f 01 3c 3e 78 ac c9 3e 23 38 02 bd 48 86 0d be
       0.18359946 0.39389396 -0.031791817 -0.13820755
000020 94 4c bb bc bf 4b ea bd 5b 59 52 bd f0 0b 01 3b
       -0.022863664 -0.11440229 -0.051354747 0.0019690953
000030 b6 a3 cc bd 5b 7d 38 3e 8b 19 6e be f5 13 15 bd
       -0.09992163 0.1801657 -0.23251931 -0.036395986
000040 1a 3f 11 be 39 a2 33 be c9 6f af 3e d4 50 be bd
       -0.14184228 -0.17542352 0.34264973 -0.092927605
000050 90 41 d7 bc 6e 00 6b bd a5 6e 8c bd 39 9b 0d 3e
       -0.02627638 -0.057373457 -0.06857041 0.13828744
000060 f4 98 c4 3d e8 44 9f bc df 05 dc bb 31 0d 5a 3e
       0.09599486 -0.019442037 -0.006714567 0.21294095
000070 bc 78 e0 3d c8 a0 82 bd 6c 97 9a 3e 3c ac a8 bd
       0.10960528 -0.06378323 0.3019365 -0.08235976
000080 4a 5a 5e 3e 65 41 48 3e 8c b5 1c be 3e cc cc 3c
       0.2171413 0.19556196 -0.1530363 0.024999734
000090 e9 da 23 3e 7a 36 eb bd 07 5a 36 3e 39 bf 0c 3e
       0.16001476 -0.11485 0.1780778 0.1374482
0000a0 ee 2d 02 bd 2c db 89 3d c2 4e 82 3d 3e 9f 77 bd
       -0.031782083 0.06731257 0.06362678 -0.0604546
0000b0 6c 98 02 3e 7e f3 27 3e ea 41 56 bd 0d c8 bd 3d
       0.12753457 0.16401479 -0.052308954 0.09266672
0000c0 e5 d9 be bd c2 f1 af 3e c2 80 23 3e 68 1e 5c 3d
       -0.09318904 0.34364134 0.15967086 0.053739935
0000d0 60 fa 53 be 86 28 af 3d dc 20 9d bd 48 2e 10 be
       -0.20700979 0.08552651 -0.07672283 -0.14080155
0000e0 d7 a0 38 3e 90 e6 83 be 9b ae 7c bd 52 2a a5 bc
       0.18030106 -0.25761843 -0.061689954 -0.020161781
0000f0 17 c4 79 be 5c af 22 3e 57 13 73 3d 64 1b 36 be
       -0.24391209 0.15887207 0.059344616 -0.17783886
000100 b2 55 35 3e f3 8e c7 bd 51 68 09 be ab d4 29 be
       0.17708471 -0.09744062 -0.134187 -0.16585033
000110 04 8e 2d 3e 4c 21 63 3e e2 82 98 bd 1d c4 a2 3c
       0.16948706 0.2218067 -0.07446839 0.019868905
000120 19 c1 2b bd 47 7c 2e bc 10 a2 e4 bc 4b a9 b9 3d
       -0.0419322 -0.010649747 -0.027909309 0.09065493
000130 be 65 c5 bd a0 9a 79 3e 8a e5 07 be 72 20 87 bd
       -0.096385464 0.24375391 -0.13271156 -0.06597985
000140 d9 13 66 be 7b f3 0a 3e 66 42 34 be df 5d de bc
       -0.22468509 0.13569443 -0.17603454 -0.02714437
000150 ed f0 5f be 1e 69 94 bc 7f dd 9c 3d 13 c9 bb be
       -0.2186925 -0.01811653 0.076594345 -0.36676845
000160 6a f0 ab 3d f9 0d 3c 3d c0 aa 7d bd 35 46 89 bd
       0.08395465 0.045911763 -0.061930418 -0.06702844
000170 86 ba 27 3e 7e 37 39 3e 15 6b 7d be d4 e5 22 3d
       0.16379747 0.18087575 -0.2474788 0.039769962
000180 50 92 26 3d 79 f2 9d 3d 8d d8 15 bc 48 13 6b be
       0.04066688 0.077122636 -0.009145868 -0.22956574
000190 7c 1a 25 be 95 92 25 be fb 50 17 be cf 7c 9b 3d
       -0.16123384 -0.16169198 -0.14776985 0.07592165
0001a0 ed 67 92 be ca e0 11 be a3 ff 34 be f1 77 25 3e
       -0.28594914 -0.14245906 -0.17675643 0.16159035
0001b0 a7 2f 6e be 08 e9 99 bd d8 ba ba bc c7 3c e9 3d
       -0.23260365 -0.0751515 -0.022794172 0.113885455
0001c0 aa f8 23 3d 00 00 6e be a2 af 62 3e 0e 54 9e bc
       0.040032066 -0.23242188 0.22137311 -0.01932719
0001d0 42 1c 42 be 4c fd d8 3b e0 47 ce bd 2c c2 d9 bd
       -0.18956092 0.006621992 -0.10072303 -0.106327385
0001e0 68 f6 ab bd 86 c6 11 3d a3 dd 09 bc 09 a6 25 be
       -0.08396608 0.035589717 -0.008414659 -0.16176619
0001f0 3e b5 a7 3d 2f 31 e7 3d 90 db 5f be 72 b1 07 be
       0.08188866 0.11288678 -0.218611 -0.13251284
000200 2e 70 46 3e ef 12 6a bc 42 04 9b bd 62 73 f7 3d
       0.1937873 -0.014286741 -0.075691715 0.120825544
000210 c8 2b 64 bd 3f 1c 94 bd 0d 3c 16 3e b4 25 d5 3d
       -0.055705816 -0.0723195 0.14671345 0.10407582
000220 79 30 1c bb f1 d8 d4 bc 33 08 40 bc 6d 44 f0 bd
       -0.0023832603 -0.025982352 -0.011720705 -0.11731801
000230 3b 95 32 be 86 7d 8f 3c a3 46 1a 3e b1 fc 54 be
       -0.1743974 0.017515909 0.15066008 -0.20799519
000240 c9 21 3a be d8 4b 93 3d 4d 54 3e be a6 b4 8f 3d
       -0.1817695 0.071922004 -0.18586846 0.07016878
000250 33 34 24 bd 60 8c bc 3b ab b1 0c be f8 e9 98 bd
       -0.040088844 0.0057540387 -0.1373965 -0.07466501
000260 e6 21 34 bd 1a ea 14 3e 1b 38 04 3e b6 04 67 be
       -0.04397764 0.14542428 0.12912028 -0.22560391
000270 78 14 5c 3d a9 ca 3d be ba b5 99 3d 6f f6 0e be
       0.053730458 -0.1853434 0.07505365 -0.13961194
000280 d6 65 27 bd fd 7a 39 be 51 1b c7 3d e9 c5 1c 3d
       -0.040868603 -0.18113323 0.09722007 0.03827468
000290 cc 68 c1 3d 85 50 26 3d 8e 9b f7 bd 9c 70 78 be
       0.094438165 0.040604133 -0.120902166 -0.24261707
0002a0 8a 0e 94 3d 21 f8 83 3d 42 52 5c 3d 27 da 51 3d
       0.072293356 0.06443811 0.053789385 0.051233437
0002b0 dd d7 e2 bd a4 1a a2 be 60 59 9a bd 97 88 db 3d
       -0.11076329 -0.3166095 -0.07536578 0.10719412
0002c0 af e4 ed 3d 33 5c b9 bc c1 a1 8d 3d 17 8b 8a bd
       0.116158836 -0.022626972 0.06915618 -0.067648105
0002d0 06 d7 5f 3c 47 ab e2 bd f7 68 1d bd 37 8a 52 3e
       0.013662105 -0.11067825 -0.03843018 0.20560537
0002e0 61 63 3c 3d 4d 5a 09 3e 6a 23 71 3d ec 4b fc bd
       0.045993213 0.13413353 0.058871664 -0.123191684
0002f0 d6 0b 5b 3c ac 66 7e be 01 4e 89 3d d7 53 86 bc
       0.013369521 -0.24843854 0.06704331 -0.0163974
000300 5a 9e 9d bd 7c b3 e7 bd d2 d4 49 be f6 e8 ba bd
       -0.07696219 -0.11313531 -0.19710091 -0.09126465
000310 43 e4 6f be c8 cc f3 3d 2e 83 db bd 10 cb 3b 3c
       -0.23426919 0.11904293 -0.1071838 0.011461988
000320 b9 da af bd a2 33 cc 3d 29 82 2b bd 83 95 35 3c
       -0.0858664 0.09970786 -0.041872177 0.01108301
000330 28 2b be 3c 79 03 9e bc 13 83 49 3d 4d 33 bf bd
       0.023213938 -0.019288765 0.049197268 -0.09335957
000340 b0 e2 b7 3d 09 33 25 3d d4 4f 89 3d f4 f6 e7 3d
       0.08978784 0.040331874 0.06704679 0.113263994
000350 17 a3 dd bd 5c dc a3 3d 33 c6 29 be dd 94 3f be
       -0.108221225 0.080010146 -0.16579513 -0.1870913
000360 bf b6 88 bd b1 09 c6 bc 58 49 8e bd bb 46 ed 3c
       -0.06675481 -0.024174543 -0.06947583 0.028964391
000370 a2 62 68 be e2 ba e0 3d a3 ad 90 3b 35 67 74 bd
       -0.22693875 0.10973145 0.0044152304 -0.05966874
000380 7c 91 72 3e 35 4b 92 3d 65 04 9a bd 41 a0 d8 3b
       0.2368831 0.07143251 -0.075203694 0.0066109006
000390 ea da 89 bd 08 ce cb 3d b3 13 3c bd 11 0d 25 3c
       -0.06731208 0.09951407 -0.045917224 0.010073916
0003a0 13 02 6e bc b6 4b 87 3d a0 97 e3 3c 5b 64 39 3d
       -0.014526862 0.066062376 0.027782261 0.045261722
0003b0 f9 f3 b7 bc 38 34 9e 3b 2e 34 e7 3b 6c 73 32 be
       -0.022455202 0.0048280023 0.007055781 -0.17426842
0003c0 5c 35 c5 3d 43 9a 66 be 64 3b ab 3d 37 e6 4f 3d
       0.09629318 -0.22519784 0.08360937 0.05075666
0003d0 99 f1 33 3e 20 c6 fd 3d 6b ff fe bc 0c 46 1d 3e
       0.17572631 0.12391305 -0.031127652 0.15358752
0003e0 69 0b 77 bd 87 5d 83 bd 43 a4 ad bb 0a 02 05 bd
       -0.060313616 -0.06414323 -0.0052991225 -0.032472648
0003f0 ae 8c cb bc d0 ef 86 bd 91 6a fb bc 8a 39 43 3e
       -0.024847355 -0.06588709 -0.030690463 0.19064918

model.8.bias f4 [3]
000000 da 0c 28 bd 46 8c bd ba 02 cf 76 3d
       -0.04102788 -0.001446136 0.06025601
