models/p1_actor_envs_2_lam_0_9877519995852527_gamma_0_9870407103527608_t_1245_a_lr_3_274007371392119e-05_c_lr_0_00016818884477100903.pth (torch, 209900 bytes, 10 tensors)

model.0.weight f4 [128, 6]
0	0xbf859656	-1.0436504
1	0x3ef8222b	0.48463568
2	0x3f1594d3	0.5843021
3	0x3d2fb514	0.0428973
4	0x3f4f58b6	0.8099474
5	0x3f80a253	1.0049537
6	0x3e17cc15	0.14823945
7	0xbdf12816	-0.11775224
8	0x3d193dc7	0.03741243
9	0x3e086a4d	0.133218
10	0x3d5a21ac	0.05325477
11	0xbf07b11f	-0.5300464
12	0xbe9d0d2d	-0.30674115
13	0xbc095c57	-0.008383832
14	0xbec24d2e	-0.37949508
15	0x3e04f4d3	0.12984018
16	0xbecf0f69	-0.40441445
17	0x3ef37773	0.4755207
18	0xbf9aea8c	-1.2102828
19	0xbee7a0d7	-0.452399
20	0xbf462c20	-0.7741108
21	0x3f47c90e	0.7804116
22	0x3eed7ca0	0.46384144
23	0x3e9458af	0.2897391
24	0xbebfa8b3	-0.37433395
25	0x3f0ea388	0.5571828
26	0x3f2c003d	0.67187864
27	0x3f6a2d59	0.91475445
28	0xbe290bb2	-0.16508368
29	0xbdb7fe99	-0.089841075
30	0x3ef3fce2	0.47653872
31	0x3e392359	0.1807989
32	0x3ee1641f	0.440217
33	0x3e97009e	0.29492658
34	0x3d30ac82	0.043133266
35	0xbee39ccc	-0.44455564
36	0xbf53227e	-0.82474506
37	0xbef6e398	-0.48220515
38	0x3d2441ff	0.040102
39	0xbed79f03	-0.42113504
40	0xbf2d0afd	-0.6759489
41	0x3e1cba4d	0.15305443
42	0x3d9fff48	0.07812363
43	0xbe9a34d7	-0.3011844
44	0x3e42a679	0.19008817
45	0x3e6d3e80	0.23168373
46	0x3f3d2a1d	0.73892385
47	0xbf1728e0	-0.59046745
48	0x3f3de622	0.7417928
49	0x3e1bd876	0.15219292
50	0xbf1bd4e1	-0.608717
51	0xbf89b614	-1.0758691
52	0xbb561380	-0.0032665431
53	0xbe75f0c7	-0.2401763
54	0xbf2fa00b	-0.6860358
55	0x3e9c0ba3	0.30477628
56	0xbea95391	-0.3307157
57	0xbf04a2c6	-0.5181087
58	0xbd7c6387	-0.061618354
59	0xbe14ae52	-0.14519623
60	0xbf05c492	-0.5225307
61	0x3eb89dc0	0.36057854
62	0xbe77f8f3	-0.2421606
63	0xbf5778d8	-0.8416877
64	0xbe66c267	-0.22535096
65	0xbe917329	-0.28408173
66	0xbeb48514	-0.3525778
67	0xbf05b1af	-0.5222425
68	0x3f20009c	0.6250093
69	0x3ea8045f	0.32815835
70	0x3ea07e02	0.31346136
71	0x3e1f27f0	0.15542579
72	0x3ef9760c	0.48722875
73	0x3ebe7b8b	0.3720363
74	0x3d2250a9	0.039627705
75	0x3f192034	0.59814763
76	0x3e8a418d	0.27003136
77	0x3f33dedf	0.7026195
78	0xbf484355	-0.7822774
79	0xbf917fd4	-1.1367135
80	0xbcdb53af	-0.026773302
81	0xbdebfcf7	-0.115228586
82	0x3fb3ab9a	1.4036744
83	0x3eb6b0ca	0.35681754
84	0xbe8479c4	-0.2587415
85	0x3dd03903	0.10167124
86	0x3f376e78	0.71652937
87	0xbddcf487	-0.107888274
88	0xbe298859	-0.16555919
89	0xbf5bd66f	-0.85874075
90	0x3e7a840b	0.24464433
91	0x3e561dd6	0.20909819
92	0x3f07bd02	0.5302278
93	0xbf33def9	-0.70262104
94	0xbebabd9d	-0.36472788
95	0xbf225855	-0.63416034
96	0xbe1fd37b	-0.15608017
97	0xbf536134	-0.82570195
98	0x3f165686	0.58725774
99	0xbe582b5f	-0.21110295
100	0x3c06e4a1	0.00823322
101	0x3eec61c8	0.4616835
102	0xbfae9b5c	-1.3641162
103	0xbf2816f6	-0.65660036
104	0x3ea86ddb	0.32896313
105	0x3ec302bb	0.3808802
106	0x3ec541bd	0.38526717
107	0xbef09a30	-0.46992636
108	0xbe1ac734	-0.15115052
109	0x3ef708e9	0.48248985
110	0xbf27a047	-0.6547894
111	0x3cf949ae	0.030430641
112	0x3f899e54	1.0751443
113	0x3e2a8f5d	0.16656251
114	0x3f4e5d98	0.8061156
115	0xbe29c707	-0.16579829
116	0xbf184a05	-0.59487945
117	0xbe852700	-0.26006317
118	0xbe220fe2	-0.15826371
119	0xbf6250c9	-0.8840452
120	0xbec4bad5	-0.38423792
121	0x3f651aac	0.89493823
122	0xbeb142c3	-0.34621248
123	0xbf1332a0	-0.5749912
124	0xbec7d24a	-0.39027625
125	0x3ee5230c	0.447533
126	0xbd9c4d51	-0.076319344
127	0x3eb200ce	0.3476624
128	0x3e24fde7	0.16112481
129	0xbf6448ce	-0.8917359
130	0xbc74635c	-0.014916267
131	0x3d8e20e4	0.06939867
132	0x3f427572	0.7596046
133	0xbe2dbf9c	-0.16967624
134	0xbe241920	-0.1602521
135	0x3f068781	0.5255051
136	0xbe03d140	-0.12872791
137	0xbe3caee6	-0.18426093
138	0x3f98a37d	1.1924893
139	0xbda31396	-0.0796272
140	0x3fb88787	1.441636
141	0x3e068cc6	0.13139638
142	0xbf6c58a3	-0.9232275
143	0xbf816dc3	-1.0111622
144	0xbeeb395a	-0.45942193
145	0x3f2ae5db	0.6675698
146	0x3f056bb1	0.5211745
147	0x3b1d405a	0.0023994655
148	0xbfa6829d	-1.300861
149	0x3fe75c60	1.8075066
150	0x3f23eb69	0.6403108
151	0x3e750f6b	0.23931663
152	0x3e1edc40	0.15513706
153	0xbe0a64e5	-0.1351505
154	0xbf4c4041	-0.79785544
155	0xbe51fa1f	-0.2050557
156	0xbd035599	-0.032064054
157	0x3f277ac4	0.654217
158	0x3ebb10fe	0.36536402
159	0xbe1071a1	-0.14105846
160	0xbd57a6df	-0.052649375
161	0x3fa4b98d	1.2869126
162	0x3d4fa860	0.050697684
163	0xbf3c172f	-0.73472875
164	0xbea367dc	-0.31915176
165	0xbed77fba	-0.42089635
166	0x3f83bb63	1.0291561
167	0x3f8032fa	1.0015557
168	0xbf3e1875	-0.7425607
169	0xbf4da71d	-0.8033312
170	0x3dbc57a6	0.09196405
171	0xbed52b6f	-0.416347
172	0xbf40a541	-0.7525216
173	0x3f873739	1.0563728
174	0x3cb5fbcc	0.022214793
175	0xbe081a8a	-0.13291374
176	0xbe782601	-0.24233247
177	0xbf00478e	-0.50109184
178	0xbcb43b97	-0.02200107
179	0xbd795cec	-0.060879633
180	0x3f09cfdd	0.538328
181	0xbed439e4	-0.41450417
182	0xbef3619a	-0.47535402
183	0xbe00578d	-0.12533398
184	0x3f2a580b	0.6654059
185	0xbee28ed3	-0.4424959
186	0xbe874666	-0.26420897
187	0xbeb8a57f	-0.36063763
188	0xbf52b4ab	-0.8230693
189	0xbe84d60f	-0.25944564
190	0xbe18d2a7	-0.14924107
191	0x3b9919d1	0.004672267
192	0x3f0c5a55	0.54825336
193	0x3f0aacaf	0.54169744
194	0x3e938b8e	0.2881741
195	0xbe946ec9	-0.28990772
196	0x3da15b59	0.07878751
197	0xbeb84927	-0.3599331
198	0xbece543c	-0.4029864
199	0xbdaa080d	-0.08302317
200	0x3edcad2e	0.43100876
201	0x3ef768a3	0.4832202
202	0x3d641355	0.0556825
203	0x3ebb1015	0.36535707
204	0x3efda886	0.49542636
205	0x3f27918d	0.6545647
206	0xbe71c592	-0.23610523
207	0x3f4aff64	0.79295945
208	0xbd072b40	-0.03300023
209	0x3eb3d7fe	0.35125726
210	0x3fc15090	1.5102711
211	0xbeeb5550	-0.45963526
212	0x3e7f4ac1	0.2493086
213	0x3d0de4ce	0.034642033
214	0x3f054d07	0.5207066
215	0xbe98bb52	-0.29830414
216	0xbf44a882	-0.7681962
217	0x3f0e20b3	0.55518645
218	0x3f019b5a	0.5062767
219	0x3d21e14b	0.039521497
220	0x3d536356	0.051608406
221	0x3d44409a	0.04791317
222	0x3dfa5510	0.12223256
223	0x3f4f8cd8	0.81074286
224	0x3da5ab91	0.08089364
225	0x3f1197ba	0.5687214
226	0x3f6dd30a	0.92900145
227	0x3eb00625	0.34379688
228	0xbe71115d	-0.2354178
229	0xbe579869	-0.21054234
230	0x3eb188cf	0.3467469
231	0xbe9dc320	-0.3081293
232	0x3e3d6822	0.18496755
233	0x3f699571	0.91243654
234	0x3eeea310	0.46608782
235	0xbf71901e	-0.9436053
236	0xbf012751	-0.5045062
237	0x3e545de5	0.20738943
238	0x3f167f56	0.5878805
239	0xbe9b555c	-0.30338562
240	0x3e983146	0.29725093
241	0xbf1383f4	-0.5762322
242	0x3e955310	0.29164934
243	0xbec2884a	-0.37994605
244	0x3e9f2715	0.31084505
245	0xbd43714d	-0.047715474
246	0xbdec7bce	-0.11547051
247	0x3eab5960	0.33466625
248	0x3e974d4a	0.29551154
249	0x3e7ba8eb	0.24576156
250	0x3cdea94a	0.027180333
251	0xbf50c10c	-0.81544566
252	0x3db0dcac	0.0863584
253	0xbe2aa392	-0.1666396
254	0x3d72d8ee	0.05928891
255	0xbe3b095b	-0.18265288

model.0.bias f4 [128]
0	0x3c35de2f	0.011100336
1	0x3c21ec53	0.009883004
2	0x3c3eedb7	0.011653355
3	0x3c1acc06	0.009448057
4	0x3c23e153	0.010002452
5	0x3c438399	0.011933231
6	0x3c23d70a	0.01
7	0x3c39ec5e	0.011347858
8	0x3bf30bcc	0.007417178
9	0x3c23d70a	0.01
10	0x3c1b7cc4	0.009490196
11	0x3c4b6ed0	0.0124165565
12	0x3bf9cd60	0.0076233596
13	0x3c23d70a	0.01
14	0x3c07b244	0.008282248
15	0x3c10dc7a	0.008841628
16	0x3c3f7efb	0.011687989
17	0x3c1f0516	0.009705802
18	0x3bd64d4f	0.0065399776
19	0x3be0a2ef	0.0068553607
20	0x3c3e651d	0.011620787
21	0x3c110a0b	0.008852492
22	0x3c0eb393	0.008709806
23	0x3c51068d	0.0127579095
24	0x3c5d366c	0.013501745
25	0x3c34cdb0	0.011035368
26	0x3c40fe75	0.011779417
27	0x3c23d70a	0.01
28	0x3c23d70a	0.01
29	0x3c23d70a	0.01
30	0x3c45e7eb	0.012079219
31	0x3c23d70a	0.01
32	0x3c58654e	0.013207747
33	0x3c135485	0.008992319
34	0x3c12dfa6	0.008964455
35	0x3c222bdb	0.009898151
36	0x3c465e08	0.01210738
37	0x3c42bab1	0.011885331
38	0x3bfb3d28	0.0076672025
39	0x3c23d70a	0.01
40	0x3c315820	0.010824233
41	0x3c46c15b	0.0121310605
42	0x3c039397	0.008030794
43	0x3c172ba7	0.009226716
44	0x3bef84cf	0.007309533
45	0x3bd44398	0.0064777844
46	0x3c29d2aa	0.010365168
47	0x3c2113ad	0.009831351
48	0x3c3eabf4	0.0116376765
49	0x3bdba2f4	0.006702775
50	0x3bf8ab3f	0.0075887735
51	0x3c3ff242	0.011715474
52	0x3c1683df	0.009186714
53	0x3c27418d	0.0102085
54	0x3beb8f75	0.0071887323
55	0x3c23d70a	0.01
56	0x3be101a6	0.0068666516
57	0x3c23d70a	0.01
58	0x3c52647b	0.012841339
59	0x3c17bb83	0.009261015
60	0x3c3b1277	0.011417977
61	0x3bf3d6ae	0.0074413633
62	0x3c23d70a	0.01
63	0x3befa0d8	0.0073128752
64	0x3c58a850	0.013223723
65	0x3c4badb1	0.012431548
66	0x3c38057d	0.011231777
67	0x3c01a513	0.007912892
68	0x3c23d70a	0.01
69	0x3c1fa679	0.00974428
70	0x3c28bee1	0.010299415
71	0x3c23d70a	0.01
72	0x3c279920	0.010229379
73	0x3c2840a5	0.010269319
74	0x3c1a2029	0.009407082
75	0x3bf519d6	0.0074798865
76	0x3c1a2046	0.009407109
77	0x3c47d42b	0.012196581
78	0x3c23d70a	0.01
79	0x3bd1f519	0.0064073917
80	0x3c23d70a	0.01
81	0x3c19a268	0.0093771
82	0x3c5a6d5b	0.013331736
83	0x3c39a99a	0.01133194
84	0x3c5cdf7e	0.013481019
85	0x3c263f35	0.010146906
86	0x3c5ee8b6	0.013605287
87	0x3bd3fce7	0.0064693573
88	0x3c34f1c1	0.011043967
89	0x3c573c7a	0.013136977
90	0x3bed6b48	0.007245455
91	0x3c23d70a	0.01
92	0x3be9f9ad	0.0071403594
93	0x3c163a14	0.00916912
94	0x3c4f6d64	0.012660358
95	0x3c090c70	0.008364782
96	0x3c5a4c6b	0.0133238835
97	0x3c60dd5c	0.013724651
98	0x3c53b67e	0.0129219275
99	0x3c4bae9e	0.012431769
100	0x3c0941a8	0.00837747
101	0x3be9f0ca	0.0071393
102	0x3c520ddf	0.01282069
103	0x3c23d70a	0.01
104	0x3c0e471b	0.008683945
105	0x3c035604	0.008016113
106	0x3c046ad4	0.00808211
107	0x3c4d2413	0.012520808
108	0x3bff3c32	0.0077891583
109	0x3c00adad	0.0078539075
110	0x3c23d70a	0.01
111	0x3bd5f284	0.0065291543
112	0x3c4c6eaf	0.012477561
113	0x3bf53646	0.0074832765
114	0x3c28a2f1	0.0102927545
115	0x3bd41b8c	0.0064730104
116	0x3c23d70a	0.01
117	0x3bf846a0	0.0075767785
118	0x3c1f2f7a	0.009715909
119	0x3bfda62f	0.007740758
120	0x3c5206c2	0.012818994
121	0x3c2a72c0	0.010403335
122	0x3c04ef03	0.008113625
123	0x3c3be100	0.011467218
124	0x3c24a4c3	0.010049048
125	0x3c16cec0	0.0092045665
126	0x3c00d9c5	0.00786442
127	0x3c508f6e	0.012729509

model.2.weight f4 [128, 128]
0	0xbb47db0a	-0.0030495548
1	0x3c32b9df	0.010908573
2	0xbcf9622e	-0.030442324
3	0x3e15d8de	0.1463351
4	0xbdc44d74	-0.095850855
5	0x3ddfcd87	0.10927873
6	0x3c9c0876	0.019047003
7	0x3e561a69	0.20908512
8	0xbdb2cd53	-0.08730569
9	0x3dcffe7d	0.10155962
10	0x3e420a3f	0.18949221
11	0x3c82570a	0.015910644
12	0xbe06f1ca	-0.13178173
13	0x3d481a6b	0.04885332
14	0x3dac90d1	0.08426059
15	0xbe8c96d3	-0.2745882
16	0x3df03718	0.11729258
17	0xbcb6ada4	-0.022299595
18	0xbe05219f	-0.13001107
19	0x3c468114	0.012115736
20	0x3ce4a35d	0.027909929
21	0xbd053ffe	-0.03253173
22	0xbe0029ac	-0.12515897
23	0xbe28ec96	-0.164965
24	0xbe22cd1e	-0.15898558
25	0xbe7514e1	-0.23933746
26	0x3d7ecbc0	0.06220603
27	0xbcef76f9	-0.029231535
28	0x3da5d1cc	0.08096656
29	0x3da43980	0.0801878
30	0x3d56c9a7	0.052438404
31	0x3dd36c37	0.10323375
32	0x3e0fc967	0.14041673
33	0xbd647b18	-0.055781454
34	0xbe1194b0	-0.14216876
35	0xbe44896b	-0.19193046
36	0xbd2c11ad	-0.042009044
37	0x3e6bd6cc	0.23031157
38	0xbe61b626	-0.2204214
39	0xbd8872a9	-0.06662495
40	0x3e3226cb	0.17397611
41	0x3d08c663	0.03339232
42	0x3ddc964a	0.10770853
43	0xbd56aca4	-0.052410737
44	0xbc7a3fa2	-0.01527396
45	0xbca375a8	-0.019953564
46	0xbd98bab3	-0.07457485
47	0x3e08bb09	0.13352598
48	0x3db9e25d	0.090763785
49	0x3dc07226	0.09396772
50	0xbe396e6d	-0.1810853
51	0xbcf8d890	-0.030376703
52	0x3d95d205	0.07315449
53	0x3d84970b	0.06474122
54	0xbc0188f9	-0.007906192
55	0xbe17eb41	-0.14835836
56	0xbcc9cdb3	-0.024634218
57	0xbd1b99f1	-0.037988607
58	0xbd8d2b39	-0.0689301
59	0x3e2ff784	0.17184263
60	0x3d913fc5	0.07092241
61	0xbdaff147	-0.08590942
62	0x3ddeb013	0.10873427
63	0xbbd3cd4d	-0.0064636827
64	0xbe4e103d	-0.20123382
65	0xbc853191	-0.016258987
66	0x3d6b4318	0.057437032
67	0x3ca56f42	0.020194653
68	0xbda79fb8	-0.08184761
69	0x3d06f43a	0.032947756
70	0xbdd23264	-0.102635175
71	0x3e0b27e6	0.13589439
72	0xbda9f0b0	-0.082978606
73	0xbc2cb864	-0.010542009
74	0x3d0282a2	0.031862862
75	0x3e5454a0	0.20735407
76	0xbe1f7c8f	-0.15574859
77	0xbe2ae3c9	-0.16688456
78	0x3e042866	0.12906036
79	0x3cb2f4f6	0.021845322
80	0xbe155525	-0.14583261
81	0x3e67ca8d	0.2263586
82	0x3bc1479b	0.0058984286
83	0x3dd855c2	0.10563232
84	0x3c5b3e60	0.013381571
85	0x3dd2996e	0.10283171
86	0xbd8475ef	-0.064678065
87	0x3c6eced2	0.014575677
88	0xbe39d827	-0.18148862
89	0xbe55b86f	-0.20871137
90	0xbd89e737	-0.06733554
91	0x3e41745f	0.18892048
92	0x3df28be4	0.11843088
93	0x3e6dfad8	0.2324022
94	0xbd1aca3c	-0.037790522
95	0xbdb8200c	-0.089904875
96	0x3d6b00d6	0.057373844
97	0x3e947cf8	0.29001594
98	0xbe43c19e	-0.19116828
99	0xbc2542dd	-0.010086742
100	0xbd9fcd6b	-0.07802852
101	0x3e9e0db7	0.3086984
102	0x3bb90fa0	0.0056476146
103	0x3dd72561	0.10505176
104	0xbcf9bfaf	-0.03048691
105	0x3e64d9d8	0.22348726
106	0x3df8a3a1	0.12140585
107	0x3c9356f0	0.017985791
108	0x3e10c30d	0.14136906
109	0xbce808dc	-0.028324537
110	0x3d847990	0.06468499
111	0xbce851af	-0.028359262
112	0xbd1d2177	-0.038361993
113	0x3dabbcc6	0.08385615
114	0x3cda8b26	0.02667768
115	0xbcb2bac7	-0.021817578
116	0xbd2708bb	-0.04077981
117	0x3eaabbac	0.33346307
118	0xbe31e9c4	-0.17374331
119	0xbd770b55	-0.06031354
120	0xbdc77459	-0.097389884
121	0xbe988bda	-0.29794198
122	0xbd2e3934	-0.042535022
123	0xbe0af84b	-0.13571279
124	0x3db9ddf8	0.0907554
125	0xbe0215ec	-0.12703675
126	0x3d9bc3dc	0.076057166
127	0x3e7bbddf	0.24584149
128	0xbe675fa8	-0.22595084
129	0xbe50f500	-0.2040596
130	0xbd039f97	-0.03213462
131	0xbe300e7e	-0.17193028
132	0x3ddbc867	0.10731583
133	0x3df53681	0.119732864
134	0x3d27d518	0.040974706
135	0x3e0246bc	0.12722296
136	0xbe7b0b79	-0.24516095
137	0xbd8416c5	-0.064496554
138	0x3da8b4a7	0.08237582
139	0x3d91ba4f	0.07115614
140	0xbccc9f09	-0.024978178
141	0x3ccc9260	0.02497214
142	0xbdffba85	-0.12486748
143	0xbde3c51b	-0.11121579
144	0x3dfc1192	0.12308039
145	0x3dcbcd41	0.099512585
146	0xbe036fd1	-0.12835623
147	0xbe27a187	-0.16370212
148	0xbe017dc8	-0.12645638
149	0xbb637f7c	-0.0034713438
150	0xbd053f9d	-0.03253137
151	0xbdc65390	-0.09683907
152	0xbdc7787d	-0.09739778
153	0x3e4da27a	0.20081511
154	0x3dcd79af	0.10032975
155	0x3d8e88fd	0.06959722
156	0xbd403d7d	-0.04693364
157	0xbcadc60d	-0.021212602
158	0x3d93ad1d	0.07210753
159	0xbe054a37	-0.13016592
160	0xbe0f0b89	-0.13969244
161	0xbc3f7ec1	-0.011687935
162	0xbdff2df2	-0.12459935
163	0x3d6c0cb5	0.057629306
164	0xbe404e42	-0.18779853
165	0xbe5cac8f	-0.21550201
166	0x3e0c2249	0.13684954
167	0xbd2bffc5	-0.041991968
168	0xbd96f5b5	-0.07371084
169	0x3cd9520a	0.026528377
170	0xbe3881a5	-0.18018205
171	0xbda7ae67	-0.081875615
172	0xbd58684b	-0.052833837
173	0x3d8365e7	0.06415921
174	0xbeae9b7d	-0.34103003
175	0x3dff2d0a	0.124597624
176	0xbe6bb433	-0.2301796
177	0xbd6cc3cc	-0.057803914
178	0x3d0a0cb5	0.033703525
179	0xbe2a1388	-0.16609013
180	0xbd4fbcbb	-0.050717097
181	0x3d74b90d	0.05974679
182	0xbcadbd66	-0.021208476
183	0x3c49916e	0.01230274
184	0xbe20c981	-0.15701868
185	0x3c0258ce	0.007955743
186	0x3d643f60	0.0557245
187	0xbd23fc54	-0.04003556
188	0x3dc1fe4c	0.094723314
189	0xbd466fc8	-0.048446447
190	0xbd5be97f	-0.053689476
191	0xbe5dbb2e	-0.21653435
192	0xbdb02000	-0.085998535
193	0x3d2f9ec7	0.04287603
194	0xbc529973	-0.012853968
195	0x3d07fdd6	0.03320106
196	0x3e654ab5	0.2239178
197	0x3e3e0941	0.18558218
198	0xbd4a4dbf	-0.04939055
199	0xbe3b2fc0	-0.18279934
200	0xbd8f7a83	-0.07005789
201	0x3e2a5b2a	0.16636339
202	0x3d02ac9c	0.031902894
203	0x3d9aead3	0.075643204
204	0xbd50edc7	-0.051008012
205	0xbe8e1513	-0.27750453
206	0xbe312c0a	-0.17301956
207	0x3d4325ba	0.0476434
208	0x3dabcadd	0.083883025
209	0xb9d34053	-0.0004029298
210	0xbe2e525a	-0.17023602
211	0xbd38981a	-0.04506693
212	0xbd0acc45	-0.033886213
213	0x3c1026b4	0.00879829
214	0xbe5d2885	-0.21597488
215	0x3c300acd	0.010744763
216	0x3ba80ec4	0.0051287133
217	0xbd2ed159	-0.04268012
218	0xbe5f1b06	-0.21787652
219	0xbe7cac75	-0.24675162
220	0xbd9b0c61	-0.075707205
221	0x3e14b3ff	0.14521788
222	0xbdcc43f4	-0.099738985
223	0xbdd0eafc	-0.1020107
224	0xbe2f961d	-0.17147107
225	0x3e403e7d	0.18773837
226	0xbda9113d	-0.08255241
227	0x3d2ddfed	0.04244988
228	0x3e3a017b	0.18164627
229	0xbc40fa43	-0.011778417
230	0x3dbadc6a	0.09124072
231	0x3e4adbb8	0.19810379
232	0x3c2012f9	0.009770148
233	0xbe3485f3	-0.17629223
234	0x3d59dce9	0.053189192
235	0x3ddd5036	0.10806315
236	0x3e411ea0	0.18859339
237	0xbd432d72	-0.047650762
238	0x3e898d04	0.268654
239	0xbdec44e9	-0.11536581
240	0x3c9aa2a6	0.018876385
241	0xbcdfe83e	-0.027332421
242	0xbd57ba3a	-0.052667834
243	0xbd227687	-0.039663818
244	0xbe05fde7	-0.13085137
245	0xbd9cf982	-0.07664777
246	0xbe03d431	-0.12873913
247	0xbe48de62	-0.19616082
248	0x3e5037d1	0.20333792
249	0x3d9b764f	0.07590925
250	0x3e205fea	0.15661588
251	0x3da77c1c	0.08177969
252	0xbd66c6c6	-0.05634191
253	0xbe454333	-0.19263916
254	0x3e964fe3	0.29357824
255	0xbe32f06d	-0.17474528

model.2.bias f4 [128]
0	0x3c0640c0	0.008194149
1	0x3c23d70a	0.01
2	0x3be4c1fd	0.006981133
3	0x3c23d70a	0.01
4	0x3c59e78e	0.013299836
5	0x3c23d70a	0.01
6	0x3c23d70a	0.01
7	0x3c4cd23d	0.012501297
8	0x3c23d70a	0.01
9	0x3c27e254	0.010246832
10	0x3c15f053	0.009151536
11	0x3c23d70a	0.01
12	0x3c23d70a	0.01
13	0x3c23d70a	0.01
14	0x3bf2bd80	0.007407844
15	0x3c37e6db	0.011224474
16	0x3c5f819d	0.013641742
17	0x3c23d70a	0.01
18	0x3c23d70a	0.01
19	0x3c23d70a	0.01
20	0x3bd490b3	0.006486976
21	0x3c5248c9	0.012834736
22	0x3bf441fd	0.0074541555
23	0x3bf0c4d7	0.007347684
24	0x3c38c3b0	0.011277124
25	0x3c1fda75	0.009756674
26	0x3c23d70a	0.01
27	0x3bee68ab	0.007275661
28	0x3c113ba7	0.00886432
29	0x3bd1e463	0.0064053996
30	0x3becf3a7	0.007231194
31	0x3c00ff70	0.007873401
32	0x3c57665e	0.013146965
33	0x3c478438	0.0121775195
34	0x3c06e27b	0.008232708
35	0x3c23d70a	0.01
36	0x3c23d70a	0.01
37	0x3bfe9b23	0.0077699586
38	0x3c01199f	0.007879644
39	0x3c553104	0.0130121745
40	0x3c161916	0.009161254
41	0x3c25298e	0.010080708
42	0x3c23d70a	0.01
43	0x3c1dec6b	0.009638886
44	0x3c5bed97	0.013423345
45	0x3c23d70a	0.01
46	0x3bfac833	0.00765326
47	0x3c603571	0.013684616
48	0x3c1fbc84	0.0097495355
49	0x3bec2ba8	0.0072073527
50	0x3c23d70a	0.01
51	0x3be47406	0.006971839
52	0x3c09d068	0.008411504
53	0x3c589568	0.013219215
54	0x3c0f4ea2	0.008746775
55	0x3c22a915	0.009928008
56	0x3be632fe	0.0070251217
57	0x3bea6b30	0.007153891
58	0x3c59e72a	0.013299743
59	0x3bdb9ca5	0.006702023
60	0x3c23d70a	0.01
61	0x3bfe1e94	0.00775511
62	0x3c0eb2b4	0.008709598
63	0x3c23d70a	0.01
64	0x3c23d70a	0.01
65	0x3c275795	0.010213752
66	0x3c48ea07	0.012262828
67	0x3c23d70a	0.01
68	0x3c03adf8	0.008037083
69	0x3c48fbc5	0.012267058
70	0x3be038d4	0.006842712
71	0x3c0cb9a0	0.008589178
72	0x3c0bbe64	0.008529279
73	0x3c5400fa	0.012939686
74	0x3c23d70a	0.01
75	0x3c5901c9	0.0132450545
76	0x3c5d99a7	0.013525403
77	0x3c23d70a	0.01
78	0x3c033dd7	0.008010349
79	0x3c23d70a	0.01
80	0x3c0daeec	0.008647662
81	0x3bf2efdf	0.007413849
82	0x3c5a6cc3	0.013331595
83	0x3c1eb574	0.0096868165
84	0x3c3f28ac	0.011667412
85	0x3bfd49ce	0.0077297455
86	0x3c0c1480	0.008549809
87	0x3c23d70a	0.01
88	0x3c30f5d4	0.0108007975
89	0x3c4255ff	0.011861323
90	0x3c318b88	0.0108364895
91	0x3c23d70a	0.01
92	0x3c19557b	0.009358759
93	0x3bd8a411	0.006611355
94	0x3c08d93e	0.008352576
95	0x3c23d70a	0.01
96	0x3c55765c	0.013028707
97	0x3bfce4ba	0.007717696
98	0x3c54a6e2	0.012979241
99	0x3c3ad2d2	0.011402803
100	0x3c1ec072	0.009689437
101	0x3c367b68	0.011137821
102	0x3bf8eb61	0.0075964187
103	0x3c5ce937	0.013483337
104	0x3be5eb49	0.0070165736
105	0x3bdd00c8	0.006744478
106	0x3bebfd30	0.007201813
107	0x3c45aad2	0.0120646525
108	0x3c1c355a	0.009534204
109	0x3c0e7ae6	0.008696293
110	0x3c5f016c	0.013611179
111	0x3c1abd78	0.009444587
112	0x3c2635a4	0.010144625
113	0x3c23d70a	0.01
114	0x3bf7f6d5	0.0075672665
115	0x3c06b4b7	0.008221797
116	0x3c23d70a	0.01
117	0x3c440b3f	0.011965572
118	0x3c53c81f	0.012926131
119	0x3bf607f5	0.007508273
120	0x3c48ae66	0.012248611
121	0x3c5de1c5	0.013542597
122	0x3c23c001	0.009994508
123	0x3bf6f5f8	0.007536646
124	0x3c5b107b	0.0133706285
125	0x3c23d70a	0.01
126	0x3c040f5e	0.008060304
127	0x3be4299a	0.006962967

model.4.weight f4 [128, 128]
0	0x3d5dd427	0.054157402
1	0xbd968235	-0.07349054
2	0xbe2fe0fe	-0.17175671
3	0x3c98ed48	0.018667832
4	0xbcafc32d	-0.021455372
5	0x3df95194	0.12173763
6	0xbe3f8ad4	-0.18705302
7	0x3d2fd0e0	0.042923808
8	0x3d658555	0.05603536
9	0x3d91bfbe	0.0711665
10	0x3dca58bd	0.09880207
11	0xbe37b8f4	-0.17941648
12	0xbe23a91e	-0.15982482
13	0xbe01a5a6	-0.12660846
14	0xbd7972f3	-0.06090064
15	0xbe575244	-0.21027476
16	0xbd9adc26	-0.07561521
17	0x3dfc8b87	0.123313
18	0xbe3f4e5f	-0.1868224
19	0x3d9a2997	0.07527464
20	0xbd072ebb	-0.03300355
21	0xbd822d5e	-0.06356309
22	0x3e93f0b7	0.28894588
23	0xbe4f4c56	-0.20243964
24	0x3e147cc3	0.14500718
25	0x3d6d4ff8	0.057937592
26	0xbe335d88	-0.17516148
27	0x3daa5575	0.08317081
28	0xbd9610ac	-0.07327399
29	0x3e7d9889	0.24765219
30	0x3c8c9ca7	0.017164541
31	0x3db9cfe2	0.090728536
32	0x3ceede56	0.029158752
33	0xbd8e6e09	-0.06954581
34	0x3e10124f	0.14069484
35	0xbd11719c	-0.035508737
36	0xbd02a025	-0.031891007
37	0xbdaebf47	-0.08532577
38	0xbdaa3b44	-0.08312085
39	0x3dc79a4f	0.09746229
40	0x3e8dcba7	0.27694437
41	0xbe949171	-0.29017213
42	0x3d303a85	0.04302456
43	0x3e976bf6	0.29574555
44	0x3e076dd7	0.13225494
45	0x3d625d01	0.055264477
46	0x3bd9c2bb	0.006645528
47	0x3d5b2709	0.053504024
48	0x3dd0e372	0.10199632
49	0xbe62be45	-0.22142895
50	0xba9cf5ca	-0.0011975106
51	0xbe576ac0	-0.21036816
52	0x3d4ace74	0.049513295
53	0xbe115f00	-0.14196396
54	0xbe25d2b5	-0.1619366
55	0x3d6d36f1	0.057913724
56	0x3cf79895	0.030224124
57	0xbe64a8f0	-0.2233007
58	0x3becfe47	0.0072324607
59	0xbe89e9a1	-0.26936057
60	0x3e0642d7	0.13111435
61	0x3e20c62f	0.15700601
62	0xbd163346	-0.036669992
63	0xbdd9c764	-0.10633734
64	0x3e9e6cf5	0.30942503
65	0x3e11883b	0.14212124
66	0xbb805068	-0.003915835
67	0x3cc690b2	0.024238918
68	0xbd0556ad	-0.032553364
69	0xbdd5f29f	-0.10446667
70	0xbe629f4e	-0.22131082
71	0xbe805520	-0.25064945
72	0xbe08e6c5	-0.13369282
73	0xbd0e70c2	-0.034775503
74	0xbbec67be	-0.0072145155
75	0xbd84195a	-0.06450148
76	0xbd43d501	-0.04781056
77	0xbe34b308	-0.1764642
78	0x3c3d5c76	0.011557689
79	0x3d68d716	0.056845747
80	0x3d5582de	0.052126758
81	0x3df85390	0.12125313
82	0x3e125c79	0.14293088
83	0xbd7bf5f6	-0.061513864
84	0x3ca2a0fb	0.019852152
85	0x3e5098a3	0.20370726
86	0x3d78a355	0.06070264
87	0xbdd02f33	-0.101652525
88	0xbda26947	-0.07930236
89	0x3ddea2c1	0.108708866
90	0xbd342528	-0.043980747
91	0x3e641abb	0.22275822
92	0xbe512d0d	-0.20427342
93	0xbe01baee	-0.12668964
94	0xbd9f42ec	-0.07776436
95	0xbddf70aa	-0.10910161
96	0xbd29a793	-0.041419577
97	0xbcca7d33	-0.024717903
98	0xbc7c9b3b	-0.015417869
99	0x3dac1e07	0.08404165
100	0x3da86a5b	0.08223411
101	0x3c4d37e0	0.012525529
102	0xbb05d58b	-0.002042147
103	0xbe3cd378	-0.18440044
104	0x3c969f64	0.01838655
105	0x3c9e66e9	0.01933618
106	0xbc93a38d	-0.018022323
107	0xbdc69a67	-0.09697419
108	0xbc7efe20	-0.015563518
109	0x3d82b35f	0.063818686
110	0xbd519993	-0.05117185
111	0x3e25e2cb	0.16199796
112	0x3ddd521e	0.10806678
113	0xbdda9c73	-0.106743716
114	0x3d68a178	0.056794614
115	0x3b4437d3	0.00299405
116	0x3d9acdaf	0.07558762
117	0x3da78b01	0.0818081
118	0x3d746984	0.05967094
119	0xbe4830eb	-0.1954991
120	0xbe766289	-0.24061026
121	0xbe105a81	-0.14097025
122	0x3d468399	0.048465345
123	0xbdd57b0e	-0.104238614
124	0xbdee8b5f	-0.11647677
125	0x3e2031af	0.15643953
126	0x3d239ed6	0.0399464
127	0x3e0e53ee	0.13899204
128	0xbce8448e	-0.028353002
129	0xbdf9ffc3	-0.12206986
130	0x3dcb0373	0.09912767
131	0xbe0ca4be	-0.13734719
132	0xbdc3ae0c	-0.09554681
133	0x3d0b68f5	0.03403564
134	0x3d82bcdf	0.063836806
135	0x3e6fef40	0.2343111
136	0xbc477605	-0.012174134
137	0xbe0706e1	-0.13186218
138	0x3d7e11a8	0.062028557
139	0x3e65b828	0.22433531
140	0x3d98e87a	0.074662164
141	0xbd46cf12	-0.04853732
142	0x3d3b472e	0.04572218
143	0xbe251044	-0.16119486
144	0xbd83ebfa	-0.06441493
145	0xbda279d7	-0.07933395
146	0x3e48a56b	0.19594352
147	0x3e45de3e	0.1932306
148	0xbe61f4f2	-0.22066095
149	0xbe910cd0	-0.28330088
150	0xbd53a586	-0.051671527
151	0xbe1531c4	-0.14569765
152	0x3d335b44	0.04378821
153	0xbd82f0a8	-0.06393558
154	0xbdb500d0	-0.088380456
155	0x3dea6408	0.11444861
156	0xbe043595	-0.12911065
157	0xbd6facb9	-0.05851433
158	0xbdbba00a	-0.091613844
159	0x3e2780b1	0.16357686
160	0xbdb79628	-0.08964187
161	0x3e074f5d	0.13213868
162	0x3ddf734d	0.10910664
163	0xbe0e50c8	-0.13898003
164	0x3d557667	0.05211487
165	0xbe1b6fb6	-0.15179333
166	0xbe37a8e4	-0.1793552
167	0x3e0aebb7	0.1356648
168	0xbdd2de8e	-0.10296355
169	0x3bee91d4	0.0072805677
170	0xbe21f91a	-0.15817681
171	0xbe2b5f23	-0.1673551
172	0xbe289883	-0.16464429
173	0x3d2b433d	0.04181217
174	0xbd40bc5f	-0.047054645
175	0x3da13462	0.07871319
176	0xbd4b7d22	-0.049679883
177	0x3cc646b6	0.02420364
178	0xbe21478e	-0.15749952
179	0x3d36c6eb	0.044623297
180	0x3e1b4f21	0.15166904
181	0xbbb88d83	-0.005632104
182	0x3e3a9e4c	0.18224448
183	0x3ddfb937	0.10923999
184	0x3dbacaca	0.0912071
185	0xbc8d31a5	-0.017235586
186	0x3d01f189	0.031724487
187	0x3db3d469	0.087807484
188	0x3c9d804f	0.019226221
189	0x3d8642d3	0.065557145
190	0x3dfebcd3	0.12438359
191	0x3e297e27	0.1655203
192	0xbe506fb2	-0.20355108
193	0x3c34ca74	0.011034597
194	0xbe441513	-0.19148664
195	0xbe340e70	-0.17583632
196	0x3e18adc6	0.1491004
197	0xbd08fd62	-0.03344477
198	0xbdb3f4be	-0.08786915
199	0xbe590d09	-0.21196379
200	0x3d2c0ad6	0.04200252
201	0xbb08095b	-0.002075753
202	0xbe0829d9	-0.13297214
203	0x3e847d02	0.25876623
204	0x3e93664a	0.28788978
205	0xbbbce69e	-0.0057647964
206	0xbd6bbc39	-0.05755255
207	0x3d0a5909	0.033776317
208	0x3c7eca9e	0.015551237
209	0x3cb5b82a	0.022182543
210	0xbe33b133	-0.17548065
211	0x3a52cc5b	0.00080413156
212	0xbe163c20	-0.14671373
213	0x3d74ec3a	0.059795596
214	0xbdc7f884	-0.097641975
215	0x3c6476bc	0.013944324
216	0xbe734c14	-0.2375949
217	0xbc279146	-0.010227507
218	0x3c943ba2	0.018094841
219	0x3cba1b44	0.02271808
220	0x3db95ea6	0.09051256
221	0xbd3fcafb	-0.046824437
222	0x3d865f0e	0.06561099
223	0x3e533174	0.20624334
224	0x3dbf0006	0.09326176
225	0xbe797b06	-0.24363336
226	0xbd378449	-0.04480389
227	0x3c97de8f	0.018538741
228	0xbdaab078	-0.0833444
229	0x3dc45416	0.095863506
230	0x3e9180b7	0.28418514
231	0x3dc08f7b	0.09402367
232	0xbd9296b3	-0.0715765
233	0xbd081ab7	-0.033228602
234	0x3d61e793	0.055152487
235	0x3e121abe	0.14268014
236	0x3d56351d	0.052296747
237	0x3d2992ce	0.04139977
238	0xbe135766	-0.14388809
239	0x3d9c13c5	0.07620958
240	0x3df12749	0.11775071
241	0x3c42733c	0.011868294
242	0x3cb80aa5	0.022466013
243	0xbd07e788	-0.03317979
244	0xbe1535b3	-0.14571266
245	0xbdda4ea9	-0.106595345
246	0xbcc2757b	-0.02373766
247	0x3e0b32f9	0.13593663
248	0x3d012ab6	0.031534873
249	0xbd1a9681	-0.037741188
250	0xbc39f479	-0.011349791
251	0xbdd6a8a6	-0.10481386
252	0xbca9a002	-0.02070618
253	0x3d5b6200	0.053560257
254	0xbe15a557	-0.14613853
255	0x3e09373d	0.13399978

model.4.bias f4 [128]
0	0x3c23d70a	0.01
1	0x3bf53db3	0.0074841618
2	0x3c3941f9	0.011307233
3	0x3bfd87af	0.007737122
4	0x3c3f4d97	0.011676214
5	0x3bd8b266	0.0066130636
6	0x3c23d70a	0.01
7	0x3c015056	0.007892689
8	0x3c4c5371	0.012471066
9	0x3c31947a	0.010838622
10	0x3c5fd419	0.013661408
11	0x3c525b51	0.012839154
12	0x3c206d2a	0.009791652
13	0x3bec49c8	0.007210944
14	0x3c565d06	0.013083702
15	0x3c23d70a	0.01
16	0x3c3395dc	0.010961022
17	0x3c03592a	0.008016864
18	0x3c42a203	0.011879447
19	0x3bd04500	0.0063558817
20	0x3bd2ecef	0.006436936
21	0x3c486f8e	0.012233628
22	0x3bd7bd51	0.0065838476
23	0x3c506a9c	0.01272073
24	0x3c48c98d	0.012255085
25	0x3c23d70a	0.01
26	0x3c23d70a	0.01
27	0x3c1b35c1	0.009473265
28	0x3c23d70a	0.01
29	0x3c40a3ce	0.011757804
30	0x3c5989af	0.013277455
31	0x3c4ea59e	0.012612728
32	0x3c5fee2c	0.013667624
33	0x3be9c640	0.007134229
34	0x3c059ae9	0.008154609
35	0x3bda8403	0.006668569
36	0x3c1feca2	0.0097610075
37	0x3c033f33	0.008010673
38	0x3c00b192	0.007854836
39	0x3c149113	0.0090677915
40	0x3be262fa	0.0069087716
41	0x3c1fb47e	0.009747623
42	0x3c5801f8	0.013184063
43	0x3bd9e31d	0.0066493885
44	0x3c23d70a	0.01
45	0x3c4fcdaf	0.012683316
46	0x3bf5d764	0.007502483
47	0x3c5883b8	0.013214998
48	0x3bebe0de	0.007198437
49	0x3bfb6b42	0.0076726982
50	0x3c599ded	0.013282281
51	0x3bec84fc	0.0072180014
52	0x3c5ff29b	0.0136686815
53	0x3c18e9d0	0.009333089
54	0x3c23d70a	0.01
55	0x3c56cced	0.013110382
56	0x3c0ffe7a	0.008788699
57	0x3bef9e38	0.0073125623
58	0x3c60f37d	0.013729927
59	0x3c4e04bd	0.012574372
60	0x3c41149e	0.011784701
61	0x3c23d70a	0.01
62	0x3be2190d	0.006899959
63	0x3c4601fa	0.012085432
64	0x3c53296c	0.012888294
65	0x3be02034	0.0068397764
66	0x3bd6740f	0.006544597
67	0x3bd92202	0.0066263685
68	0x3c082ccb	0.008311461
69	0x3c30c3f5	0.010788907
70	0x3c053c06	0.0081319865
71	0x3c3a9870	0.011388883
72	0x3bfee8e8	0.0077792294
73	0x3c206c5b	0.009791459
74	0x3c4f90f5	0.012668838
75	0x3c1a0d7f	0.009402632
76	0x3c4bc712	0.012437599
77	0x3c23d70a	0.01
78	0x3c529512	0.012852924
79	0x3c5b150b	0.013371716
80	0x3c5b3a8c	0.013380658
81	0x3c23d70a	0.01
82	0x3c0147c1	0.007890643
83	0x3bde0c90	0.0067764
84	0x3bd198bb	0.0063963807
85	0x3c10bfa6	0.008834755
86	0x3c23d70a	0.01
87	0x3c61b55d	0.0137761505
88	0x3bfaeeaa	0.0076578455
89	0x3c23d70a	0.01
90	0x3bd0fcd4	0.0063777957
91	0x3c5aefbb	0.01336282
92	0x3c3b9a92	0.011450427
93	0x3c144b6f	0.009051188
94	0x3bef19f4	0.007296795
95	0x3c23d70a	0.01
96	0x3be2ad01	0.0069175963
97	0x3bd8bb51	0.0066141267
98	0x3c12c366	0.008957719
99	0x3c23d70a	0.01
100	0x3c1f1761	0.009710164
101	0x3bce69e2	0.0062992433
102	0x3c2cb0c9	0.010540196
103	0x3c606b00	0.013697386
104	0x3c1bb734	0.009504128
105	0x3c599b73	0.013281691
106	0x3c4a9c9d	0.012366441
107	0x3c38c060	0.0112763345
108	0x3bf92cb5	0.0076042064
109	0x3c5dcdcd	0.013537836
110	0x3c23d70a	0.01
111	0x3bf9ef0b	0.007627373
112	0x3beec152	0.007286229
113	0x3c46f52b	0.012143414
114	0x3c65150f	0.013982072
115	0x3be45516	0.006968151
116	0x3c032bde	0.008006064
117	0x3c29d863	0.010366532
118	0x3c23d70a	0.01
119	0x3c0a869f	0.008454948
120	0x3c5b7733	0.0133951185
121	0x3c6002db	0.013672556
122	0x3c02e393	0.007988828
123	0x3c2db690	0.010602608
124	0x3c17fe44	0.00927693
125	0x3c5baf59	0.013408505
126	0x3beb11c1	0.0071737473
127	0x3be90b17	0.0071119177

model.6.weight f4 [128, 128]
0	0xbd2fcba1	-0.042918805
1	0x3d80dc7f	0.06292056
2	0x3da2c9d7	0.07948654
3	0x3e470bea	0.19438139
4	0x3c5e649c	0.013573792
5	0x3d1d4acc	0.03840141
6	0xbd899ccc	-0.0671936
7	0x3e111984	0.1416989
8	0xbc822890	-0.015888482
9	0xbddc958c	-0.10770711
10	0xbd7336ca	-0.059378423
11	0x3db9b438	0.09067577
12	0x3de918d9	0.113816924
13	0x3dc7bdbc	0.09752986
14	0x3dd659a4	0.10466316
15	0x3e81e156	0.2536723
16	0xbdb9b63c	-0.090679616
17	0xbde814e6	-0.11332111
18	0xbda3515c	-0.079745024
19	0xbca10a97	-0.01965837
20	0x3d9b41d6	0.075809166
21	0xbe28a608	-0.16469586
22	0x3e0c15ad	0.13680144
23	0xbd2bf790	-0.04198414
24	0x3dda0deb	0.10647186
25	0xbd6bca9d	-0.057566274
26	0x3e631199	0.22174682
27	0xbcbd2aaa	-0.023091633
28	0xbdd0e1cc	-0.10199317
29	0xbe100e04	-0.14067847
30	0xbd23da90	-0.04000336
31	0xbe753c25	-0.23948725
32	0xbd8bb38b	-0.068213545
33	0xbd36f4d5	-0.044667084
34	0xbcd6842a	-0.026186068
35	0xbc7d2924	-0.015451703
36	0xbe15e730	-0.14638972
37	0x3d92ea55	0.071736015
38	0xbe095bc3	-0.1341391
39	0x3e3c79fb	0.18405907
40	0xbce030ff	-0.027367113
41	0xbc7a4d47	-0.015277213
42	0x3d115222	0.03547872
43	0x3d03b5d9	0.032155845
44	0xbd817583	-0.06321242
45	0xbd9b226e	-0.07574926
46	0xbe28b4b2	-0.1647518
47	0x3d148c76	0.036266766
48	0x3e066be2	0.13127092
49	0x3e3d3cee	0.18480274
50	0xbd24ef46	-0.04026725
51	0xbd9b0e7a	-0.075711206
52	0x3e0dd1b8	0.13849533
53	0xbd69fa7f	-0.057123657
54	0xbe85a6eb	-0.2610391
55	0x3da587da	0.08082552
56	0xbda49b63	-0.0803745
57	0xbe3b53f9	-0.18293752
58	0xbd88515d	-0.06656144
59	0xbe01ea54	-0.12687045
60	0xbdd5d4bc	-0.104409665
61	0x3d5ea216	0.054353796
62	0xbcd27de1	-0.02569479
63	0x3cbaeb74	0.02281735
64	0x3dbd526e	0.09244238
65	0x3e331345	0.1748782
66	0x3ce089e2	0.027409498
67	0x3cf663c2	0.030076865
68	0x3e36f922	0.17868474
69	0x3e0ecbf7	0.13944994
70	0xbd56c610	-0.05243498
71	0x3e91632d	0.28395978
72	0x3dbc2714	0.09187141
73	0xbd04f291	-0.03245789
74	0xbdcbb45b	-0.099465095
75	0xbdc66aea	-0.09688361
76	0xbd0d5139	-0.034501288
77	0x3d405060	0.04695165
78	0x3dceb7ef	0.10093676
79	0x3c6c04c5	0.014405434
80	0x3e115733	0.1419342
81	0xbdb9ef99	-0.09078903
82	0xbd35a98d	-0.04435115
83	0xbd5f8594	-0.05457075
84	0xbd145b2c	-0.03621976
85	0xba9744ce	-0.0011540891
86	0xbdbdfc95	-0.09276692
87	0x3bb209de	0.005433305
88	0x3cbfafb2	0.023399208
89	0xbd3fc3c4	-0.046817556
90	0x3c51f3e6	0.012814498
91	0xbdf3cec1	-0.119046696
92	0xbd60c9c0	-0.054879904
93	0x3de2e75b	0.11079284
94	0xbe1bcd6f	-0.15215085
95	0xbccbcadd	-0.024877006
96	0xbd174c26	-0.036937855
97	0xbc8a9720	-0.016917765
98	0xbcaba273	-0.020951485
99	0x3def646a	0.11689074
100	0x3d8e0d38	0.06936115
101	0xbdaeb28f	-0.08530151
102	0x3cf5d5d0	0.03000918
103	0x3d8e1aff	0.06938743
104	0xbc55cb03	-0.01304889
105	0x3d1d82db	0.03845487
106	0xbe4a3bba	-0.19749346
107	0xbdd2146c	-0.102578014
108	0x3d3b83e0	0.045780063
109	0xbdb1e80a	-0.08686836
110	0xbd141d90	-0.036161005
111	0x3dda178e	0.10649024
112	0x3c0a2c93	0.008433479
113	0xbd1aaded	-0.037763525
114	0xbdb4042d	-0.08789859
115	0x3e209c96	0.15684733
116	0x3e0ff7f0	0.14059424
117	0x3e645887	0.22299396
118	0xbe8002b2	-0.25002056
119	0xbc52ec3e	-0.012873707
120	0x3b9201c9	0.004455779
121	0xbe07ce60	-0.1326232
122	0xbe405216	-0.18781313
123	0xbe81c5ec	-0.25346315
124	0xbd86e8df	-0.065873854
125	0x3bf15422	0.0073647657
126	0x3dbf52eb	0.09341987
127	0x3d2338b3	0.039848994
128	0xbe777b37	-0.24168096
129	0x3e95948d	0.29214898
130	0x3e466c76	0.19377312
131	0x3ce7619d	0.028244788
132	0x3d987d5a	0.07445784
133	0x3e6ea586	0.2330533
134	0x3c8ab25d	0.016930753
135	0x3c64730e	0.013943447
136	0xbd99fd30	-0.07518995
137	0xbcf638cd	-0.030056382
138	0xbe56f6b4	-0.20992547
139	0xbed87609	-0.42277554
140	0xbd9caddc	-0.076503485
141	0xbe9b3d9b	-0.3032044
142	0xbc8181f4	-0.015809037
143	0xbdc5e31d	-0.09662459
144	0xba9c1f68	-0.0011911215
145	0x3dd54b38	0.104147375
146	0x3cf3f471	0.029779645
147	0xbc8878e3	-0.016659206
148	0xbd89b2da	-0.06723566
149	0x3dc1904f	0.09451353
150	0xbdbb1e97	-0.09136694
151	0xbccf3b59	-0.025296854
152	0xbe204586	-0.15651521
153	0x3e0415f6	0.12899002
154	0x3e339cc6	0.17540273
155	0xbdc85369	-0.09781534
156	0x3e6ff2f4	0.23432523
157	0xbea3fa93	-0.3202711
158	0xbe2c0f5e	-0.16802737
159	0x3da7ff6b	0.08203014
160	0xbe26faee	-0.1630666
161	0xbddd00d0	-0.107911706
162	0x3d3b7707	0.04576781
163	0x3e02bf5c	0.1276831
164	0xbe6ad864	-0.22934109
165	0x3d153add	0.03643309
166	0xbd9d556e	-0.0768231
167	0x3c2247ec	0.009904843
168	0xbd6dcbc5	-0.058055658
169	0xbd9d064f	-0.07667219
170	0x3e0d6d21	0.1381116
171	0x3de575e9	0.1120413
172	0xbd5600d2	-0.052246876
173	0xbe6a2ab3	-0.22867851
174	0xbded5987	-0.115893416
175	0x3d41ee10	0.047346175
176	0x3e4e3d3b	0.20140545
177	0xbddc0d25	-0.107446946
178	0xbe4c3f96	-0.19946131
179	0xbd0d045d	-0.03442799
180	0xbd1c4844	-0.038154855
181	0x3e81846e	0.25296348
182	0xbdadb9e4	-0.084827214
183	0x3d11f129	0.03563038
184	0x3d35c71f	0.04437935
185	0x3d44d847	0.04805782
186	0x3e54b464	0.20771939
187	0x3cbe0ccf	0.023199467
188	0xbd444b53	-0.047923397
189	0x3e280e85	0.16411789
190	0xbd5b02df	-0.053469535
191	0x3e8429da	0.2581318
192	0x3c875ce2	0.016523782
193	0x3e387fc9	0.18017496
194	0x3e5196a9	0.20467629
195	0xbd6031f3	-0.054735135
196	0x3e2a31f1	0.16620614
197	0x3dcf6938	0.10127491
198	0xbbbc60e8	-0.005748857
199	0xbd1a5e4f	-0.037687596
200	0x3d6e66aa	0.058203377
201	0xbe810463	-0.2519866
202	0x3c74d48e	0.014943255
203	0x3c8be294	0.017075814
204	0x3e6b8999	0.23001708
205	0xbdaa344c	-0.08310756
206	0x3d104b79	0.035228226
207	0xbcf00f9b	-0.029304316
208	0xbea0bf09	-0.31395748
209	0xbd027e97	-0.031859007
210	0xbd1cb109	-0.03825477
211	0xbe1db051	-0.1539929
212	0xbeaa8fa5	-0.33312717
213	0xbdfb207e	-0.12262057
214	0xb8d75a30	-0.000102687976
215	0xbcae4fe2	-0.021278325
216	0x3dedfe89	0.11620814
217	0xbd30a691	-0.0431276
218	0x3d00749a	0.0313612
219	0xbd7d6ce7	-0.061871435
220	0xbbb58f58	-0.0055407695
221	0x3d63c128	0.05560413
222	0x3e106b7f	0.14103507
223	0xbe1e887c	-0.15481752
224	0xbd42a2f8	-0.0475187
225	0x3d1d6d5a	0.038434364
226	0x3e18d724	0.1492582
227	0xbda3bb44	-0.079947025
228	0x3de986eb	0.11402687
229	0x3e7db226	0.2477499
230	0x3e905633	0.28190765
231	0xbe53627c	-0.20643038
232	0xbda8f462	-0.08249737
233	0x3de3acd1	0.111169465
234	0x3e0a7461	0.13520958
235	0xbdaf49f3	-0.085590266
236	0xbd77fec6	-0.060545705
237	0xbdff4d0f	-0.1246587
238	0xbdb60b20	-0.08888841
239	0xb9ff7ab9	-0.00048728826
240	0x3e602303	0.21888356
241	0xbda635bb	-0.08115717
242	0x3e05ad6b	0.13054435
243	0xbe8a480a	-0.27008086
244	0xbeaf0c8a	-0.34189254
245	0x3cf28ea8	0.02960904
246	0xbe1863e7	-0.1488186
247	0xbe292b8c	-0.16520518
248	0x3da3fe94	0.08007541
249	0xbe7f64c7	-0.24940787
250	0x3d1dcc74	0.03852506
251	0x3da13b79	0.07872672
252	0x3e330f5f	0.17486332
253	0xbdf11245	-0.11771063
254	0xbd98fe80	-0.07470417
255	0x3d9bb181	0.076022156

model.6.bias f4 [128]
0	0x3bcd5480	0.0062661767
1	0x3c140c1a	0.009036088
2	0x3c3bcb94	0.011462111
3	0x3c23812e	0.009979529
4	0x3bdd68c6	0.0067568747
5	0x3bd455ab	0.006479939
6	0x3c560e93	0.013064998
7	0x3c23b726	0.009992396
8	0x3c0d0bec	0.008608799
9	0x3bfef950	0.007781185
10	0x3c23d70a	0.01
11	0x3c5df715	0.0135476785
12	0x3c23d70a	0.01
13	0x3c23d70a	0.01
14	0x3c036537	0.008019737
15	0x3c23d70a	0.01
16	0x3c0341ce	0.0080112945
17	0x3bfcab47	0.0077108475
18	0x3bcdc968	0.006280113
19	0x3c23d70a	0.01
20	0x3bd04d5f	0.0063568796
21	0x3bccdc8f	0.0062518786
22	0x3c51bc60	0.01280126
23	0x3c5ce596	0.013482472
24	0x3c620bbc	0.013796743
25	0x3c60426b	0.01368771
26	0x3c06444b	0.008194993
27	0x3c5fee29	0.013667622
28	0x3bcd88f5	0.00627243
29	0x3be8a3dc	0.0070996117
30	0x3bd4ffde	0.0065002283
31	0x3bcd9c0b	0.0062747053
32	0x3bf77369	0.0075515998
33	0x3bccdf61	0.006252215
34	0x3c23d70a	0.01
35	0x3c23d70a	0.01
36	0x3c23d70a	0.01
37	0x3c23d70a	0.01
38	0x3c23d70a	0.01
39	0x3bcd3328	0.006262202
40	0x3c23d70a	0.01
41	0x3c344f4f	0.011005237
42	0x3c0de299	0.008659982
43	0x3bce9311	0.006304153
44	0x3c090d52	0.008364992
45	0x3c5549db	0.013018097
46	0x3c623e83	0.013808849
47	0x3c60977a	0.01370799
48	0x3c61a0ee	0.013771279
49	0x3bcbf03e	0.0062237075
50	0x3bdf6081	0.006816924
51	0x3c61f1ca	0.013790557
52	0x3c274279	0.010208719
53	0x3c23d70a	0.01
54	0x3c23d70a	0.01
55	0x3bcce72d	0.0062531442
56	0x3c2a0773	0.010377753
57	0x3c3194b2	0.010838674
58	0x3c60f635	0.013730575
59	0x3c23d70a	0.01
60	0x3c1eea94	0.0096994825
61	0x3c61e73c	0.013788041
62	0x3c23d70a	0.01
63	0x3c193db2	0.009353088
64	0x3c23d70a	0.01
65	0x3bcefa9a	0.006316495
66	0x3c3a4f27	0.01137141
67	0x3c27f0d5	0.01025029
68	0x3c611f90	0.013740435
69	0x3c075574	0.00826012
70	0x3c3a63ea	0.01137636
71	0x3c383c51	0.011244849
72	0x3bed4b18	0.007241618
73	0x3c23d70a	0.01
74	0x3c4cb60d	0.012494576
75	0x3c5d8e6b	0.013522725
76	0x3c4134cb	0.011792372
77	0x3c60cd03	0.013720754
78	0x3beaf873	0.0071707307
79	0x3c5e3d1f	0.013564377
80	0x3bee3a1c	0.007270111
81	0x3bcc6423	0.006237523
82	0x3be3823e	0.0069430163
83	0x3bcde082	0.006282867
84	0x3c23d70a	0.01
85	0x3c23d70a	0.01
86	0x3bcf870c	0.0063332375
87	0x3c23d70a	0.01
88	0x3c23d70a	0.01
89	0x3c5f0cb9	0.013613873
90	0x3c622f87	0.013805277
91	0x3c23d70a	0.01
92	0x3c617477	0.013760678
93	0x3c42e1a1	0.011894614
94	0x3c05905d	0.008152095
95	0x3c42e357	0.011895022
96	0x3bcc89b6	0.0062420024
97	0x3c23ddf8	0.010001652
98	0x3c1b28d8	0.009470187
99	0x3c61ee39	0.013789707
100	0x3c5530fc	0.013012167
101	0x3c23d70a	0.01
102	0x3c16c77e	0.009202836
103	0x3c23d70a	0.01
104	0x3c5d9fe8	0.013526894
105	0x3c5535ec	0.013013344
106	0x3c304a2e	0.010759873
107	0x3bce8e09	0.006303553
108	0x3bcd1cf8	0.006259557
109	0x3bcdf6f3	0.006285542
110	0x3bd303b1	0.006439649
111	0x3c5d7146	0.013515776
112	0x3c42d6e4	0.011892054
113	0x3c28f8d2	0.01031323
114	0x3bef4ef5	0.0073031136
115	0x3c30dfaa	0.010795513
116	0x3c12bc57	0.0089560365
117	0x3c23d70a	0.01
118	0x3c23d70a	0.01
119	0x3c23d70a	0.01
120	0x3c5d461e	0.013505487
121	0x3bd17908	0.006392602
122	0x3c39fc67	0.011351681
123	0x3c1e95df	0.009679287
124	0x3c23d70a	0.01
125	0x3c5c9cfa	0.0134651605
126	0x3c200103	0.009765866
127	0x3c23d70a	0.01

model.8.weight f4 [3, 128]
0	0x3e1f4b5f	0.15556096
1	0xbe85eafd	-0.26155844
2	0x3d206783	0.039161216
3	0xbca3a6c5	-0.019976983
4	0x3e52d2a1	0.20588161
5	0x3d4c83f3	0.049930524
6	0x3d49ed46	0.049298547
7	0xbe271791	-0.16317584
8	0xbdd1e222	-0.102482095
9	0x3db62f9f	0.08895802
10	0x3deabbb3	0.11461582
11	0xbe428d4a	-0.1899921
12	0xbe834b68	-0.25643468
13	0x3e92eaae	0.2869467
14	0xbc556fbb	-0.013027127
15	0xbe719db4	-0.23595315
16	0xbe84745f	-0.25870034
17	0x3d275ddd	0.040861
18	0xba677b73	-0.0008830346
19	0xbd585c35	-0.05282231
20	0x3d030c9e	0.031994455
21	0x3e46979c	0.19393772
22	0x3d055ed1	0.032561127
23	0xbdac0ebc	-0.08401248
24	0x3c92c929	0.017918186
25	0xbd8185a2	-0.063243166
26	0x3e4d84e1	0.2007022
27	0x3d54105d	0.051773418
28	0x3dc56bff	0.09639739
29	0x3e5be431	0.21473767
30	0xbd4dda04	-0.050256744
31	0x3e13b421	0.14424182
32	0xbded3f70	-0.11584365
33	0x3e8d714e	0.27625507
34	0x3e908b66	0.28231353
35	0xbcd3b46c	-0.025842868
36	0x3d4369ab	0.047708195
37	0xbe2be531	-0.16786648
38	0xbe12d9a9	-0.14340843
39	0x3d93f346	0.07224135
40	0xbdc19e4f	-0.09454023
41	0x3ce08431	0.027406784
42	0xbdd586a7	-0.104260735
43	0x3e2fa3cf	0.17152332
44	0x3d744810	0.059639037
45	0x3d6dde29	0.058073197
46	0xbd0a16d6	-0.033713184
47	0xbded3b54	-0.115835816
48	0xbe1c64e6	-0.15272865
49	0x3d7dc4cf	0.06195527
50	0x3d69d873	0.057091188
51	0xbded194a	-0.11577089
52	0xbddfecc0	-0.10933828
53	0x3d6a5e07	0.057218578
54	0xbdc51e8e	-0.096249685
55	0x3d154b31	0.03644866
56	0xbe9284f2	-0.28617054
57	0xbe49339d	-0.19648595
58	0xbd92e96a	-0.071734264
59	0xbde661b5	-0.11249105
60	0x3d8a3dc0	0.06750059
61	0xbc2c5b1c	-0.010519769
62	0x3d85a165	0.06524924
63	0x3da1f081	0.079072006
64	0x3c84a7ef	0.016193358
65	0x3e00c77e	0.125761
66	0xbd5733db	-0.052539688
67	0x3d44811d	0.047974695
68	0xbde69d1b	-0.11260434
69	0x3e1cd0b9	0.15313996
70	0xbe2a9f08	-0.16662228
71	0xbe6c27bf	-0.23062037
72	0x3e1a7f23	0.15087561
73	0x3e23638a	0.1595594
74	0x3e2140a9	0.15747322
75	0xbe3a6c80	-0.18205452
76	0xbc937ce7	-0.018003894
77	0xbd1b7da7	-0.03796163
78	0x3d189fea	0.03726188
79	0x3c010345	0.007874315
80	0x3e21953f	0.15779589
81	0x3e85c9cc	0.2613052
82	0x3dac4c9b	0.08413049
83	0x3e2684b4	0.1626156
84	0xbea419e2	-0.32050997
85	0x3d0f7187	0.035020377
86	0x3d3fa9f4	0.04679294
87	0xbd8be62a	-0.0683101
88	0x3d9fd914	0.07805076
89	0xbd7942f4	-0.060854867
90	0x3ce94bcf	0.028478531
91	0xbca3cb11	-0.01999429
92	0xbe5ca723	-0.21548133
93	0x3d39edc3	0.045392763
94	0x3e4800c3	0.1953154
95	0xbd3e540f	-0.046466883
96	0x3e5de40b	0.21669023
97	0x3d85ba03	0.065296195
98	0x3d8b248c	0.0679408
99	0xbd3a9f4c	-0.045562074
100	0xbcb38c86	-0.021917593
101	0xbd55c3c5	-0.052188653
102	0x3cd3ad85	0.025839576
103	0x3dd19bd4	0.102348
104	0xbdaccb4d	-0.08437214
105	0x3d85cc9b	0.06533166
106	0x3e11289c	0.14175647
107	0x3db3917e	0.08767985
108	0x3dd05766	0.1017292
109	0x3e075c26	0.13218746
110	0x3b6fb1a6	0.0036574393
111	0xbe288f22	-0.16460851
112	0x3e245ff2	0.16052225
113	0x3e4ac382	0.19801143
114	0x3e0c5fe7	0.13708459
115	0xbd9342f6	-0.07190506
116	0xbda9b8b1	-0.0828718
117	0x3ce12b52	0.027486477
118	0xbd6d5263	-0.0579399
119	0x3cad93af	0.021188585
120	0x3cb15b35	0.021649936
121	0x3d9d760f	0.076885335
122	0x3cde9066	0.027168464
123	0xbd5c84e7	-0.053837683
124	0xbe31a9c1	-0.17349912
125	0xbe1f3680	-0.15548134
126	0x3e0ffb8f	0.14060806
127	0x3de9dbfe	0.11418913
128	0xba5dc449	-0.000845973
129	0xbddd5a9b	-0.10808297
130	0xbd2c3be1	-0.042049292
131	0xbdfc71bd	-0.12326381
132	0xbc302708	-0.010751493
133	0xbe04fd7d	-0.12987323
134	0xbbaab678	-0.0052097403
135	0xbd0ad650	-0.03389579
136	0xbe4d83d0	-0.20069814
137	0x3cd71a33	0.02625761
138	0x3ccdc339	0.025117503
139	0xbde0d098	-0.10977286
140	0x3d373640	0.04472947
141	0xbdf3b0dc	-0.118989676
142	0xbd44016b	-0.047852915
143	0x3d58c2f1	0.052920286
144	0xbd86b7e6	-0.065780446
145	0xbd095511	-0.03352839
146	0xbd19f3be	-0.037585966
147	0x3c9849e1	0.018589916
148	0xbe96772a	-0.2938779
149	0x3ce35b3f	0.02775347
150	0xbe0ef13d	-0.13959213
151	0x3c8c89a3	0.017155474
152	0x3dc7b644	0.09751561
153	0x3db3f260	0.08786464
154	0xbe442482	-0.19154552
155	0x3d9d98c8	0.07695156
156	0xbe22f7f2	-0.15914896
157	0xbdf98474	-0.121834666
158	0xbe753061	-0.23944236
159	0x3dab1790	0.083541036
160	0x3c83d68f	0.01609352
161	0x3e597155	0.21234639
162	0xbd7121f8	-0.058870286
163	0xbe205b05	-0.15659721
164	0x3d7dd2c4	0.06196858
165	0x3ca158f9	0.019695746
166	0x3bf53e58	0.0074842386
167	0xbc52d5c6	-0.01286835
168	0xbdb25bc3	-0.087089084
169	0xbcede00d	-0.0290375
170	0x3d1c0925	0.03809466
171	0x3dab3395	0.08359448
172	0xbe57277e	-0.21011159
173	0xbcd4793a	-0.025936712
174	0xbcb948d2	-0.022617731
175	0x3d6b126a	0.057390608
176	0xbb0eae3f	-0.002177134
177	0x3d423b68	0.047419935
178	0x3ca09e8a	0.019606847
179	0xbdcaed24	-0.09908512
180	0xbd3e1e4c	-0.046415612
181	0x3e08944e	0.13337824
182	0x3e20f722	0.15719274
183	0x3bff5b82	0.007792891
184	0x3d07cb12	0.033152647
185	0x3e17b185	0.14813812
186	0x3da4d38f	0.08048164
187	0x3c088e93	0.008334774
188	0xbd9198c5	-0.071092166
189	0x3dbae60d	0.0912591
190	0x3e63b61a	0.22237435
191	0xbdeb5ec3	-0.11492684
192	0xbd960847	-0.073257975
193	0x3dc1e3a7	0.09467249
194	0x3e575a91	0.21030642
195	0xbe025a3f	-0.12729739
196	0x3e3f9fa5	0.18713243
197	0xbbb0c813	-0.0053949445
198	0xbdb2f893	-0.08738818
199	0xbe10a4f5	-0.14125426
200	0xbe9d984e	-0.30780262
201	0xbd8897e8	-0.06669599
202	0x3d980bc5	0.0742412
203	0xbe374cd6	-0.17900404
204	0x3e521cb6	0.20518765
205	0x3d8b9289	0.06815059
206	0xbe46ddfd	-0.1942062
207	0x3e9a1398	0.30093074
208	0xbe383ad8	-0.17991197
209	0x3e05bc39	0.13060082
210	0xbd96708a	-0.07345684
211	0x3e320f0d	0.17388554
212	0x3e22d9f7	0.1590346
213	0xba8afa1d	-0.0010603104
214	0xbd90402b	-0.07043489
215	0x3c59a48c	0.01328386
216	0xbdb82150	-0.08990729
217	0x3dca6ad4	0.09883657
218	0x3d5f93b7	0.05458423
219	0x3cf6a721	0.03010899
220	0xbd0a0ff4	-0.03370662
221	0x3e658a0c	0.22415942
222	0x3e64f551	0.22359206
223	0xbcda64a9	-0.026659327
224	0xbd5ba868	-0.0536274
225	0x3e67dde6	0.22643241
226	0xbd9d41a2	-0.07678534
227	0x3d8307fd	0.06398008
228	0xbd068212	-0.03283889
229	0x3e8d7dfe	0.27635187
230	0x3d98364f	0.074322335
231	0xbc99f929	-0.018795567
232	0x3d53d6d9	0.051718567
233	0xbd39c76d	-0.045356203
234	0x3e84073e	0.25786775
235	0x3d8ae5fa	0.06782146
236	0xbd67d9fd	-0.056604374
237	0x3bed02af	0.007232986
238	0xbcf79e4b	-0.030226847
239	0x3e4db316	0.20087847
240	0x3e9bccd5	0.30429712
241	0x3d2cf27b	0.042223435
242	0xbe57de37	-0.21080862
243	0xbe7bdc07	-0.24595653
244	0x3e2e1577	0.17000376
245	0xbdaf99f5	-0.08574287
246	0x3e35dc9e	0.1775994
247	0xbdc19b91	-0.094535
248	0x3e0db809	0.13839735
249	0xbe414233	-0.18872909
250	0x3d9c11fa	0.07620616
251	0xbd46b78d	-0.04851489
252	0x3dfce991	0.12349237
253	0xbd12518c	-0.0357223
254	0x3d47fbee	0.048824243
255	0xbdac645d	-0.0841758

model.8.bias f4 [3]
0	0x3bccbe84	0.006248297
1	0x3c6054d4	0.0136921
2	0x3c6142da	0.013748849
