models/p2_actor_envs_2_lam_0_9639088910940194_gamma_0_9613463836803928_t_1400_a_lr_0_000994410050960162_c_lr_0_00025052125112337597.pth (torch, 209886 bytes, 10 tensors)

model.0.weight f4 [128, 6]
0	0xbd5babcf	-0.053630646
1	0x3da0c299	0.078496166
2	0x3f5d8553	0.8653156
3	0xbd7f30bf	-0.062302347
4	0x3dcdb6a1	0.10044599
5	0xbf028470	-0.50983334
6	0xbee98519	-0.45609358
7	0x3ec015ca	0.37516624
8	0xbe7fdb2c	-0.24985951
9	0x3ed93cb0	0.42429113
10	0xbf74a624	-0.9556601
11	0x3e4d28f5	0.20035155
12	0xbe88ac9b	-0.26694188
13	0x3e2b7187	0.16742526
14	0xbf15d0e2	-0.58521855
15	0x3f00c5fb	0.50302094
16	0xbed613f3	-0.41812095
17	0x400f6b57	2.2409265
18	0xbf0f3244	-0.55936074
19	0xbf914ad2	-1.1350958
20	0xbf38689b	-0.72034615
21	0x3e9df6b9	0.30852297
22	0x3f6bdd5d	0.9213465
23	0x3f0c41e7	0.5478806
24	0x3f0ff485	0.5623248
25	0xbee509fd	-0.44734183
26	0x3f32ebaf	0.69890875
27	0x3d58e9fd	0.052957524
28	0xbdcd2573	-0.100169085
29	0x3f47443a	0.7783848
30	0x3e95c258	0.29249835
31	0xbd7623c2	-0.060092695
32	0x3e6f457f	0.23366354
33	0xbe3a8371	-0.18214203
34	0x3f3f197c	0.7464826
35	0xbe955db7	-0.2917306
36	0x3f1b909d	0.6076754
37	0x3f05c81e	0.5225848
38	0xbea7aac3	-0.32747468
39	0x3fba3a3a	1.4549019
40	0x3f357487	0.7088093
41	0x3e298514	0.16554672
42	0x3f398408	0.7246709
43	0x3e8697ca	0.2628768
44	0x3eaee3c7	0.34158155
45	0x3fa62a31	1.2981626
46	0xbf03fdf7	-0.51559395
47	0xbd485ddf	-0.048917647
48	0xbe0c9af0	-0.13730979
49	0xbeac2592	-0.33622414
50	0xbe371392	-0.17878559
51	0xbc960d7f	-0.018316982
52	0x3eec8293	0.4619337
53	0x3f82ece9	1.0228549
54	0x3dfaed1d	0.12252257
55	0xbed7c775	-0.4214436
56	0x3eafc631	0.34330896
57	0xbf610831	-0.87903124
58	0x3ea36765	0.3191482
59	0xbf64bc53	-0.8934986
60	0x3ddf7b3e	0.109121785
61	0x3f008436	0.5020174
62	0xbf40650f	-0.75154203
63	0x3d9f41b6	0.07776205
64	0x3e3b3449	0.18281664
65	0xbf66cfeb	-0.9016101
66	0xbf0062aa	-0.5015055
67	0xbea35d63	-0.31907186
68	0xbf0a4ed3	-0.54026526
69	0x3b7f3621	0.0038942175
70	0x3f26db5b	0.6517846
71	0x3e8a0ed0	0.26964426
72	0x3f46dba3	0.7767889
73	0xbe2e2c94	-0.17009193
74	0x3ebe732b	0.3719724
75	0x3f05527b	0.5207898
76	0x3ebae8ec	0.3650583
77	0x3fd13986	1.634568
78	0x3e158822	0.14602712
79	0xbe6925e9	-0.22768368
80	0x3ef9e21d	0.48805323
81	0xbd5f3420	-0.05449307
82	0x3f318d99	0.69356686
83	0xbd9542f4	-0.07288161
84	0x3f04055b	0.5157067
85	0xbf0ba7e1	-0.5455304
86	0x3f6ec9b2	0.9327651
87	0x3f71a9df	0.9439983
88	0xbf324906	-0.69642675
89	0xbe608907	-0.21927272
90	0x3f61dc7b	0.8822705
91	0x3e2f0031	0.17089917
92	0xbeab7a15	-0.3349158
93	0x3f4b93e9	0.7952257
94	0x3e72c4bb	0.23707859
95	0x3d0bb798	0.034110636
96	0xbe480a79	-0.19535245
97	0x3ec0b5d6	0.3763873
98	0x3e1c9d36	0.15294346
99	0x3f1f2948	0.62172365
100	0x3f23f8af	0.64051336
101	0x3c8c9941	0.01716292
102	0xbf4f8513	-0.8106243
103	0x3e67a454	0.2262128
104	0xbf07ab75	-0.52996
105	0xbf1dffb6	-0.6171831
106	0x3e78c61c	0.24294323
107	0x3eb77a0d	0.35835305
108	0x3f3716cc	0.7151916
109	0xbf240ff6	-0.64086854
110	0x3f9f8cb0	1.246481
111	0x3e8167fe	0.25274652
112	0x3ee1c328	0.44094205
113	0xbe95b3c0	-0.292387
114	0xbf843722	-1.0329325
115	0xbf2447c3	-0.64172
116	0x3f128811	0.5723887
117	0x3e865fae	0.26244873
118	0xbf331a4c	-0.69962
119	0x3ec14b8c	0.3775295
120	0x3dd8d18e	0.105868444
121	0x3ee6b676	0.45061082
122	0x3fdc15d7	1.7194165
123	0x3ec15d6c	0.37766588
124	0x3f052994	0.5201657
125	0xbf1a6141	-0.6030465
126	0x3f767d6a	0.96285117
127	0xbe9e44b3	-0.30911788
128	0xbea1ed6a	-0.31626445
129	0xbd8ed58c	-0.069743246
130	0xbf1f5b27	-0.6224846
131	0xbd4b9fb2	-0.049712844
132	0x3ed8431a	0.42238694
133	0x3e84e965	0.25959316
134	0xbf3d42c3	-0.73929995
135	0x3e95b45f	0.29239175
136	0xbe52091e	-0.2051129
137	0xbf3249e5	-0.69644004
138	0xbdd245f6	-0.1026725
139	0xbf1be27c	-0.6089246
140	0x3e085653	0.1331418
141	0xbebead5c	-0.37241638
142	0xbfb13cb5	-1.3846651
143	0x3c99a988	0.018757597
144	0x3e44f93e	0.19235703
145	0xbd339ae1	-0.043848876
146	0xbf894a24	-1.0725751
147	0x3e094fea	0.13409391
148	0xbd898aec	-0.0671595
149	0x3dbb19c3	0.09135773
150	0x3b9ab0b2	0.0047207708
151	0x3f24ac31	0.64325243
152	0xbf35ea31	-0.7106047
153	0x3c3972ba	0.011318857
154	0x3f306635	0.68905956
155	0x3f265a66	0.6498169
156	0x3afc8dc2	0.0019268321
157	0x3f51db15	0.8197492
158	0xbf86570f	-1.0495318
159	0x3e35fe3b	0.17772762
160	0x3d363d31	0.04449195
161	0x3ee62732	0.4495178
162	0x3e72cf15	0.23711808
163	0xbeb1d79c	-0.3473481
164	0x3e9df5b6	0.30851525
165	0x3f29bb54	0.66301465
166	0x3ec3f55a	0.38273126
167	0xbf0a1b2b	-0.53947705
168	0x3ead35a5	0.3382999
169	0xbe6e09f3	-0.23245983
170	0x3f3e71e9	0.74392563
171	0x3dca78a3	0.09886291
172	0xbef62a54	-0.4807917
173	0x3f3801b7	0.71877617
174	0x3ee3f5d3	0.44523486
175	0xbf4003d2	-0.7500583
176	0x3eb2c374	0.34914744
177	0xbefc7c5e	-0.49313635
178	0xbca7db96	-0.020490449
179	0xbeed07e4	-0.46295083
180	0xbf0b0cc0	-0.5431633
181	0xbef0f1c7	-0.4705946
182	0xbf98710d	-1.19095
183	0xbe95f5a4	-0.2928897
184	0xbf438bb1	-0.7638503
185	0xbf0770f5	-0.52906734
186	0x3e663f79	0.2248515
187	0x3e3b2acc	0.18278044
188	0xbec253f9	-0.3795469
189	0xbecce1f7	-0.40016147
190	0x3eb1fd74	0.34763682
191	0x3dd3877a	0.103285745
192	0xbeb85db9	-0.36009005
193	0xbd6311a4	-0.055436745
194	0xbff2a56c	-1.8956733
195	0x3f3f281b	0.7467057
196	0x3e361219	0.17780341
197	0xbefa9371	-0.48940614
198	0xbedf4378	-0.43606162
199	0xbf4476d6	-0.7674383
200	0xbeac61de	-0.33668417
201	0x3e5f9713	0.21834974
202	0xbf1cb93f	-0.61220163
203	0x3ef5a36c	0.47976243
204	0x3e4f4923	0.20242743
205	0xbf884146	-1.064492
206	0xbea01e9a	-0.31273347
207	0x3e81c18e	0.25342983
208	0x3edbe809	0.42950466
209	0xbe8f30f1	-0.27967027
210	0x3e7187b1	0.23586918
211	0x3de0edd1	0.1098286
212	0x3dfa007b	0.12207123
213	0xbea61135	-0.32435003
214	0xbf29900c	-0.66235423
215	0x3e6dd891	0.23227145
216	0xbf92a195	-1.1455561
217	0xbe02d3f3	-0.12776165
218	0xbf3e9be2	-0.7445661
219	0xbf552721	-0.8326283
220	0x3e8a68ff	0.2703323
221	0xbe84d3d9	-0.25942877
222	0x3ebc83c4	0.3681928
223	0x3f4f93a1	0.8108464
224	0xbf247d9d	-0.6425417
225	0xbf064b03	-0.5245821
226	0xbe0848cb	-0.13309018
227	0xbf1371ae	-0.57595336
228	0xbf5b7417	-0.85724014
229	0xbfa43dbc	-1.283134
230	0xbf942741	-1.1574479
231	0xbfc5330b	-1.5406202
232	0x3e671776	0.22567543
233	0x3f1692a2	0.58817494
234	0xbe3cec02	-0.18449405
235	0x3f72d853	0.94861335
236	0x3dee9951	0.116503365
237	0x3e59ade0	0.21257734
238	0xbd6312d1	-0.055437867
239	0xbf25bef7	-0.64744514
240	0xbf0c578f	-0.54821104
241	0xbe9554dc	-0.29166305
242	0x3e2fcd52	0.17168167
243	0xbe88321c	-0.2660073
244	0x3b1f82cc	0.0024339436
245	0x3edfacfb	0.4368666
246	0x3e27eea8	0.16399634
247	0xbf082f13	-0.5319683
248	0x3f4a471d	0.7901476
249	0x3ea4879a	0.32134706
250	0xbe692bac	-0.22770566
251	0xbf59f78c	-0.8514335
252	0xbf7e5256	-0.99344385
253	0x3e873660	0.26408672
254	0xbe5b7bf4	-0.21434003
255	0x3d2976e7	0.04137316

model.0.bias f4 [128]
0	0x3d64558e	0.055745654
1	0x3d88f2a3	0.06686904
2	0x3de8eb2e	0.11372982
3	0x3c23d70a	0.01
4	0x3dbfd2f5	0.09366409
5	0x3d7d320f	0.061815318
6	0x3dd4147c	0.103554696
7	0x3dd494a9	0.10379917
8	0x3c23d70a	0.01
9	0x3d5a03ed	0.0532264
10	0x3e088d75	0.13335212
11	0x3c23d70a	0.01
12	0x3e1781bf	0.14795588
13	0x3e0e0242	0.13868049
14	0x3daee978	0.085406244
15	0x3db9d7d9	0.09074373
16	0x3dc47f01	0.095945366
17	0x3c23d70a	0.01
18	0x3da5356f	0.08066832
19	0x3c23d70a	0.01
20	0x3d9134d3	0.070901535
21	0x3db5acad	0.08870826
22	0x3dec4f55	0.11538569
23	0x3c23d70a	0.01
24	0x3da7768f	0.0817691
25	0x3dfa57e5	0.12223796
26	0x3e0d10c1	0.13775922
27	0x3e080fe8	0.13287318
28	0x3d1f5c3e	0.03890633
29	0x3d0e76fc	0.03478144
30	0x3c23d70a	0.01
31	0x3dc4f4f8	0.096170366
32	0x3d3dc4ad	0.046330143
33	0x3c23d70a	0.01
34	0x3c23d70a	0.01
35	0x3e025a20	0.12729692
36	0x3c23d70a	0.01
37	0x3dce7b71	0.10082138
38	0x3c23d70a	0.01
39	0x3dd7cc69	0.10537035
40	0x3c23d70a	0.01
41	0x3df76eca	0.12081678
42	0x3c23d70a	0.01
43	0x3d9ddae8	0.07707769
44	0x3e0ee05c	0.13952774
45	0x3d894f40	0.06704569
46	0x3de585c6	0.11207156
47	0x3e055072	0.13018969
48	0x3d8d6567	0.069041066
49	0x3ddb5e5e	0.107113585
50	0x3c23d70a	0.01
51	0x3c23d70a	0.01
52	0x3e1688ac	0.14700574
53	0x3d2f17f0	0.042747438
54	0x3dd1151e	0.10209106
55	0x3ddf314e	0.10898076
56	0x3e10c6ae	0.1413829
57	0x3db893c3	0.09012558
58	0x3dc4ab7b	0.0960302
59	0x3c23d70a	0.01
60	0x3dfc4379	0.12317557
61	0x3c80de44	0.015730985
62	0x3df3c265	0.11902312
63	0x3de75987	0.11296373
64	0x3c23d70a	0.01
65	0x3c23d70a	0.01
66	0x3dd6778b	0.1047202
67	0x3df5ad19	0.119959064
68	0x3defd4ee	0.11710535
69	0x3e10b668	0.14132082
70	0x3ca22965	0.01979513
71	0x3ce03863	0.027370637
72	0x3e0eb22b	0.13935153
73	0x3dbaec0f	0.09127056
74	0x3c23d70a	0.01
75	0x3e0d57bb	0.13802998
76	0x3e1871c5	0.1488715
77	0x3d47d98e	0.04879146
78	0x3e0cbcc0	0.13743877
79	0x3dae1c34	0.08501473
80	0x3dda1347	0.10648208
81	0x3c23d70a	0.01
82	0x3c23d70a	0.01
83	0x3b08d589	0.002087923
84	0x3e0c121d	0.13678785
85	0x3d8950ea	0.06704886
86	0x3e09ce78	0.13457668
87	0x3cb9585a	0.022625137
88	0x3d121776	0.035666905
89	0x3da62745	0.08112959
90	0x3ddbd4ff	0.10733985
91	0x3e0c7df3	0.13719921
92	0x3e098055	0.13427861
93	0x3e02bbef	0.12767003
94	0x3e0b4184	0.13599211
95	0x3e0ef423	0.13960318
96	0x3ddc69a2	0.10762335
97	0x3dc831d4	0.09775129
98	0x3de65722	0.11247088
99	0x3d721730	0.059104145
100	0x3d90ddb1	0.07073534
101	0x3db1d1f0	0.086826205
102	0x3e0dbdfe	0.13842008
103	0x3dcf62b2	0.101262465
104	0x3dd3d1b2	0.103427306
105	0x3d9c2e07	0.076259665
106	0x3d855e4d	0.06512127
107	0x3c23d70a	0.01
108	0x3d9776bd	0.073956944
109	0x3c23d70a	0.01
110	0x3db95e60	0.09051204
111	0x3c23d70a	0.01
112	0x3b951aa7	0.0045502963
113	0x3d4bc0cc	0.049744412
114	0xbcc4aeeb	-0.024009189
115	0x3c23d70a	0.01
116	0x3c23d70a	0.01
117	0x3df78b95	0.1208717
118	0x3e04cdc7	0.12969123
119	0xbcbe188d	-0.023205066
120	0x3d2d6d14	0.042340353
121	0x3dd489e1	0.10377861
122	0x3e0673b7	0.13130079
123	0x3ca523cc	0.02015867
124	0x3d5341db	0.051576477
125	0x3e111897	0.14169537
126	0x3e018a18	0.12650335
127	0x3e15d0b7	0.146304

model.2.weight f4 [128, 128]
0	0xbd132513	-0.03592403
1	0xbd3c4fa5	-0.045974392
2	0xbdb026b3	-0.08601131
3	0x3aa29372	0.0012403561
4	0xbd1cb869	-0.038261805
5	0xbccdeee9	-0.025138335
6	0xbe22a0fb	-0.15881722
7	0xbe026895	-0.12735207
8	0x3d8acc9c	0.067773074
9	0xbbe4f633	-0.006987357
10	0xbd16fc87	-0.036861923
11	0xbe575871	-0.21029831
12	0xbd148bb3	-0.03626604
13	0x3e27d9dc	0.163917
14	0xbaf1f73e	-0.0018460525
15	0xbcfbe344	-0.030748017
16	0x3d83fc58	0.06444615
17	0xbd0e585b	-0.03475223
18	0xbdef360c	-0.116802305
19	0xbdd72561	-0.10505176
20	0x3d2afb50	0.041743577
21	0x3cacffeb	0.021118125
22	0x3d0870d2	0.03331072
23	0xbc85cc47	-0.016332759
24	0xbe1bec6d	-0.15226908
25	0xbdd61b32	-0.10454406
26	0xbdd9307a	-0.10604949
27	0x3d8da0a9	0.06915409
28	0x3d52e5da	0.051488735
29	0xbdd47b13	-0.10375037
30	0xbca96d4b	-0.020681998
31	0x3e3cd136	0.18439183
32	0x3dc052fe	0.093908295
33	0xbd6eafc3	-0.05827309
34	0x3dd4dc3f	0.10393571
35	0x3e3126c3	0.17299943
36	0xbd5a3cce	-0.053280644
37	0x3daec291	0.08533204
38	0x3dca1a52	0.098683015
39	0x3e1bfbf1	0.15232827
40	0xbe29befd	-0.16576762
41	0xbd8e9c2f	-0.069633834
42	0x3cece3d9	0.02891724
43	0x3d15131c	0.036395177
44	0x3e0e4d05	0.13896568
45	0xbc81f76a	-0.015865047
46	0xbd154a29	-0.036447678
47	0xbd64d4f9	-0.05586717
48	0x3db044ab	0.086068474
49	0xbbb2ae99	-0.0054529426
50	0x3e4111b5	0.18854411
51	0xbe5385f6	-0.20656571
52	0x3c2c5b3a	0.010519797
53	0x3d5a167a	0.05324409
54	0xbe0df609	-0.13863386
55	0x3e0ea506	0.13930139
56	0xbd788ec7	-0.060683038
57	0xbe242b54	-0.16032153
58	0xbc9ba6dc	-0.019000463
59	0x3ca70849	0.020389693
60	0x3c1b387c	0.009473916
61	0x3d5a12d6	0.05324062
62	0x3ce9b731	0.028529735
63	0xbd2203e8	-0.039554507
64	0xbd8d7a29	-0.06908066
65	0x3d86f955	0.06590525
66	0xbe8bcb73	-0.27303657
67	0xbd6e3dfd	-0.058164585
68	0x3da762c9	0.08173139
69	0x3e4d9c07	0.20079051
70	0xbddd2824	-0.10798672
71	0x3e1cc938	0.15311134
72	0x3e6cdb4e	0.23130533
73	0xbe103cf7	-0.14085756
74	0xbe374674	-0.1789797
75	0x3e32ae17	0.17449223
76	0xbdd996be	-0.10624455
77	0xbceecc43	-0.029150134
78	0xbc8a34e1	-0.016870918
79	0xbe1815d1	-0.14852072
80	0xbd268635	-0.040655334
81	0x3d9dba7b	0.07701584
82	0xbde76db5	-0.11300222
83	0xbd9109be	-0.07081936
84	0xbdef3969	-0.11680872
85	0xbda2ba07	-0.07945638
86	0xbdd344ea	-0.10315879
87	0xbe25d635	-0.16194995
88	0xbdbabc3f	-0.09117936
89	0xbda12aeb	-0.07869514
90	0xbd86c318	-0.0658018
91	0x3e6fddd7	0.23424469
92	0xbe844d08	-0.2584002
93	0xbd2e46be	-0.042547934
94	0x3bb410a1	0.0054951464
95	0xbd98d3d5	-0.07462279
96	0x3db9fd21	0.09081484
97	0x3d5d0b32	0.053965755
98	0x3e1bc3ad	0.15211363
99	0xbe4c126f	-0.19928907
100	0xbdcdf467	-0.10056382
101	0xbdfd9d7f	-0.123835556
102	0x3c941ff3	0.01808164
103	0x3dbebe4b	0.09313639
104	0xbc6197e2	-0.013769122
105	0x3ddf068e	0.10889922
106	0xbe464ccc	-0.19365233
107	0xbd592d23	-0.05302156
108	0x3e02bf8a	0.12768379
109	0x3e1d8713	0.15383558
110	0xbce6ae23	-0.028159207
111	0x3c6e08e6	0.014528489
112	0xbeb3e784	-0.3513757
113	0xbe81cfe7	-0.2535393
114	0xbd3c4947	-0.04596832
115	0xbdafb157	-0.08578747
116	0x3e11a6b4	0.14223748
117	0xbbaa4ecf	-0.005197383
118	0xbcbb6c77	-0.022878869
119	0xbe21438b	-0.15748422
120	0x3dbe9307	0.09305387
121	0xbc37cb65	-0.011217927
122	0xbd0a49bb	-0.03376172
123	0xbe2d38c0	-0.1691618
124	0xbdabbd26	-0.083856866
125	0x3cbc07a9	0.022952871
126	0xbe369911	-0.17831828
127	0x3e94f3a8	0.29092145
128	0x3e066574	0.13124639
129	0xbbdad094	-0.0066776965
130	0xbd34a18e	-0.044099383
131	0x3d4ddd40	0.05025983
132	0x3d858edd	0.0652139
133	0x3def951e	0.11698364
134	0x3d739bf9	0.05947492
135	0x3db86b0d	0.09004793
136	0xbd2575ad	-0.040395427
137	0x3d5cfaf2	0.053950258
138	0x3d572f03	0.05253507
139	0x3d8ff0b0	0.07028329
140	0xbdba43f9	-0.09094996
141	0xbe450253	-0.19239168
142	0x3960553b	0.00021394056
143	0x3c935e9e	0.017989453
144	0x3de34883	0.11097815
145	0x3c23f576	0.010007253
146	0x3bb80ca1	0.00561674
147	0x3de05065	0.10952834
148	0x3d0ca398	0.034335703
149	0xbe6e6373	-0.23280124
150	0xbd47096a	-0.048592962
151	0x3d9ee070	0.07757652
152	0x3de7e418	0.11322802
153	0x3cc06516	0.023485702
154	0xbd8999cb	-0.06718787
155	0xbe4d2aad	-0.20035811
156	0x3de3eedc	0.11129543
157	0x3cdd9969	0.02705069
158	0xbe88b6e8	-0.26702046
159	0x3cd6e288	0.026231065
160	0xbdf87e88	-0.12133509
161	0xbb5b670b	-0.0033478166
162	0x3d93f4d8	0.072244346
163	0xbe5ef7bd	-0.21774192
164	0xbdc81bf3	-0.09770956
165	0xbdcfe858	-0.10151738
166	0x3ddf97cb	0.10917624
167	0xbd63e7e0	-0.055641055
168	0x3e39d1ea	0.18146482
169	0xbe5afa24	-0.21384484
170	0x3cc77427	0.024347378
171	0x3da8da43	0.08244755
172	0xbe3ec281	-0.18628885
173	0xbdba944c	-0.09110317
174	0x3ca05ef3	0.019576525
175	0x3e178de8	0.14800227
176	0x3d9ce0db	0.07660075
177	0xbe0b5ae8	-0.13608897
178	0x3bfcda6b	0.007716467
179	0xbdcf343c	-0.10117385
180	0xbdc8d149	-0.09805543
181	0x3cd63b2a	0.026151258
182	0x3db420c4	0.08795312
183	0xbcf6a23b	-0.030106654
184	0x3b4066fa	0.0029358254
185	0x3e01dc6a	0.12681738
186	0xbdaf1831	-0.08549536
187	0x3e606baa	0.2191607
188	0xbecb001c	-0.3964852
189	0xbd86e5cf	-0.06586801
190	0xbc8f9b48	-0.017530099
191	0x3dad5ebd	0.084653355
192	0x3d48cbf0	0.049022615
193	0xbe20225a	-0.15638104
194	0xbe5a0dfc	-0.21294397
195	0x3c2b6598	0.010461234
196	0x3e10becb	0.14135282
197	0xbe9c59c6	-0.30537242
198	0x3d885cc7	0.06658321
199	0x3e8ce989	0.27521923
200	0x3e23b2a1	0.1598611
201	0xbd81def1	-0.06341351
202	0x3c0eb710	0.008710638
203	0xbe6ae25e	-0.22937915
204	0xbc13dbc6	-0.009024566
205	0xbd9e2751	-0.07722343
206	0xbe268177	-0.16260324
207	0xbd0151aa	-0.03157202
208	0x3c9d9221	0.019234719
209	0x3c2a9081	0.010410429
210	0x3e54c222	0.20777181
211	0x3cf24b59	0.029576944
212	0xbe72ffa7	-0.23730336
213	0xbe512320	-0.20423555
214	0x3db42532	0.08796157
215	0x3d55e15a	0.052216865
216	0x3d269ad8	0.040675014
217	0x3def22d3	0.11676564
218	0xbe3868cc	-0.18008727
219	0xbd3ff842	-0.046867616
220	0xbe21ec76	-0.15812859
221	0xbe21a7bb	-0.1578664
222	0xbd0d9bce	-0.034572415
223	0x3e5780ce	0.21045229
224	0x3d8be1db	0.06830188
225	0xbc19cd5f	-0.009387343
226	0x3d39d3ff	0.04536819
227	0x3d826691	0.06367219
228	0x3e0f1809	0.13974012
229	0x3dca2143	0.098696254
230	0xba783aa6	-0.00094691885
231	0x3dcdf7bd	0.10057018
232	0xbe82ec10	-0.25570726
233	0xbdd2b36f	-0.102881305
234	0x3db74026	0.08947782
235	0x3e296e37	0.1654595
236	0xbcc0ea29	-0.023549156
237	0x3ddebd8c	0.10875997
238	0xbd81481b	-0.06312581
239	0x3e318ef8	0.17339694
240	0x3db104eb	0.08643516
241	0x3d8db5dc	0.069194525
242	0x3e62f3c4	0.22163302
243	0x3e046ca5	0.1293207
244	0xbdfe4dbb	-0.1241717
245	0x3d83cca2	0.06435515
246	0xbd652185	-0.05594017
247	0x3d4778bf	0.048699137
248	0xbe0a1ca4	-0.13487488
249	0xbc287618	-0.010282062
250	0xbe638694	-0.22219306
251	0xbcc82652	-0.024432335
252	0x3e2c5d14	0.16832381
253	0x3d6a9238	0.05726835
254	0xbd3ed0b6	-0.04658576
255	0xbe240fd6	-0.16021666

model.2.bias f4 [128]
0	0x3c23d70a	0.01
1	0x3c23d70a	0.01
2	0x3e044189	0.12915625
3	0x3d889759	0.06669492
4	0x3ad09089	0.0015912215
5	0x3c23d70a	0.01
6	0x3d8de78d	0.069289304
7	0x3afbde67	0.0019216061
8	0x3de8cf36	0.11367647
9	0x3db7fb08	0.08983427
10	0x3d95dfed	0.07318101
11	0x3d902d36	0.07039873
12	0x3d05c5be	0.032659285
13	0x3de06b1c	0.109579295
14	0x3dd806ba	0.10548158
15	0xbb5d4405	-0.0033762467
16	0x3c23d70a	0.01
17	0x3d799f49	0.06094292
18	0x3b3ddb0b	0.002896967
19	0xbc8918f7	-0.016735537
20	0x3da40884	0.08009437
21	0x3c23d70a	0.01
22	0x3ba03775	0.0048894235
23	0x3c23d70a	0.01
24	0x3b203f43	0.002445177
25	0x3dd9b773	0.10630693
26	0x3d3982f9	0.04529092
27	0x3d855936	0.06511156
28	0x3da48d61	0.080347784
29	0x3c23d70a	0.01
30	0x3c23d70a	0.01
31	0x3d969112	0.07351889
32	0x3d85d1a3	0.06534126
33	0x3c23d70a	0.01
34	0x3d7f3b06	0.06231215
35	0x3dfa6d6a	0.122279
36	0x3c23d70a	0.01
37	0x3c23d70a	0.01
38	0x3c23d70a	0.01
39	0x3c23d70a	0.01
40	0x3d4533b2	0.048145004
41	0x3c23d70a	0.01
42	0x3c23d70a	0.01
43	0x3e08b9c5	0.13352115
44	0x3dd818ad	0.105515815
45	0x3d6735e2	0.05644787
46	0x3d5cb30c	0.05388169
47	0x3dba5b25	0.09099416
48	0x3d81b6b9	0.0633368
49	0x3c23d70a	0.01
50	0x3df8703e	0.121307835
51	0x3e0c2a74	0.1368807
52	0x3b50a52a	0.0031836727
53	0x3e00fdad	0.1259677
54	0x3debcfe5	0.11514262
55	0x3db4b9ca	0.08824499
56	0x3d75390f	0.05986887
57	0x3d97f2dc	0.074193686
58	0x3d48d9bb	0.04903577
59	0x3e0e3939	0.13889016
60	0x3d7fd874	0.062462285
61	0x3e02e281	0.12781717
62	0x3d8caab1	0.06868494
63	0x3c23d70a	0.01
64	0x3d87deae	0.0663427
65	0x3d50c352	0.050967522
66	0xbb5b688b	-0.003347906
67	0x3c23d70a	0.01
68	0x3de60bf5	0.112327494
69	0x3d534c28	0.0515863
70	0xbc23c3bb	-0.009995396
71	0x3de092da	0.1096551
72	0x3d3fc85a	0.04682193
73	0x3d95a48d	0.07306776
74	0x3d7c7344	0.061633363
75	0x3c23d70a	0.01
76	0x3dc4ebd8	0.09615296
77	0x3e076498	0.13221967
78	0x3e085516	0.13313708
79	0x3db0b242	0.0862775
80	0x3d7d7ad6	0.061884724
81	0x3d9ad64a	0.07560404
82	0x3b4e1cde	0.0031450312
83	0x3d90a0db	0.07061931
84	0xbbff60bb	-0.0077935136
85	0x3db68a0e	0.089130506
86	0x3c23d70a	0.01
87	0x3d862ac4	0.06551126
88	0x3c23d70a	0.01
89	0x3ded9458	0.1160056
90	0x3c23d70a	0.01
91	0x3b203ca7	0.0024450214
92	0x3d8fa4df	0.070138685
93	0xbb393f90	-0.0028266646
94	0x3dc10b1a	0.094259456
95	0x3e11f5ac	0.14253873
96	0x3ded971f	0.1160109
97	0x3daa6a10	0.08321011
98	0x3d99069a	0.07471962
99	0x3db8506a	0.08999713
100	0x3d7caef2	0.06169028
101	0x3db27de0	0.08715415
102	0x3d8507d5	0.064956345
103	0x3dd1f1ca	0.10251196
104	0x3de66826	0.112503335
105	0xba9ce154	-0.0011969008
106	0x3df51ce9	0.11968405
107	0x3df06554	0.11738077
108	0x3e15d316	0.14631304
109	0x3c23d70a	0.01
110	0x3d698bb3	0.057017993
111	0x3d931788	0.071822226
112	0x3d3d206b	0.046173494
113	0x3dac249e	0.08405422
114	0x3d2bba29	0.041925583
115	0xbbe481df	-0.0069734897
116	0x3d487fd6	0.04895004
117	0x3d7b86d3	0.061407875
118	0x3dc39767	0.09550362
119	0x3e001e76	0.1251162
120	0x3d6560ce	0.056000523
121	0x3cfd9d9f	0.030958949
122	0x3debca42	0.11513187
123	0x3d820864	0.06349257
124	0x3e002ce1	0.1251712
125	0x3db82527	0.08991461
126	0x3c23d70a	0.01
127	0x3e0c90e1	0.13727142

model.4.weight f4 [128, 128]
0	0xbdb76729	-0.08955223
1	0xbe0a8ffe	-0.13531491
2	0x3e20807c	0.15674013
3	0xbefdc469	-0.49563912
4	0xbd966cca	-0.073449686
5	0x3db02c6f	0.08602225
6	0x3e8e7ea1	0.27830985
7	0xbecfa6e3	-0.40557012
8	0xbdad8fe0	-0.084747076
9	0x3e0e8f75	0.13921912
10	0x3df7806d	0.12085042
11	0x3d0912a8	0.033465058
12	0xbc6f5b63	-0.014609191
13	0x3e4e12a4	0.20124298
14	0x3efe463d	0.49662963
15	0x3d41bb1f	0.047297593
16	0xbcc52107	-0.0240636
17	0xbe78cb6f	-0.24296354
18	0x3cbbabbc	0.022909038
19	0x3c3883f1	0.011261926
20	0x3df82be7	0.12117749
21	0x3d1a7c2b	0.037716072
22	0x3dc05ea6	0.09393053
23	0x3ddca273	0.10773172
24	0x3bc535f9	0.006018397
25	0x3d982cc7	0.074304156
26	0xbe767844	-0.24069315
27	0xbd8e7fce	-0.069579706
28	0x3df3a5e9	0.11896879
29	0x3c3af673	0.011411297
30	0x3da9cd0a	0.08291061
31	0xbca9cacf	-0.02072659
32	0xbe802453	-0.25027713
33	0xbdb7321a	-0.08945103
34	0xbdcdedae	-0.100550994
35	0x3aaf13c4	0.0013357331
36	0x3dbe4baa	0.092917755
37	0xbe0d5a63	-0.13804011
38	0x3bc5d380	0.0060371757
39	0x3c4a3612	0.012341993
40	0x3e6be008	0.2303468
41	0xbd9f073f	-0.07765054
42	0x3d04b83e	0.03240227
43	0x3e425dad	0.18981047
44	0x3db11e4e	0.08648358
45	0xbe7adfe1	-0.24499466
46	0xbe6fa2f5	-0.23402007
47	0x3e5aa8c8	0.21353447
48	0x3e9be7cf	0.30450293
49	0xbd726fba	-0.059188582
50	0x3d394841	0.045234922
51	0xbb8547c5	-0.0040673935
52	0x3e614502	0.2199898
53	0x3e85668d	0.26054803
54	0x3e1c712e	0.1527755
55	0xbdb15c6b	-0.086602055
56	0xbdb85947	-0.09001403
57	0x3ec0e832	0.3767715
58	0x3d84cbcc	0.06484184
59	0x3ed4dd09	0.41574886
60	0xbe37edcd	-0.17961808
61	0x3e32fccc	0.17479247
62	0x3df72c10	0.12068951
63	0x3d3c38b5	0.045952518
64	0xbdf0bd20	-0.11754823
65	0x3e4bc470	0.19899154
66	0xbda1218b	-0.07867726
67	0xbd956051	-0.072937615
68	0x3e513b15	0.20432694
69	0x3dd39ac0	0.103322506
70	0xbde3bcb7	-0.11119979
71	0xbdebf50e	-0.1152135
72	0x3eeca022	0.46215922
73	0x3b3f2788	0.002916785
74	0x3de46fd0	0.11154139
75	0x3d618a60	0.055063605
76	0x3ef4982c	0.47772348
77	0xbc86a947	-0.01643814
78	0x3da9df18	0.08294505
79	0xbe1dcc03	-0.15409856
80	0xbe155694	-0.14583808
81	0xbe15bc8d	-0.14622708
82	0x3e09dc48	0.13462937
83	0xbe37525d	-0.17902513
84	0x3d09818f	0.033570822
85	0xbe720f78	-0.23638713
86	0xbd062a1f	-0.032755014
87	0x3c484a17	0.012224696
88	0x3dd91723	0.10600116
89	0x3e0d0a26	0.13773403
90	0x3c563a99	0.013075494
91	0x3d9a3aaf	0.07530724
92	0xbea8bd8a	-0.32957107
93	0xbd3617be	-0.044456236
94	0x3e5ec4eb	0.21754806
95	0x3e415f96	0.1888412
96	0xbe85d049	-0.2613547
97	0x3e36ab2e	0.17838737
98	0xbda3ee21	-0.08004404
99	0x3df33926	0.118761346
100	0x3e8e2112	0.27759606
101	0x3d03d248	0.03218296
102	0xbe85cf5d	-0.26134768
103	0x3e1d1f53	0.1534398
104	0x3e750c2f	0.23930429
105	0x3dcc0a09	0.099628516
106	0xbe471e98	-0.19445264
107	0x3e836ca7	0.25668833
108	0x3e45564f	0.19271205
109	0xbca1c2eb	-0.019746264
110	0xbd4642f3	-0.04840369
111	0x3e9498eb	0.29022917
112	0xbd00d77b	-0.0314555
113	0x3e01529a	0.12629166
114	0xbc1073d8	-0.008816682
115	0x3ccd29c3	0.025044328
116	0xbe01fb1e	-0.1269345
117	0xbe1001f6	-0.14063248
118	0x3e3a02db	0.18165152
119	0x3e75d1fb	0.24005882
120	0x3d3ade0b	0.045621913
121	0x3e9152ee	0.28383583
122	0x3e842247	0.25807402
123	0xbd693687	-0.056936767
124	0x3e76e7b5	0.24111827
125	0x3e24b55d	0.1608481
126	0xbe9ba131	-0.30396417
127	0x3e2348e0	0.15945768
128	0x3e061199	0.1309265
129	0xbd7d65c4	-0.06186463
130	0xbda4171a	-0.08012219
131	0xbe602b6d	-0.21891566
132	0xbd81184e	-0.06303464
133	0xbda1aaac	-0.07893881
134	0xbe77a3d3	-0.24183588
135	0x3c9a4e69	0.018836217
136	0x3e058ee5	0.13042791
137	0xbe92a53c	-0.2864169
138	0x3d66f44c	0.056385323
139	0xbdf1211e	-0.11773895
140	0xbe314051	-0.17309691
141	0x3da74517	0.08167475
142	0xbe114491	-0.14186312
143	0x3e2778eb	0.1635472
144	0x3e3b630a	0.18299499
145	0xbca77c12	-0.020444904
146	0xbda5bef9	-0.08093066
147	0xbd8e69fa	-0.06953807
148	0xbbdadd08	-0.006679181
149	0xbd8a2851	-0.06745971
150	0xbe30d267	-0.17267762
151	0x3d7d1f0d	0.06179719
152	0x3dbeb686	0.09312157
153	0xbe4593d8	-0.19294679
154	0xbdb72b6f	-0.08943831
155	0xbd59c485	-0.05316593
156	0xbdcb158e	-0.099162206
157	0xbbb10fae	-0.0054034805
158	0xbdec3f55	-0.11535517
159	0xbd698924	-0.057015553
160	0x3e270fb0	0.16314578
161	0x3d69ae58	0.057051033
162	0x3e479e4a	0.19493976
163	0x3d7adc9c	0.061245546
164	0x3dd9e2b4	0.10638943
165	0x3d8b4e1f	0.0680201
166	0xbe505f22	-0.2034879
167	0x3cfb190e	0.030651595
168	0xbd703061	-0.058639888
169	0xbdad76f5	-0.08469955
170	0x3e40860c	0.18801135
171	0xbdcb1184	-0.0991545
172	0xbe6f2b50	-0.23356366
173	0x3ca05cc4	0.019575484
174	0x3d62a2f0	0.05533117
175	0x3daa9563	0.083292745
176	0x3cbc4cf6	0.022985917
177	0x3dd0e004	0.101989776
178	0xbc6b8509	-0.01437498
179	0x3dd3e58c	0.10346517
180	0x3d7c4bdb	0.06159578
181	0x3d573d22	0.052548535
182	0xbd5256aa	-0.05135218
183	0x3d873c62	0.06603314
184	0xbe635dd8	-0.22203767
185	0x3da883af	0.08228242
186	0x3e356058	0.17712533
187	0x3d82608b	0.0636607
188	0xbd9cdaf1	-0.07658947
189	0xbe869457	-0.2628505
190	0xbdc2c1b9	-0.09509606
191	0xbc96a134	-0.018387415
192	0x3d215439	0.03938696
193	0x3d9385e1	0.0720327
194	0x3daf2a55	0.08552996
195	0xbd26b217	-0.040697183
196	0xbd02f91d	-0.031975854
197	0x3a2a22f0	0.00064901914
198	0x3d8536b6	0.06504576
199	0xbda68648	-0.08131081
200	0xbce8582e	-0.02836236
201	0x3d62d11b	0.0553752
202	0x3d8ba18b	0.06817921
203	0x3e2ecb39	0.17069711
204	0xbccaba3e	-0.02474701
205	0xbd6aa8a4	-0.057289734
206	0xbaef0902	-0.0018236937
207	0xbd66f01c	-0.05638133
208	0xbcc71cd8	-0.024305746
209	0x3d9359d0	0.07194865
210	0x3bab7d1f	0.0052334215
211	0xbe0d9e89	-0.13830008
212	0x3e0f4804	0.13992316
213	0xbde8d0ac	-0.11367926
214	0xbe7a880a	-0.24465957
215	0x3db48057	0.088135414
216	0x3ac29bb4	0.0014847429
217	0xbd5c5845	-0.053795118
218	0xbdbc3f91	-0.09191812
219	0xbe0c0582	-0.13673976
220	0xbe141c76	-0.14463982
221	0x3d8663f8	0.06562036
222	0x3dce7541	0.10080958
223	0xbe8af70e	-0.27141613
224	0x3e65ff0d	0.22460575
225	0xbbddcad0	-0.006768562
226	0xbd626c17	-0.055278864
227	0xbd3c2660	-0.045935035
228	0x3d421854	0.047386482
229	0x3d9f6a12	0.07783903
230	0x3de41394	0.11136547
231	0xbe2ef11b	-0.17084162
232	0xba8fac6a	-0.0010961418
233	0xbc85c499	-0.016329097
234	0xbe9875a1	-0.29777244
235	0xbd85a599	-0.06525726
236	0xbdd4c1fc	-0.10388562
237	0xbc476662	-0.012170406
238	0x3c8938a6	0.016750645
239	0xbe15e0d5	-0.14636548
240	0xbd7b46c6	-0.06134679
241	0x3a9e1e02	0.0012063386
242	0x3a0f7ae2	0.0005473328
243	0xbe003100	-0.12518692
244	0x3d23ce13	0.03999145
245	0x3dee40a4	0.11633423
246	0xbd29bfe4	-0.041442767
247	0xbdb9fca6	-0.09081392
248	0x3d95f246	0.073216006
249	0xbe237b72	-0.1596506
250	0x3d61f906	0.055169128
251	0x3dfc6a47	0.12324958
252	0xbe483ca2	-0.1955438
253	0x3d6ca310	0.057772696
254	0xbd0cb8b1	-0.034355823
255	0x3ddde502	0.108346954

model.4.bias f4 [128]
0	0x3dc2c436	0.095100805
1	0x3c23d70a	0.01
2	0x3d668a75	0.056284387
3	0x3e055e13	0.13024168
4	0x3abedf2d	0.0014562361
5	0x3d8d80ea	0.06909354
6	0x3c23d70a	0.01
7	0x3dad07c4	0.08448747
8	0x3d801de8	0.06255704
9	0x3e061685	0.13094528
10	0x3df5376a	0.1197346
11	0xbc1c316d	-0.009533268
12	0x3df0bba8	0.117545426
13	0xbb8a4aef	-0.0042203586
14	0x3dfc09d7	0.12306564
15	0x3db335c1	0.08750487
16	0x3da65670	0.081219554
17	0x3b78eaff	0.0037981865
18	0x3b0a939a	0.0021145106
19	0x3d5480e8	0.051880747
20	0x3d358817	0.04431924
21	0x3e06b89d	0.13156362
22	0x3e0906fa	0.13381568
23	0x3e00221a	0.12513009
24	0x3d797bbe	0.060909025
25	0x3e073b09	0.13206114
26	0x3b040278	0.0020143073
27	0x3ab50e1c	0.0013813409
28	0x3b9b183e	0.0047331145
29	0x3dad13bd	0.084510304
30	0x3e09290f	0.13394569
31	0x3dc014cd	0.093789674
32	0x3c23d70a	0.01
33	0xb92a2f62	-0.00016230115
34	0x3d8a295e	0.067461714
35	0x3e0b2cdb	0.1359133
36	0x3c23d70a	0.01
37	0x3aea22e6	0.0017863184
38	0x3c23d70a	0.01
39	0x3e0c3745	0.13692959
40	0x3d451d3a	0.048123576
41	0x3da02d2c	0.07821116
42	0x3c23d70a	0.01
43	0x3c23d70a	0.01
44	0x3ba004f9	0.0048834053
45	0x3d784612	0.0606137
46	0x3c23d70a	0.01
47	0x3da48248	0.08032662
48	0x3d935b75	0.071951784
49	0x3dc30cbf	0.095239155
50	0x3d8f1eaa	0.069882706
51	0x3c23d70a	0.01
52	0xbb84c7e1	-0.0040521477
53	0xbb35ba38	-0.0027729403
54	0x3b2222bd	0.0024739944
55	0x3d8716c5	0.0659614
56	0x3d1badd4	0.038007572
57	0x3c23d70a	0.01
58	0x3ddd66a4	0.10810593
59	0xbbca1b7e	-0.006167828
60	0x3dbd1a6b	0.092335545
61	0x3da728d0	0.08162081
62	0x3e05525c	0.13019699
63	0xbbbda979	-0.005788025
64	0x3c23d70a	0.01
65	0x3dadad86	0.084803626
66	0x3c4b5d3f	0.012412368
67	0x3da12678	0.078686655
68	0x3d48d5e9	0.049032126
69	0x3d81e74b	0.06342944
70	0x3c23d70a	0.01
71	0x3da17780	0.07884121
72	0x3db2f2bf	0.087377064
73	0xbae4d35d	-0.0017458011
74	0x3d8069b8	0.06270164
75	0x3d9a03be	0.07520245
76	0x3d90ad4f	0.07064306
77	0x3dc2bb1a	0.09508343
78	0xbaacd8e9	-0.0013187203
79	0x3db7d14f	0.08975469
80	0x3d8bf2ea	0.068334416
81	0x3df0ab64	0.1175144
82	0x3df7d667	0.12101441
83	0x3d7208fe	0.059090607
84	0x3dcf0094	0.10107532
85	0x3dc2da53	0.09514298
86	0x3c413350	0.011792019
87	0xbaa5b1c8	-0.0012641484
88	0x3d8a7c2c	0.06761965
89	0x3dde6529	0.108591385
90	0xb93af492	-0.00017829452
91	0x3d8b0309	0.06787688
92	0x3b7c3ec9	0.0038489571
93	0x3d7809fd	0.0605564
94	0x3dc3e980	0.09566021
95	0x3c23d70a	0.01
96	0x3d9368b7	0.07197707
97	0x3de5fe81	0.112301834
98	0x3d47177f	0.048606392
99	0x3dbcba67	0.09215241
100	0x3c23d70a	0.01
101	0x3ba13a8f	0.004920311
102	0x3c23d70a	0.01
103	0x3de7ea24	0.11323956
104	0x3c23d70a	0.01
105	0x3b889b95	0.0041689374
106	0xbaf70f51	-0.0018849169
107	0x3c23d70a	0.01
108	0x3dbe3018	0.09286517
109	0x3bb1761e	0.005415692
110	0x3d87a3d7	0.06623047
111	0x3d73bd3a	0.059506632
112	0x3d86da02	0.065845504
113	0x3dde791a	0.10862942
114	0x3d77d26d	0.060503412
115	0x3dcb491d	0.099260546
116	0x3defd408	0.117103636
117	0x3df439ea	0.11925109
118	0x3d8b8530	0.06812513
119	0x3d62657f	0.055272575
120	0x3d735b8a	0.05941347
121	0x3c23d70a	0.01
122	0x3d4c8043	0.049927007
123	0x3b2ab6af	0.002604883
124	0x3dd2c088	0.10290629
125	0x3c23d70a	0.01
126	0x3c23d70a	0.01
127	0x3e080874	0.13284475

model.6.weight f4 [128, 128]
0	0x3e8f5948	0.27997804
1	0x3d06de95	0.032927115
2	0x3d5b4ec3	0.05354191
3	0x3e29d299	0.16584243
4	0xbd632391	-0.05545384
5	0xbe35604b	-0.17712514
6	0x3d86c4f4	0.065805346
7	0x3ea66d72	0.32505375
8	0xbd51ac29	-0.051189575
9	0x3e23cc7f	0.15995978
10	0x3e9431f2	0.28944355
11	0xbd34abb0	-0.044109046
12	0x3e67827d	0.22608371
13	0x3ea14dec	0.31504762
14	0x3dccb771	0.09995926
15	0xbe0c0bf3	-0.13676433
16	0x3d15354a	0.036427774
17	0xbe51a6c2	-0.2047377
18	0xbd63c9c9	-0.05561236
19	0xbb64cc5b	-0.0034911844
20	0x3e010877	0.12600885
21	0xbcd86e82	-0.026419882
22	0x3e03f30e	0.12885687
23	0x3e602362	0.21888497
24	0xbe808b7e	-0.25106424
25	0x3e24012c	0.16016072
26	0xbea69e57	-0.3254268
27	0x3d47afd5	0.04875167
28	0xbe26d3e0	-0.16291761
29	0x3de10ff7	0.10989373
30	0x3e18ab7e	0.14909169
31	0x3e8dcd78	0.27695823
32	0xbd4956a9	-0.04915491
33	0xbdb4ae64	-0.08822325
34	0xbe404d30	-0.18779445
35	0x3dc718a6	0.09721498
36	0x3d10c6dd	0.0353459
37	0x3e710106	0.23535547
38	0xbc9c46da	-0.019076753
39	0x3e67aa66	0.22623596
40	0x3d22f9f6	0.039789163
41	0x3ee586fd	0.4482955
42	0xbe1de086	-0.1541768
43	0xbcf49719	-0.029857205
44	0xbd9030d8	-0.07040566
45	0x3e164646	0.14675245
46	0x3d050208	0.03247264
47	0x3eb151d7	0.3463275
48	0xbcddb6f4	-0.027064778
49	0xbc06eea5	-0.008235608
50	0xbe3f41b9	-0.18677415
51	0x3e0e54db	0.13899557
52	0xbd98f45f	-0.07468485
53	0xbdb8bc03	-0.090202354
54	0xbd600c32	-0.05469913
55	0xbd9bb90d	-0.07603655
56	0xbe12cff9	-0.14337148
57	0x3d93b191	0.072116025
58	0x3dbd8e48	0.092556536
59	0xbd033bf8	-0.032039613
60	0x3eb133a5	0.34609714
61	0x3d814924	0.063127786
62	0x3e91cebe	0.28478044
63	0xbcbea03e	-0.023269769
64	0xbc6fe168	-0.014641143
65	0xbe28de12	-0.16490963
66	0xbde47da7	-0.11156779
67	0xbd977265	-0.07394866
68	0x3c2db990	0.010603324
69	0x3d9b87dd	0.07594273
70	0x3dcda6a6	0.10041551
71	0x3db7d5d0	0.089763284
72	0x3e308710	0.17239022
73	0xbe10f6cd	-0.14156647
74	0xbda74cbb	-0.08168932
75	0x3e42ca47	0.19022475
76	0xbd75dda7	-0.060025837
77	0x3eb81660	0.3595457
78	0xbd92baf4	-0.07164565
79	0x3a93f3ab	0.0011287829
80	0xbe1233ee	-0.14277622
81	0x3e14fbf0	0.14549232
82	0xbc801ee3	-0.015639728
83	0x3e2fcdae	0.17168304
84	0x3e268f75	0.16265662
85	0x3ca1d621	0.019755425
86	0xbdb5539d	-0.088538386
87	0xbe73218c	-0.23743266
88	0x3ebabb2e	0.36470932
89	0x3ec7b990	0.3900876
90	0xbcefcc68	-0.029272273
91	0xbdc91f53	-0.09820428
92	0x3d1057f8	0.035240144
93	0x3b516f24	0.0031957114
94	0x3e2d76fc	0.1693992
95	0x3e0e59f2	0.13901499
96	0xbdc96ba7	-0.09834986
97	0x3e7549fe	0.23954007
98	0x3e772610	0.24135613
99	0x3e80e5e5	0.25175396
100	0x3df2386e	0.11827169
101	0x3e9044ba	0.28177434
102	0xbacb4543	-0.0015508312
103	0x3e7d432a	0.24732652
104	0x3de16ff9	0.11007685
105	0x3e13fb76	0.14451393
106	0xbd84d29b	-0.06485482
107	0xbdca385e	-0.098740324
108	0xbd9dc475	-0.07703487
109	0xbdf1db8f	-0.118094556
110	0xbe0dab51	-0.13834883
111	0xbda73a48	-0.08165413
112	0x3e48870b	0.19582765
113	0x3e8f9bdc	0.280486
114	0xbe4ac3b4	-0.19801217
115	0x3c9f0bbc	0.019414775
116	0x3dfe717c	0.12423989
117	0xbd95b56e	-0.073099956
118	0xbc0f7de2	-0.00875804
119	0x3e56b540	0.20967579
120	0x3d83c406	0.06433873
121	0xbdbee67a	-0.09321304
122	0xbd8c6dd3	-0.06856885
123	0xbc0b1b6e	-0.0084904265
124	0x3dd4beda	0.103879645
125	0xbdaeab7d	-0.085288025
126	0xbc99b4a5	-0.018762896
127	0x3e9344f7	0.28763554
128	0x3d4158e3	0.04720391
129	0xbda02c1b	-0.078209125
130	0xbd2584ef	-0.04040998
131	0x3e58116b	0.21100394
132	0x3e5d8d34	0.21635896
133	0xbe703e61	-0.23461296
134	0xbe150ca1	-0.14555599
135	0x3dc20933	0.09474411
136	0xbe013dbf	-0.1262121
137	0x3e0c6a6c	0.13712472
138	0x3e38fa10	0.18064141
139	0xbdc3a2e0	-0.0955255
140	0x3e8b2faf	0.27184817
141	0xbd0c5c10	-0.034267485
142	0x3cbfee19	0.023428963
143	0xbe7b9a9b	-0.24570696
144	0xbe6a6f29	-0.22893967
145	0xbe9d3d2b	-0.3071073
146	0xbd59c9cb	-0.05317096
147	0xbe7f0643	-0.24904732
148	0x3ce21338	0.027597055
149	0x3e4718c3	0.1944304
150	0x3e020a8e	0.12699339
151	0x3cb72425	0.022356102
152	0x3ddb7df3	0.10717382
153	0x3e3a5ea7	0.1820017
154	0xbde9bd38	-0.11413044
155	0x3c889e9a	0.01667719
156	0x3e27573f	0.16341875
157	0x3e4198ba	0.18905917
158	0x3d56b1e6	0.05241575
159	0x3d21d045	0.039505262
160	0xbdbd3bde	-0.092399344
161	0xbe003f63	-0.1252418
162	0xbe171d6c	-0.14757317
163	0x3e964e76	0.29356736
164	0x3db9bbc2	0.09069015
165	0xbdfcf0a0	-0.12350583
166	0x3d8ce2d9	0.06879205
167	0x3de5394f	0.11192571
168	0x3ebbb4e0	0.36661434
169	0x3e9195b3	0.28434524
170	0x3e3f01fe	0.18653104
171	0x3e199780	0.14999199
172	0xbdfbaf0b	-0.12289246
173	0x3eaa29bf	0.33234975
174	0x3bdbb1d1	0.006704547
175	0xbd93fcbf	-0.07225942
176	0xbe03a086	-0.12854204
177	0x3e434000	0.19067383
178	0x3b858344	0.004074486
179	0x3c125fca	0.008933971
180	0xbcc86f41	-0.024467112
181	0xbe337762	-0.1752601
182	0xbcccce4f	-0.02500072
183	0xbd36b750	-0.044608414
184	0x3e36cf20	0.1785245
185	0xbc83f5a1	-0.016108336
186	0xbd291d93	-0.04128797
187	0xbe8179d7	-0.2528827
188	0x3e1bb511	0.1520579
189	0xbd56446c	-0.052311346
190	0x3e786dba	0.24260607
191	0x3cffafd7	0.031211777
192	0x3db8ca1c	0.09022924
193	0xbdabc239	-0.083866544
194	0xbe42e18c	-0.19031352
195	0xbe8645b1	-0.26225045
196	0xbd27459e	-0.040837876
197	0x3e250ca2	0.161181
198	0x3d436084	0.047699466
199	0x3e854c02	0.26034552
200	0x3e5ca978	0.21549022
201	0x3e6597ec	0.22421235
202	0xbc200f7d	-0.009769318
203	0x3dcb50e2	0.099275365
204	0xbe80f938	-0.2519014
205	0x3e842057	0.25805923
206	0x3c6b3861	0.0143567035
207	0xbea10321	-0.314477
208	0x3d9916df	0.074750654
209	0x3e3f8f44	0.18706995
210	0x3e4dacb3	0.20085411
211	0xbd01e430	-0.031711757
212	0x3ea6fc91	0.32614568
213	0x3d447012	0.04795844
214	0x3e0f1864	0.13974148
215	0xbbc53549	-0.006018315
216	0x3e7e30c9	0.24823298
217	0x3e841ecd	0.2580475
218	0x3e2c1d9a	0.16808167
219	0xbe58df00	-0.21178818
220	0xbdb34ce7	-0.08754902
221	0x3daa727e	0.08322619
222	0x3ec381d3	0.38184986
223	0x3d35fb36	0.044429027
224	0xbe910fd0	-0.28332376
225	0x3df77b45	0.12084059
226	0x3df154e8	0.11783773
227	0x3e1329fd	0.14371486
228	0xbde270f3	-0.110566996
229	0x3dc876ca	0.09788282
230	0xbe13d0c4	-0.14435107
231	0xbcba313e	-0.022728559
232	0xbdbff895	-0.09373585
233	0x3d83ddfd	0.06438825
234	0x3bc3f238	0.0059798025
235	0x3da54924	0.08070591
236	0x3ce09854	0.027416386
237	0x3d840b6d	0.06447492
238	0x3c3b597e	0.011434911
239	0x3e3a274d	0.18179055
240	0x3e3134d3	0.17305307
241	0x3d4ddac2	0.05025745
242	0xbea4e191	-0.32203344
243	0x3eb4a24b	0.3528007
244	0x3e16dd1f	0.14732789
245	0x3ef46f31	0.47741082
246	0xbd0fe72b	-0.03513257
247	0xbdf4d254	-0.119541794
248	0x3df606f0	0.12013042
249	0x3db85193	0.08999934
250	0x3c1d306d	0.009594065
251	0xbe0e15e7	-0.13875543
252	0x3e18b1db	0.14911596
253	0x3e632de1	0.2218547
254	0x3e5dd99d	0.21665044
255	0x3e8fd037	0.28088543

model.6.bias f4 [128]
0	0x3dd29ccb	0.10283812
1	0x3dc3d779	0.095625825
2	0x3c23d70a	0.01
3	0x3d55a109	0.05215553
4	0x3dc4c6ea	0.09608252
5	0x3d9b5c93	0.075860165
6	0xb7fb28db	-2.9940556e-05
7	0x3ddca48c	0.10773572
8	0x3dede169	0.11615259
9	0x3c23d70a	0.01
10	0x3d4d2271	0.050081674
11	0x3da14d13	0.07876029
12	0x3c45f2ae	0.012081785
13	0xbc691714	-0.014226694
14	0x3dc90238	0.09814876
15	0x3dc19885	0.09452919
16	0x3c23d70a	0.01
17	0xbc87e6ad	-0.016589487
18	0x3c23d70a	0.01
19	0xbcc5f3ad	-0.024164045
20	0xbb9e223a	-0.0048258575
21	0x3c23d70a	0.01
22	0x3dc5fff3	0.09667959
23	0xbc91e3f2	-0.017808888
24	0x3dcb11c5	0.09915499
25	0x3b21fc71	0.0024717117
26	0x3b051a2d	0.0020309791
27	0x3deec4ba	0.11658616
28	0x3ddf2a9b	0.10896798
29	0x3da6059e	0.0810654
30	0xba9a9867	-0.0011794687
31	0xbb3f3f19	-0.0029181896
32	0x3d6b0093	0.057373594
33	0x3dc0c083	0.09411719
34	0x3c23d70a	0.01
35	0x3ded0804	0.115737945
36	0x3d70fd13	0.0588351
37	0x3b840534	0.0040289406
38	0x3dc6700d	0.09689341
39	0x3decce4a	0.11562784
40	0x3c23d70a	0.01
41	0x3c8402d5	0.016114632
42	0x3dd3e5a6	0.10346536
43	0x3dcd073a	0.10011144
44	0x3dc37ec8	0.09545666
45	0x3d4932a5	0.049120564
46	0x3c23d70a	0.01
47	0xbc481283	-0.012211445
48	0x3c23d70a	0.01
49	0x3b3d8794	0.0028919922
50	0x3dbfcc14	0.09365097
51	0x3dc2292f	0.094805114
52	0x3de9c863	0.11415174
53	0x3dc4a436	0.09601633
54	0x3acd657f	0.0015670507
55	0x3c82c45d	0.015962774
56	0x3d8f5dfb	0.07000347
57	0x3dce04b6	0.10059492
58	0x3d83dc79	0.06438536
59	0x3aa74814	0.001276257
60	0x3d57ff58	0.05273375
61	0x3da24e53	0.079250954
62	0xbc002d75	-0.007823338
63	0x3d8ea571	0.06965149
64	0xb8b313ca	-8.539071e-05
65	0xbbd3a61c	-0.0064590108
66	0xbc1541db	-0.009109939
67	0x3ddb2da1	0.107020624
68	0x3dd5c17d	0.104372956
69	0x3d4ff644	0.050771967
70	0x3d9e0062	0.07714917
71	0x3d3045ba	0.043035246
72	0x3dccffc4	0.10009721
73	0x3c23d70a	0.01
74	0x3d45ed12	0.04832179
75	0x3dbed550	0.0931803
76	0x3dcfd32b	0.10147699
77	0x3dc3574a	0.095381334
78	0x3db0c16d	0.08630643
79	0x3d08fcf7	0.03344437
80	0x3de78361	0.113043554
81	0x3dd87cf0	0.10570705
82	0xbbbdb989	-0.00578994
83	0x3daf7690	0.08567536
84	0x3d146393	0.036227774
85	0xbbefdb36	-0.007319833
86	0x3bff5f77	0.0077933627
87	0x3dc9a28c	0.098454565
88	0x3de01a0b	0.10942467
89	0xbb5fd457	-0.0034153664
90	0xbbfd6308	-0.0077327527
91	0x3b86b1bc	0.004110543
92	0x3d655097	0.05598506
93	0x3c23d70a	0.01
94	0x3da6feb9	0.08154053
95	0x3c23d70a	0.01
96	0xbbd8f6b6	-0.006621207
97	0x3da55ede	0.08074735
98	0xbb7d9121	-0.003869124
99	0x3dc6a58f	0.096995465
100	0x3d483b61	0.048884753
101	0x3c82d68c	0.015971445
102	0x3d7d323b	0.06181548
103	0x3c23d70a	0.01
104	0x3de54d90	0.111964345
105	0x3d2bbc15	0.041927416
106	0xbc7e55c3	-0.015523377
107	0xba81f195	-0.0009913916
108	0x3d8b41f6	0.067996904
109	0x3c23d70a	0.01
110	0x3da5b0e5	0.080903806
111	0x3de1cac7	0.11025005
112	0x3da5df0f	0.08099186
113	0x3dc92b15	0.0982267
114	0x3dcc49a5	0.09974984
115	0x3dcc7edc	0.09985134
116	0x3dcdf7ea	0.100570515
117	0x3d6d4cd1	0.057934586
118	0x3dd504f6	0.10401337
119	0xbb4a06b2	-0.0030826745
120	0x3c94b1ec	0.018151246
121	0x3dc8ca33	0.098041914
122	0x3dcb07cc	0.099135965
123	0x3d86045d	0.06543801
124	0x3c82cd21	0.015966954
125	0x3aa03d0b	0.0012225223
126	0xbb703865	-0.0036654708
127	0x3d3a8161	0.04553354

model.8.weight f4 [3, 128]
0	0xbd949195	-0.0725433
1	0xbe434612	-0.19069698
2	0xbec5170d	-0.3849415
3	0x3ef0dfc6	0.47045726
4	0xbe40778b	-0.18795602
5	0x3e63bc6c	0.22239846
6	0x3e4d0c3b	0.20024197
7	0xbde24114	-0.11047569
8	0xbe219f07	-0.1578332
9	0x3cf280f5	0.029602507
10	0x3e70cfa6	0.23516712
11	0x3e02c29c	0.1276955
12	0x3d4645cf	0.04840642
13	0xbdb405dd	-0.08790181
14	0xbe71c4d6	-0.23610243
15	0xbeafc0d0	-0.34326792
16	0x3de9cae4	0.114156514
17	0xbe4b887d	-0.19876285
18	0x3bf87902	0.0075827846
19	0x3b37baca	0.002803492
20	0x3e49588d	0.19662686
21	0x3df4f848	0.119614184
22	0xbe537c3d	-0.20652862
23	0x3c03706d	0.00802241
24	0xbe8e914a	-0.27845222
25	0xbd266bfb	-0.040630322
26	0x3b22628e	0.0024777981
27	0xbe2858c6	-0.16440114
28	0xbdaea489	-0.08527476
29	0x3e2aa6f1	0.16665246
30	0x3de86cf9	0.1134891
31	0xbe926886	-0.2859537
32	0x3e5cc22f	0.2155845
33	0xbe034de4	-0.12822682
34	0xbdf09f14	-0.11749092
35	0xbe344017	-0.17602573
36	0x3debd749	0.11515672
37	0xbe3f9bd6	-0.1871179
38	0xbe853d03	-0.2602311
39	0xbd8fe531	-0.07026137
40	0x3d6713ab	0.05641524
41	0xbdcedeac	-0.10101065
42	0xbe8a3f17	-0.2700126
43	0xbebfadfe	-0.37437433
44	0xbe7aa61b	-0.24477427
45	0x3e557a89	0.20847525
46	0x3c73ca16	0.014879724
47	0xbdb21e3c	-0.08697173
48	0xbb7ec548	-0.0038874913
49	0xbdd8344d	-0.105568506
50	0xbe967acb	-0.2939056
51	0xbef9c197	-0.4878051
52	0xbdb7c47a	-0.08973022
53	0xbe9965b0	-0.29960394
54	0xbe3feac6	-0.18741903
55	0xbd70f685	-0.05882885
56	0x3e4557b6	0.1927174
57	0xbe2de2d7	-0.16981064
58	0x3e93e437	0.28885052
59	0x3e181b83	0.14854245
60	0x3e897f4c	0.26854932
61	0x3eb2bdeb	0.3491052
62	0x3d6cb2d1	0.05778772
63	0x3e52dbb3	0.20591621
64	0xbe05d912	-0.13071087
65	0x3ce7da87	0.028302444
66	0xbe091f92	-0.1339095
67	0xbd8b1a57	-0.06792133
68	0xbe6b8c4b	-0.23002736
69	0x3e4c850c	0.19972628
70	0x3e0a3a35	0.13498767
71	0x3e808256	0.25099438
72	0xbe2bf54d	-0.16792794
73	0x3d0540c1	0.032532457
74	0x3e500425	0.20314081
75	0xbeec1216	-0.46107548
76	0xbe045c99	-0.12925948
77	0xbe23562e	-0.15950844
78	0xbe311f29	-0.17297043
79	0x3e1cc930	0.15311122
80	0xbe4b2403	-0.19837956
81	0xbdd0a318	-0.10187358
82	0xbc0489b8	-0.008089475
83	0xbea5b897	-0.32367393
84	0x3d474657	0.048651066
85	0x3e4a06f7	0.1972922
86	0x3da0ccf9	0.078515954
87	0xbe802c7e	-0.25033945
88	0xbdb503b5	-0.08838598
89	0xbd1f7b43	-0.03893591
90	0x3e8b1bc5	0.27169624
91	0x3dbbe01d	0.091736056
92	0x3e0ac631	0.13552167
93	0x3b86faf2	0.0041192705
94	0x3e5668ed	0.20938464
95	0x3ddea618	0.108715236
96	0x3cd74724	0.02627904
97	0xbe6e5693	-0.23275213
98	0xbd4df65b	-0.05028377
99	0xbe8793f0	-0.26480055
100	0x3e1cd49e	0.15315482
101	0x3dcc8897	0.0998699
102	0xbeaa64ea	-0.33280116
103	0x3e1a2a61	0.15055229
104	0xbe3f981b	-0.18710367
105	0xbd8fd95c	-0.0702388
106	0x3d6ead38	0.058270663
107	0xbe288184	-0.16455656
108	0x3d4f4b62	0.050609
109	0xbbb3479a	-0.005471182
110	0x3e5cd63d	0.215661
111	0xbe0cdb7e	-0.13755605
112	0x3e4e1f19	0.2012905
113	0xbcb5291a	-0.022114325
114	0xbe9ef147	-0.31043455
115	0xbebb4f65	-0.3658401
116	0xbd777922	-0.060418256
117	0x3e90f8b6	0.2831475
118	0xbe82d34d	-0.25551835
119	0xbda5b631	-0.08091391
120	0x3e1222a0	0.14271021
121	0xbe6b3dc4	-0.2297278
122	0xbde4b18b	-0.11166676
123	0x3ec6a5e8	0.3879845
124	0xbdaa007e	-0.08300875
125	0x3d0545a6	0.032537125
126	0x3cccea0b	0.025013944
127	0x3e2fbbd1	0.1716149
128	0x3e66bcae	0.22532913
129	0xbdd9b3d9	-0.10630006
130	0xbe565513	-0.2093089
131	0xbc1ae543	-0.009454074
132	0xbd06c55e	-0.032903068
133	0x3d746798	0.059669107
134	0xbe18d883	-0.14926343
135	0x3d61334d	0.054980565
136	0xbd38e432	-0.0451395
137	0x3e32c3ab	0.17457454
138	0xbe205ac0	-0.15659618
139	0xbe45c749	-0.19314303
140	0x3dc1a34a	0.09454973
141	0x3c6df9ef	0.014524921
142	0x3c8c4cd6	0.017126482
143	0xbcf01469	-0.029306607
144	0x3dccaf34	0.09994355
145	0xbdde7809	-0.10862739
146	0x3e17d563	0.14827494
147	0xbdeb62a8	-0.114934266
148	0xbd82ecb1	-0.063928016
149	0xbdaa3c19	-0.08312244
150	0x3e66b22c	0.22528905
151	0xbca8d09b	-0.020607283
152	0xbdcac544	-0.09900907
153	0x3deae17d	0.1146879
154	0x3e434ed4	0.1907304
155	0xbe851794	-0.2599455
156	0xbe805672	-0.25065953
157	0xbddaf75e	-0.10691713
158	0xbc8ce168	-0.017197326
159	0x3cdf8009	0.027282732
160	0x3e50ea3a	0.2040185
161	0xbc9f3e8b	-0.019439002
162	0x3a0a7d26	0.0005282931
163	0xbde6482b	-0.11244234
164	0xbba8d04f	-0.0051517854
165	0x3d4698f2	0.048485704
166	0x3e8909f1	0.26765397
167	0x3d19126c	0.037371084
168	0x3dde9095	0.108674206
169	0x3e17ff7c	0.14843553
170	0x3d596136	0.053071223
171	0xbdf4ece0	-0.11959243
172	0x3c6db53a	0.01450854
173	0xbd96ee1f	-0.07369637
174	0xbe353a09	-0.1769792
175	0xbe1441e7	-0.14478265
176	0x3e74f903	0.23923115
177	0xbd2917d3	-0.041282486
178	0xbc69c4e0	-0.01426813
179	0xbe27dfd2	-0.16393974
180	0x3dd72c44	0.1050649
181	0xbd3cad0f	-0.04606348
182	0xbe01db85	-0.12681396
183	0xbdd47430	-0.103737235
184	0x3d6a97ea	0.057273783
185	0xbeaf17bd	-0.34197798
186	0xbe112125	-0.141728
187	0xbbeab63b	-0.007162837
188	0x3cca7a04	0.024716385
189	0xbdbcb7a1	-0.09214712
190	0x3e6c90cf	0.23102115
191	0x3decf516	0.11570184
192	0xbe061cdd	-0.13096948
193	0xbd435b15	-0.047694284
194	0xbcaece22	-0.021338526
195	0x3cf7fe3e	0.0302726
196	0x3d378727	0.044806626
197	0xbd34956a	-0.044087805
198	0xbe3d8563	-0.18507914
199	0xbbd5bccd	-0.006522751
200	0xbe19a8c8	-0.15005791
201	0x3da7d6ee	0.081952915
202	0x3cd73ce6	0.026274156
203	0x3de50543	0.11182644
204	0xbb2b3aa2	-0.0026127477
205	0xbe3908ac	-0.18069714
206	0x3d27b0a2	0.040939935
207	0x3d4acbf1	0.0495109
208	0xbdac977c	-0.08427331
209	0xbd6e36dd	-0.05815779
210	0xbea28ee7	-0.3174965
211	0xbcc2fb57	-0.023801489
212	0xbc9dd3b1	-0.019265981
213	0x3e2c1cc7	0.16807853
214	0xbe84f6d2	-0.2596956
215	0x3dbe24a0	0.092843294
216	0x3d8d0df6	0.068874285
217	0x3c1b2c44	0.009471003
218	0xbe560d01	-0.20903398
219	0x3e5b35d3	0.21407251
220	0x3e0758d0	0.13217473
221	0xbebe4f51	-0.3716989
222	0xbda2fc2b	-0.079582535
223	0x3e2cd259	0.16877116
224	0x3c87bfc7	0.016570939
225	0x3c14e029	0.009086647
226	0xbe8f566a	-0.27995616
227	0x3d2ae054	0.041717842
228	0x3e08d33d	0.13361831
229	0x3c3cdcf0	0.011527285
230	0x3dc3e76c	0.095656246
231	0xbd0d12dd	-0.034441818
232	0xbde05c12	-0.10955061
233	0xbd8ca4d8	-0.06867379
234	0xbd60c75b	-0.05487762
235	0x3e0a15ad	0.13484831
236	0xbe241073	-0.160219
237	0xbdd819d9	-0.10551805
238	0x3ca7ef6d	0.02049991
239	0x3cc3c0ad	0.023895586
240	0xbe8c1879	-0.2736242
241	0x3e23d577	0.15999399
242	0x3e279092	0.16363743
243	0xbc6dee32	-0.014522122
244	0xbeb07d90	-0.34470797
245	0xbeafdf02	-0.3434983
246	0xbd99721f	-0.0749247
247	0x3e0813a3	0.13288741
248	0xbdd9158a	-0.105998114
249	0xbde0a6ab	-0.109692894
250	0xbe6e9096	-0.23297343
251	0xbe657bb0	-0.22410464
252	0x3de4b3d1	0.1116711
253	0x3bfccb9e	0.0077147027
254	0xb6c48aff	-5.8574365e-06
255	0xbc51af5f	-0.012798159

model.8.bias f4 [3]
0	0xbd868c4b	-0.065697275
1	0xbb65f4a8	-0.0035088453
2	0x3db5f353	0.08884301
